models/Clinician/model.pth (torch, 258198 bytes, 18 tensors)

fc1.weight f4 [128, 18]
00000000: 4a08 083e 2195 78be fdd9 b33e 0d6c 8cbe
00000010: 1ed6 7cbe 5be0 253e 81b3 78bc 54d3 77be
00000020: 19b4 a93e f8ce 1d3b a2e9 743e 8a31 81bd
00000030: 1f8c 80be 0f03 133e 4d5b 8b3c 60bb 54bd
00000040: f892 1bbd 8ac0 6fbd 9941 823d eb42 a03d
00000050: fc46 22be 8c1a dbbe 6f82 77bd 36b5 3b3e
00000060: 5b77 9ebd e239 833b af2d 23be 8592 c6bd
00000070: 0e12 4abc c588 09be ed1d 6abe 57c8 973b
00000080: 03dd f6bd 2965 96bd 53c2 a9be 0a9a f83d
00000090: 34cc aa3d 664d 30be fe99 5c3d 05ca 163e
000000a0: c734 293e 4175 12be 27be e73b da19 83bd
000000b0: c3c1 873e b6a5 543e 3a1e 053f 4b8d af3d
000000c0: 8a97 fcbd e3d4 67bd a4c5 4b3b b086 08be
000000d0: 4939 8bbc d737 013d 0f4a 03bd 8b16 8a3d
000000e0: 9fdf 6dbe 3e93 b63b 168a 0ebe fcc2 523e
000000f0: edd9 e13c 8f2e f13b bdac b7bd c511 0e3e
00000100: 3abb a23e ee92 80bd 10c5 343e 4484 bcbe
00000110: 7cc4 4cbe b821 2abe 3b43 13be e6f7 e3be
00000120: 799f 6939 6098 4fbc 25b3 0ebe ed99 2f3f
00000130: 38b6 85bc 7f3a 91be 32b8 1cbc 4ff7 583d
00000140: fa6e ccbe 811b 1fbe 2f77 49be 91be 9d3d
00000150: 54e1 183e 1619 d03c d723 6abd 5e58 b2bd
00000160: 2598 8b3d 5e4f 3abd 8ebb 9fbd 46f7 423d
00000170: 9a1c 6f3e a6ff d8be abff 963e f12d ba3e
00000180: 35a3 d5bd 00c5 bc3d 4252 72bd ea7b ccbd
00000190: 1202 213e f06e f6bc 3343 4ebd 37f7 523d
000001a0: 1117 77be bda2 16bd b205 e6be ebfb c43d
000001b0: 556a 313d b4b8 95be 109a a8be f725 a63e
000001c0: f6f0 d7be 41f4 f9be f9fe 3dbe d082 07bf
000001d0: fbd9 253e 6f99 7abe e362 1d3b 8b40 873e
000001e0: 81cc c83d 2880 453d 7dfe 453d d48f 7b3d
000001f0: 3b6c 09be 145d f9bd a2f5 a23e 34cb 08be
00000200: c50c dd3e 5eed a6be f75d c1bb 1328 8ebe
00000210: d709 e33d 3f6d 47be e6a7 76bc ca9d 98be
00000220: 20d8 323d c8c9 8fbe 0394 18be cb25 03bd
00000230: 51d5 413b d918 1b3c d2ec d9bc ea62 6c3b
00000240: 9a74 30bd 99c0 ec3c a8ae 003d 59ef 603d
00000250: afd6 30bc 50a1 ac3d 5be1 dabc b891 87bc
00000260: 43c3 0dbf 8654 e13b 5ae7 853f 6fd1 503d
00000270: cfb0 c03b 91d6 743c d113 2d3d 0c4e 163d
00000280: 61f9 d43c 1d33 1abd 78f3 d13e 2ca8 493e
00000290: a2dd 563d 4874 ae3c c408 1b3e 641d b1be
000002a0: db9d aebe 489e abbe 96b3 bdbc 4fc2 0a3e
000002b0: 2bf8 d8bd aaca 1dbe c8e4 b13d 52f5 113e
000002c0: 3f2b 443d c5c8 aa3d e555 bdbd 145a 133e
000002d0: 3dca 203c bd5f 9cbe 4ac6 ac3e efbb c73e
000002e0: 3ee3 8d3e d570 c8bd 9dfa 35bc 6925 9ebc
000002f0: 4a9f d43c fb3e 473e 205b 3fbe 3850 fdbe
00000300: f5a5 57bd 2718 bbbc b118 0a3e 47ee 233d
00000310: cf2d 133e 9505 6bbc bd1d cebd 06cb 22be
00000320: 6127 36be 0f10 423e dac0 b0be 6e93 96be
00000330: 87b4 8c3e db8b e33e 0ea3 873c a707 3d3e
00000340: 836a 9e3e 72d1 443e fcb9 3abe c1f3 17be
00000350: 4aea 9bbd 308e 0dbe 4901 353c d2c9 433e
00000360: f454 943e ea29 cabd b203 e83d 8661 3c3c
00000370: 7c4d bc3d 2b36 893c ebb4 22bf 8279 3cbd
00000380: 8789 9cbd 2cf3 3d3d a60d 583e 6b8d e2bc
00000390: 665a 033d 97a9 27bd 2063 a9be 2f51 303e
000003a0: b02f 883d a42a 783e 0d7d f0bd 38a0 013f
000003b0: 43da e73d eb0d 9a3d 5244 1a3c e2d4 9cbd
000003c0: 62bb 9bbc 0941 f5be d435 8d3d e431 1d3b
000003d0: 69d8 88bd fdb9 393e 9782 1e3d 7e2a 203e
000003e0: f432 8fbe 4c8c ac3d 6745 c53c 7a93 8abd
000003f0: 6d8f 4f3e dde3 463e ca7d e8be e14b cbbe
0.13284412 -0.24275638 0.3512725 -0.27426186 -0.24691054 0.16198866 -0.015179516 -0.24201709
0.33145216 0.0024079662 0.23917249 -0.06308277 -0.25106904 0.14356636 0.017011309 -0.051936507
-0.037981957 -0.05853323 0.06360168 0.078252636 -0.15847391 -0.4279369 -0.060427126 0.18330845
-0.07737609 0.004004703 -0.15935396 -0.09695915 -0.012333406 -0.1343108 -0.22862978 0.0046320367
-0.120538734 -0.073435135 -0.3315607 0.121387556 0.0833973 -0.17217025 0.053857796 0.14725502
0.16524039 -0.14302541 0.0070722285 -0.06401415 0.26515016 0.20766339 0.5199925 0.08571871
-0.12333591 -0.05659951 0.0031093145 -0.13332629 -0.01699509 0.031547394 -0.03205305 0.06742581
-0.23229836 0.005571752 -0.13919863 0.20582193 0.027569735 0.0073602865 -0.08968494 0.13873966
0.31783468 -0.062780246 0.17653298 -0.3681966 -0.19996828 -0.16614425 -0.14381115 -0.4452507
0.0002228002 -0.012670606 -0.13935526 0.6859425 -0.01632224 -0.2836494 -0.0095654 0.052970227
-0.39928418 -0.15537836 -0.19674371 0.07702363 0.14929706 0.025402587 -0.057163086 -0.08708261
0.06816129 -0.045485847 -0.07799445 0.0475991 0.23350754 -0.42382544 0.29491934 0.36363176
-0.1043152 0.09217262 -0.05916048 -0.09984572 0.15723446 -0.030082196 -0.050357055 0.051505294
-0.24129893 -0.036776293 -0.4492622 0.09618362 0.043314297 -0.2924248 -0.3293004 0.3245084
-0.42176026 -0.48819163 -0.18554296 -0.5293398 0.16196434 -0.24472593 0.002401524 0.2641643
0.09804631 0.048217922 0.048338402 0.061416462 -0.13420193 -0.12175956 0.31828028 -0.13358766
0.43173805 -0.32602972 -0.005901094 -0.2776495 0.11085861 -0.19475268 -0.015054679 -0.29807884
0.043663144 -0.28083634 -0.14900212 -0.032018464 0.002957661 0.009466373 -0.026602183 0.00360697
-0.04307995 0.028900431 0.031416565 0.05491576 -0.010793372 0.084292054 -0.026718786 -0.016548976
-0.5537607 0.006876531 1.0461228 0.05098098 0.005880452 0.014943735 0.042255227 0.036695525
0.02599782 -0.0376464 0.41006064 0.19693059 0.05245746 0.021295682 0.15140063 -0.34592736
-0.3410481 -0.33519197 -0.023156922 0.13550685 -0.10594209 -0.15409341 0.08686215 0.14253739
0.047892805 0.08339075 -0.09244899 0.14389831 0.009813842 -0.30541793 0.33745033 0.3901057
0.27712435 -0.09787146 -0.011107114 -0.019304948 0.025954861 0.19457619 -0.18687105 -0.49475265
-0.052648503 -0.022838665 0.13485982 0.04002216 0.14372943 -0.014344593 -0.10064266 -0.1589776
-0.1778846 0.18951438 -0.34522134 -0.29409355 0.2748148 0.4444264 0.016557243 0.1845995
0.30940637 0.19220522 -0.1823501 -0.14839078 -0.076130465 -0.13823771 0.01104767 0.19119957
0.28971064 -0.09871276 0.1132883 0.011497861 0.091944665 0.016749462 -0.6355731 -0.046014316
-0.07643419 0.046374485 0.21098956 -0.027655324 0.032068633 -0.040933218 -0.3308344 0.17218469
0.06649721 0.24235016 -0.117426015 0.506351 0.11320927 0.07522186 0.009415703 -0.07657792
-0.01901025 -0.4790118 0.068950325 0.0023986036 -0.06681902 0.18137355 0.03869876 0.1564121
-0.27968562 0.08425197 0.024080945 -0.0676641 0.20269556 0.1942286 -0.4540847 -0.3970633

fc1.bias f4 [128]
00000000: a197 893e 8537 c73e e335 fbbd 9b67 a73e
00000010: 7489 983e 5aff 41bd 7247 05be c3c2 e2be
00000020: 58ee 5fbe 9b66 adbd 9da6 5ebd 1d97 b3bd
00000030: 1aa8 ab3d 7bff 3ebe 436c 80be c88c 5a3e
00000040: 69f7 48be 1fa9 51be f543 99be a906 59be
00000050: fa76 ac3d 0f83 5dbe b246 a23d 8bbf 42be
00000060: c39d 2bbd 7c9e b3bd 2e8e 983e fbc8 d13d
00000070: 2221 073e 44e4 1bbe 53f9 043e ebf8 763e
00000080: d75d 32bd 2934 39bc fbf5 503e 9bf2 d3bd
00000090: 09a0 f83d 9cd2 5a3e 2bda c93e c639 38bc
000000a0: 5df5 a4be 188b d33e 36eb 19bc 2c16 9e3d
000000b0: 92e3 0bbe d086 903d 4161 cb3d 25b4 fc3d
000000c0: 293c c23d 1093 f3bc 844c 4a3e 6e8a 98be
000000d0: b917 e33d f964 27bd f468 04be 516f 4bbe
000000e0: 92d3 98bd 1998 72be 602e 903e c02f 473e
000000f0: 2b00 7c3d e4a5 093e f585 913e ecf1 883e
00000100: ca23 913d 2135 7cbe d2ce 38bd b9a4 a7be
00000110: b799 1e3e f735 aa3e 4a9a 3f3e 9087 19be
00000120: ad75 82be 2c3b 813d e2a4 683e 18d6 aabe
00000130: 46e5 7b3e 17c3 4f3e d287 b63e 7a5a cb3e
00000140: 2e9c db3d c66f 0dbe 821d 25be 0c48 503d
00000150: 36de 73be 69fe 34bd 4116 fa3d 5729 febd
00000160: fb39 6a3e 63cc 7b3e da2f b13c c167 753e
00000170: 48f9 92be bb29 a23e 3805 353e df4c 01be
00000180: 6fe7 b13e a749 7c3e e379 c03e ee85 dd3e
00000190: b92b 1fbe 3018 da3b c327 913c d6c4 68bc
000001a0: eb23 863e 34ff cabd c34c babc 7e3a 63be
000001b0: f48e 493e aca0 083e 7ff6 573e 1e34 833e
000001c0: 147b aebe 0c71 773e 0dfa a83e 59d9 84be
000001d0: 8636 89be 85c2 723e af57 1dbe d08b f93d
000001e0: 0583 8d3d 1d96 1d3e 4410 c4bb 352b 343e
000001f0: 6195 cebd 21c8 dd3e 3271 b63e 8c02 693e
0.26873496 0.38909546 -0.122661375 0.32696232 0.29792368 -0.047362663 -0.13015535 -0.44289216
-0.21868265 -0.08466836 -0.054358114 -0.08769057 0.08381672 -0.18652146 -0.25082597 0.21342766
-0.1962563 -0.20474671 -0.2993466 -0.21193947 0.084211305 -0.21632026 0.0792364 -0.1901838
-0.0418985 -0.08770463 0.29795974 0.10243412 0.13196233 -0.15223795 0.12985735 0.24118392
-0.043546524 -0.01130394 0.20406334 -0.10349008 0.12139899 0.21369404 0.3942426 -0.011244243
-0.32218447 0.41317058 -0.009394458 0.07719073 -0.1366103 0.070569634 0.09930659 0.12339047
0.09484131 -0.02973321 0.19755751 -0.29793113 0.11088509 -0.04086778 -0.12930661 -0.19866683
-0.07462229 -0.23690833 0.2816038 0.19451809 0.061523598 0.13442189 0.28422514 0.26747072
0.07086904 -0.24629642 -0.045119114 -0.3274286 0.15488325 0.33244297 0.187112 -0.14993119
-0.25480404 0.06310114 0.22719148 -0.33366466 0.2459918 0.20289265 0.35650498 0.39717466
0.10723148 -0.1381217 -0.16124538 0.05084996 -0.23815235 -0.044187937 0.12211276 -0.12410229
0.2287368 0.24589686 0.021629263 0.2396536 -0.28705812 0.31672463 0.17677772 -0.1262698
0.34746882 0.24637471 0.37592992 0.43266243 -0.15544023 0.0066557154 0.017719155 -0.014207086
0.26199278 -0.099119574 -0.022741681 -0.22190282 0.19683439 0.13342541 0.21090125 0.256257
-0.34078276 0.24164218 0.33003274 -0.25947073 -0.2679941 0.23707016 -0.1536548 0.1218487
0.069097556 0.15389295 -0.0059833843 0.17594607 -0.100870855 0.4331675 0.35633236 0.22754878

fc2.weight f4 [128, 128]
00000000: 7872 083e 61cc 1c3d bfcf 1e3e 32aa 02be
00000010: d8f6 28be 1116 d03d 68b3 99bd 2617 86bd
00000020: fe58 243d e5d7 803d f4e7 a23e 2873 6c3d
00000030: dbd5 07be 1587 a83e 31e6 193d 2b99 46be
00000040: f14b 97bc 6c75 053e 62f9 883d 18c6 56bc
00000050: 3855 1b3e 4481 dfbc 8227 d4bc 5bd0 613e
00000060: c7f2 b7bd 344a 91be 888e bdbd bb89 863e
00000070: ef0b 053e 2a03 7a3e 927f 80bd 0cd9 e8bd
00000080: f93c 8bbb 651a 403d b79f 39be 94d7 c83d
00000090: 6226 fe3d 417a e73d bc1d c9bc 0a80 3e3d
000000a0: b5a1 eebd da47 0c3e 3422 213e 7822 a3be
000000b0: ae4c 9d3d f148 ebbc 4f55 8dbd 085a 9fbe
000000c0: 7a70 983c d954 153e b760 19be 2518 8abd
000000d0: 0d21 abbb 6878 dd3e cf8b 6e3e f96c 97be
000000e0: a2fa 3abe c754 1a3e 872a 4f3d c1f5 293e
000000f0: 334b 10bd 4a2c 353e 3eaa 32bc 6d79 463e
00000100: acd4 80be 76b3 6f3d 32af a33d ced7 d23e
00000110: a0a3 6c3e f7d0 b1be 1352 0d3e 239f 7b3e
00000120: 4a42 bc3d c904 fcbd 2713 bcbe 40c3 53be
00000130: 6e67 eabd 6067 3abd b226 44be 27ef fd3d
00000140: f5ec a23c ea1a e13d 5704 b23d 8602 9cbe
00000150: 6e1b 603e 4a58 9abe 8219 9e3d 8ee1 c6bc
00000160: 3e6d 9abe 99c0 27be 3c0c e13d 0238 82bd
00000170: 2bdb b5bd 1b51 e5bc cbaf 07bc 9290 4dbe
00000180: f576 a23d f6dd 0abe f0f0 acbd 3fc1 ea3d
00000190: 239a 5ebe 2a8d cc3d 7e79 bbbe 74bc 163e
000001a0: 7082 28be 5177 9ebd 02f0 923b edfa 453e
000001b0: 578e e43d e162 0ebe 33a8 7d3e 4944 0f3e
000001c0: f053 13be 2b0c d93d 8728 2e3e dd0a b43e
000001d0: 207d 883e 28f4 373e 8d02 9b3e 0ed5 eabc
000001e0: 8272 5d3e 220a 9e3e 4a55 543d ddb9 b23b
000001f0: 47d2 ed3d 956c ac3d 9883 b13e 8b07 8a3e
00000200: 7194 f0bd 8d25 873c a862 603e 7f85 e63d
00000210: 870b 52be 7cf4 f83d 84e6 bb3e 197b 92bd
00000220: a941 f5be daa2 f73e 53ad d53e 8f8e cb3d
00000230: 4064 9fbe b806 453e 6395 20be 568a 4ebe
00000240: bb5f 41be 82d2 efbd 3bb1 ae3b 434a d33d
00000250: 8bc6 093e 9543 2b3e b18e 52be d272 b5bd
00000260: f49b e03c 31e3 20be 7be2 863d b0ea 3bbe
00000270: 703c 623e 83a6 39be 8593 693d cc5b 1fbe
00000280: 9426 953e cf5c 423e 27c6 9a3e a5e8 85bd
00000290: 719e fbbd a85e 9dbd d351 e63c 840b bd3d
000002a0: 6f73 87be f636 ac3e 809d 263e 1027 0fbc
000002b0: 375a 9b3d ea9c 1f3e 4321 043e 6380 8abb
000002c0: b23b c23e 4cbd 33be 663d 00bd 565b e2ba
000002d0: def5 5c3e 0354 8c3d 704b 803d 8a0f 39bc
000002e0: 682f 8cbd 42fc d03e 784b dc3c 3631 c43d
000002f0: e81c 64bc cd2e 8f3d 755b 1dbe bbca bfbd
00000300: ea4e 293e d5c2 683e 073b a6bd 3592 f73d
00000310: ae08 1f3c f504 3abd ea64 823e aa6a 533e
00000320: e652 dfbd 3a9e b23d 4bc5 85bc c49b 0abe
00000330: 48f0 18be b378 a2bd b5cf 99be e0c3 973e
00000340: 2561 afbc d86e 403e 796d 17bd 034f c8be
00000350: a97e c93e 5146 62bc 36bb 253d 0c5f 4a3e
00000360: de10 9bbd 4509 41be ea34 1cbe 0646 01bd
00000370: 9d21 6dbe b699 abbe 74d6 1cbd aec5 01be
00000380: 0a57 08bd 551a 32be 78bc 8a3d bcf1 2ebe
00000390: 656e 353e 4212 e3bc 4975 b1be 948d e73d
000003a0: ea33 e63e c041 dfbc a327 8cbd ea31 b1bd
000003b0: 451f d1bd 4224 2dbe af0a 92be 52eb 803e
000003c0: 9ab4 f7be 6104 13be 9f15 c03d 4f46 d43d
000003d0: a9ea b3bd 2e72 16be 88c9 2b3e fc91 bc3e
000003e0: bb28 1b3d 6c8d 493e feaa ed3d 518e c53d
000003f0: add6 c9bd eabe 303d 9b71 5bbc 8335 07be
0.13324916 0.03828085 0.15508936 -0.12760237 -0.16500413 0.10160459 -0.07504922 -0.06547384
0.040123932 0.062911786 0.3181759 0.05772701 -0.13265173 0.3291556 0.037573043 -0.19394366
-0.018468829 0.13033074 0.06688191 -0.013108753 0.15169227 -0.027283318 -0.025897745 0.22052138
-0.08981853 -0.28376925 -0.09255701 0.26276955 0.12992834 0.2441527 -0.06274332 -0.113695234
-0.004249212 0.04690017 -0.18127333 0.09806743 0.12409665 0.11302615 -0.024550311 0.046508826
-0.11651937 0.13699284 0.15735704 -0.31862235 0.07680641 -0.028721305 -0.06901037 -0.31123376
0.01860832 0.14583148 -0.149783 -0.067428865 -0.005222446 0.43255925 0.2329552 -0.29575327
-0.18259671 0.15071402 0.050577667 0.16597654 -0.035227966 0.17692676 -0.010904847 0.19382258
-0.25162256 0.058520757 0.079924 0.4118027 0.23109293 -0.3472974 0.1380084 0.24572425
0.09192331 -0.123056 -0.36733362 -0.2067995 -0.11445509 -0.045508742 -0.19155386 0.1239913
0.01988838 0.109914616 0.08692234 -0.30470675 0.21885464 -0.30145484 0.07719709 -0.024277475
-0.3016147 -0.16382064 0.10988662 -0.06358339 -0.088796936 -0.027992776 -0.008281658 -0.2007468
0.079328455 -0.13561234 -0.08444393 0.1146264 -0.21738486 0.099878624 -0.3661613 0.14720327
-0.16456008 -0.077376015 0.0044841776 0.19334002 0.11159962 -0.13904907 0.24771194 0.13990892
-0.14387488 0.10598024 0.17007647 0.35164538 0.26657963 0.17964232 0.30275384 -0.028666046
0.21625713 0.30867106 0.05183915 0.0054542855 0.11612373 0.08419148 0.3467071 0.2695888
-0.11747063 0.016497398 0.21912634 0.11255931 -0.2051221 0.12156007 0.36699307 -0.07152385
-0.47901657 0.48366433 0.41733798 0.099393 -0.31131172 0.19240844 -0.15681987 -0.20169958
-0.18884175 -0.11710073 0.005331186 0.10316899 0.13454644 0.16724999 -0.20562245 -0.08859791
0.027418114 -0.15711667 0.065861665 -0.18351245 0.22093368 -0.18129925 0.05702545 -0.15562361
0.29130995 0.18980716 0.30229303 -0.06538514 -0.1228608 -0.0768407 0.028115189 0.09230712
-0.26455256 0.33635682 0.16271019 -0.008737341 0.075855665 0.15587202 0.12903313 -0.0042267307
0.3793617 -0.1755268 -0.031308554 -0.0017269652 0.21578166 0.068519615 0.062643886 -0.011295209
-0.068449795 0.40817457 0.026891455 0.09579699 -0.013922907 0.069913484 -0.1536692 -0.0936484
0.1653401 0.22730573 -0.08116727 0.12088434 0.009706659 -0.045414884 0.25467616 0.20646158
-0.109044835 0.087215856 -0.016329428 -0.13535982 -0.1493541 -0.07933178 -0.3004128 0.29641628
-0.021408627 0.18792284 -0.036969636 -0.3912278 0.39354447 -0.01381071 0.04046174 0.1976282
-0.075715765 -0.18851192 -0.1525456 -0.03156092 -0.23157354 -0.3351571 -0.038290456 -0.12673065
-0.033286132 -0.17392857 0.06774229 -0.17084402 0.17717893 -0.027718667 -0.34659794 0.11306301
0.44961482 -0.027253032 -0.068434976 -0.086520985 -0.10211042 -0.16908363 -0.28523776 0.25179535
-0.48379976 -0.14357139 0.09379124 0.10364973 -0.08784992 -0.14691994 0.16776097 0.36830127
0.03788064 0.19682854 0.1160488 0.09646285 -0.09855399 0.04315082 -0.013393785 -0.13204007

fc2.bias f4 [128]
00000000: c1a2 94bd 87fd 943c f483 60ba bcf3 9d3c
00000010: 018d aebd f624 ff3d 9556 d83d 2ae9 38bd
00000020: d091 353e 9da1 bcbc 7eab db3b 9e30 09bc
00000030: a9f3 0f3d 0768 5a3c bee9 033b c480 0cbe
00000040: b7de 8cbc 5d32 46be 2ef8 1cbe 80fd c03d
00000050: ebc7 b7bc 85fc 10bd 5e25 dbbd 3507 683e
00000060: 2b75 8dbc e001 e43d da95 f23d ae65 83bd
00000070: 8e3a 9dbd 4850 1a3d 1c5b a1bd 082d ebbd
00000080: 1639 5d3c 753f 473e dab2 18bd 2a10 e13d
00000090: b627 ba3d 6f4c 0c3d c3a4 d43d e118 8f3d
000000a0: 01ba c0bc 2672 7d3e ec83 f7bd ffe2 453d
000000b0: e42f 2c3d c052 a6bc fccc a83d 57ec ee3d
000000c0: 006c 143e 27cf c8bc 3b90 f2ba 32fd cb3c
000000d0: 5612 8d3c 9c13 383e 97f1 963c 49c6 173c
000000e0: 71d2 2f3e a96f 103e 89c3 123e 9422 f93b
000000f0: f069 13bd 6bdd 2f3e a5f6 92bc 7670 f43b
00000100: dea0 e9bd 0224 743d 6c89 c4bd 39c5 b5bc
00000110: b563 2ebb f944 af3d a03c dbbc c06f 733b
00000120: ccf8 ffbb 8604 3b3c 14f7 8dbb 9b1e 1c3c
00000130: 134a 853d f769 e9bd d740 9fbd 856e 1ebd
00000140: b342 163e 8727 3c3d 6586 c53c a898 423d
00000150: ec1b f7bc 4140 f53d 2bb4 88bc 52e0 8f3b
00000160: 0d87 e53d 855f 6c3d e653 7a3d c897 56bc
00000170: 38ae dabd 8783 1d3e 95c8 be3c 4643 713c
00000180: d9cd 053e 2430 6b3b 7810 113e 4acb 0b3e
00000190: 5beb b83d 21d8 063e d541 723d 35a9 73bc
000001a0: c37f b23d d86c 833b 4432 b6bc 6de1 093e
000001b0: f993 0abd d597 3d3d 1bb4 a2bc 49a2 763c
000001c0: d922 ec3d f2c7 853d fdab 913c 4597 df3c
000001d0: 370a 0fbc 002b a43c a725 a1bd 1464 c33c
000001e0: 4ea0 a43d 6059 9abd 9c1c 113d 49c2 bc3d
000001f0: f777 de3d bcac 7fbd 9dd8 373e dcff 283d
-0.07257605 0.018187298 -0.00085645844 0.01928126 -0.08522988 0.124582216 0.10563389 -0.045144238
0.17731404 -0.023026282 0.006703793 -0.008373408 0.03514448 0.013330466 0.0020128335 -0.13720995
-0.017196042 -0.1935515 -0.15329048 0.09423351 -0.022434196 -0.03539707 -0.107004866 0.22659
-0.017267784 0.1113317 0.11844988 -0.06415878 -0.07677184 0.03767422 -0.07878706 -0.114831984
0.01350238 0.194578 -0.03727994 0.10989411 0.090896055 0.03425258 0.10382988 0.06987167
-0.023526194 0.24750575 -0.12085709 0.048312183 0.04203786 -0.02030313 0.08242223 0.11666172
0.14494324 -0.02451284 -0.0018506119 0.024901006 0.017220657 0.1797623 0.018425746 0.009263583
0.17170121 0.14105095 0.14332403 0.007602999 -0.0359897 0.17174308 -0.017939875 0.0074596955
-0.11407636 0.059604652 -0.09596524 -0.02218877 -0.0026609723 0.08558077 -0.026762307 0.0037145466
-0.0078116413 0.011414653 -0.0043324325 0.009528781 0.06508269 -0.11397164 -0.07776039 -0.03867962
0.14673881 0.045936134 0.024111936 0.047508866 -0.030164681 0.11975146 -0.016687473 0.0043907547
0.112073995 0.057708282 0.061115168 -0.013097711 -0.10677761 0.15382205 0.023289004 0.014725512
0.13066806 0.0035886848 0.14166439 0.13651767 0.090292655 0.13168384 0.059144814 -0.014871885
0.08715775 0.004010778 -0.022240765 0.134649 -0.033832524 0.046287376 -0.019861272 0.01505334
0.11530084 0.06532277 0.017782206 0.02729381 -0.008730463 0.020040035 -0.0786851 0.023851432
0.08038388 -0.07536578 0.035427675 0.092167445 0.10862725 -0.06242059 0.17953725 0.04125963

fc3.weight f4 [16, 128]
00000000: 2fe1 54ba 19ae f33b c85b d33b d016 02ba
00000010: 76ab 8b3b f13e 1a3c e193 1f3b 323c 19b8
00000020: bced 1e3c d344 7fba 672e 6b3a 1376 333c
00000030: 2da6 5dbb 4507 53ba 0680 963b 4fc4 80ba
00000040: 68c5 89bb 278d cc3a 95e0 f43a aa76 0d3c
00000050: 0932 143c ba24 943b b637 1d3c 6efb 85bb
00000060: 574b af38 ecd5 063c 2906 ce3a 1795 0f3c
00000070: 0a6b 173b ec2b c6b9 4024 3b3c 837e c4bb
00000080: e977 853b 2396 bc3b e7c3 a2bb 0616 a739
00000090: ff33 77bb 26fb 033c b2f3 e5bb 026a 1a3b
000000a0: bed1 9e3b 936d 3f3c 8c29 0d3c ab92 fbbb
000000b0: 4906 f2bb ac0f 6b3c 1feb 003c 96c1 773b
000000c0: 70ca 303c 239d c53b 04e9 913a 0295 babb
000000d0: 05ef 33ba 2582 fcb8 57e2 233c ffd1 1bba
000000e0: 9f57 873c 9d53 5c3c a831 913b a4e5 1b3c
000000f0: 6332 0b3c 2c20 2d3b a6f3 133c 4cff a13a
00000100: fe48 253b 14eb 863a fba6 45bb 63b0 d93b
00000110: 054a c23b a314 6238 6e8f 79ba b123 953b
00000120: 0936 2fbb d938 40ba b4d6 60bb 7296 da3a
00000130: 432e 84bb eaa5 2238 f4ea 883b 5b46 8bbb
00000140: d037 1c3c b4a1 143c de06 993a db13 cf3b
00000150: a145 cf3b 2d0b 503c a3e4 1ebc 217a 12bb
00000160: 97e9 213c 4c9b a13b cb2d 993b 1b2e d339
00000170: 3813 683b 3c3d 0e3c 5afc 43bb 88e2 30ba
00000180: 13ce 293c 54bc 20bb 5431 8b3c b326 c8bb
00000190: 3114 fc3a d1d6 1c3b a7ed 943b 0f18 d03b
000001a0: 9629 463c f370 04bc 24f8 9c3b 0b68 2c3b
000001b0: 6c28 183c 087c 4f3a 1da0 a23b e7f6 37bb
000001c0: ddb6 0db8 d2b2 98bb 4ce5 3ebb d70d b03b
000001d0: 2e04 52bb c1c7 91ba 166b dbbb 3317 14bb
000001e0: 0276 633c 1b45 a9bb e1f2 f3bb b898 93bb
000001f0: fe16 d33b 2831 653b b846 f2ba 6dfb 2339
00000200: a2db 9ebe 4c95 ccbe c6ed ba3d d3f6 8d3e
00000210: 1a54 c4be f653 b0bd 2728 d63c e1be 073e
00000220: c7a5 df3e e301 04bf 9f6b 2fbe cb9b 6fbf
00000230: 3bef 543e 8330 9a3d 182f cc3d f24c fbbc
00000240: b450 d53d 9f6d f73d 43a6 693e afca 1bbc
00000250: 85d0 13be f9fc 4dbf 9810 e1bb e9f7 b93e
00000260: 24e7 cdbe 710d 523e ca29 923e b247 31bf
00000270: 562e 353c 146d 1e3e 37fa 0fbf 9d4a 973e
00000280: ca47 17bf 69a5 733e cd03 77be 9507 3a3d
00000290: 52ce 433e b294 70be 9419 22bf 733f e5bd
000002a0: 5b7b 9abe aa3a 1c3e 8482 1c3e 0068 fbbd
000002b0: 84ab 0e3e 0fee 3c3d 7ad5 36be 042b b3be
000002c0: 87ce c93d 86c3 e5be e873 b5be 5000 8e3e
000002d0: 0722 b6be ccfb 8e3d 22ff 44be 13a3 98be
000002e0: 3c28 e3bd 4d0b 1abe 779f 243e 8fbe bd3c
000002f0: 49bb 9a3d 7cdd 213e 034f 303e 7f71 9ebe
00000300: 8c3d 3c3e 600f 15bf 21d6 b23b d8d0 23bc
00000310: cc19 18bf 3742 843e be38 b7bd 02cd 30bf
00000320: 8f82 82ba db6d fb3d 9510 8f3e 01fa 21bf
00000330: 27a9 433e 6010 ca3d 24db 89bc 628d 803e
00000340: c4a9 b8be e293 aebe a49e 7f3e 9dff f8be
00000350: 0180 ccbe 93c8 dc3e ed93 d1be fbf0 fb3d
00000360: 7a6c c43e 934a 9abe 2e40 a33d 04fb 9f3d
00000370: 1a35 a63e 4202 3e3e 929b 36bd d0d1 67be
00000380: 4d7d c8be 793e 50bf 1a1d c9bd c123 31be
00000390: c2a9 dbba 1ff9 1d3e 6049 713e 920d 0c3c
000003a0: 0b7a 993e f5c4 6cbd 1512 20be 27d1 49bc
000003b0: 3ea8 07be 719b 573e 71c8 6ebe 5f60 a53e
000003c0: 2913 0c3e cb68 553d 7aec 943d c1cd 433e
000003d0: ca97 33bf cb76 893d 7f9a bebe 2dc9 e0bb
000003e0: b68e f5bd 57e6 ef3d a97b 693e 3445 1d3e
000003f0: 7a8f 4fbe 586a 9bbe 20da b73e 03f0 dfbe
-0.0008120713 0.0074365255 0.00645015 -0.0004962506 0.004262383 0.00941442 0.0024349617 -3.6534104e-05
0.009700235 -0.00097377336 0.0008971453 0.010953444 -0.0033820972 -0.00080500945 0.0045928983 -0.000982413
-0.004204441 0.0015606032 0.0018682653 0.008634249 0.009045132 0.0045209797 0.009595802 -0.0040888106
8.3586834e-05 0.008229714 0.0015718389 0.008763573 0.0023104572 -0.00037798227 0.011422217 -0.0059965267
0.0040731323 0.0057552024 -0.004967201 0.0003186913 -0.00377202 0.008055484 -0.007017576 0.002356172
0.0048467806 0.011683839 0.008615863 -0.0076773963 -0.007386003 0.014346998 0.007868557 0.0037804595
0.010790452 0.006030695 0.0011132066 -0.0056940326 -0.0006863925 -0.00012040538 0.010002694 -0.00059440726
0.016521273 0.013447669 0.0044309683 0.0095152 0.0084959 0.002641688 0.009030258 0.001235941
0.0025220509 0.0010293447 -0.0030159343 0.0066433414 0.005929234 5.390182e-05 -0.0009519969 0.004551374
-0.0026735088 -0.000733269 -0.003430766 0.0016676916 -0.004033835 3.877833e-05 0.004178399 -0.0042503304
0.009534791 0.009071756 0.001167502 0.0063195056 0.006325439 0.012697977 -0.009698066 -0.0022350627
0.009882352 0.004931843 0.0046746484 0.00040279407 0.0035411846 0.008681592 -0.0029905052 -0.0006747623
0.010364073 -0.0024526315 0.016991295 -0.006108129 0.0019232092 0.0023931751 0.004544932 0.0063505243
0.012094876 -0.00808357 0.004790323 0.0026307132 0.009286981 0.00079149054 0.0049629346 -0.002807075
-3.3787324e-05 -0.004659989 -0.002912837 0.0053727436 -0.0032045948 -0.0011122153 -0.0066961152 -0.0022596836
0.013883116 -0.0051657087 -0.007444725 -0.0045042895 0.00644195 0.0034971926 -0.0018484211 0.00015638555
-0.31026942 -0.39957654 0.09127383 0.27727374 -0.38345414 -0.08609764 0.026142193 0.13256408
0.43681166 -0.5156538 -0.17130898 -0.93597096 0.20794384 0.07528784 0.0996992 -0.030676339
0.104157835 0.120814554 0.2281733 -0.009508773 -0.14435013 -0.8046413 -0.006868433 0.36321953
-0.4021541 0.2051294 0.28547508 -0.69250023 0.011058411 0.15471298 -0.5624117 0.29549113
-0.59093916 0.23793568 -0.24122544 0.045417387 0.19121674 -0.23494223 -0.6332028 -0.111937426
-0.30172238 0.15256754 0.15284163 -0.12275696 0.13932616 0.046125468 -0.17854872 -0.34993756
0.09853845 -0.44875735 -0.35439992 0.27734613 -0.35572836 0.0698162 -0.1923795 -0.29811916
-0.110916585 -0.15043373 0.16076456 0.023162154 0.07555253 0.15807146 0.1721764 -0.30945966
0.18382853 -0.58226585 0.005457655 -0.009998523 -0.5941436 0.25831768 -0.089463696 -0.6906282
-0.0009957122 0.12276813 0.2794234 -0.632721 0.19107495 0.098664045 -0.016828127 0.25107867
-0.3606702 -0.340972 0.2496286 -0.48632517 -0.3994141 0.43121776 -0.4093317 0.12301823
0.3836401 -0.3013502 0.07971226 0.07811549 0.32462388 0.18555549 -0.044581957 -0.22638631
-0.39158097 -0.81345326 -0.09820004 -0.17298795 -0.0016758966 0.15427063 0.23563147 0.008548157
0.29975924 -0.05780502 -0.15631898 -0.012317932 -0.13247773 0.2105539 -0.2331865 0.32300088
0.13679184 0.05210189 0.07271667 0.19121458 -0.70153487 0.06712111 -0.37227246 -0.0068599195
-0.119901106 0.11713856 0.22801079 0.1535843 -0.20269576 -0.3035457 0.35908604 -0.43737802

fc3.bias f4 [16]
00000000: 95b9 103b f6af 9e3d 49cf 1b3e 3896 0c3e
00000010: b59b ed3c 59c5 a33d cb81 713d e06d f2bd
00000020: afc9 203d bcdb 573d c4d3 323d e3c8 db3d
00000030: e9b8 e73d d38a 0f3e 70fd 703e aa88 403e
0.0022083272 0.07748406 0.15215792 0.13729179 0.029004911 0.079966255 0.05896167 -0.11837363
0.03925484 0.05269979 0.043658987 0.107316755 0.11314566 0.14017801 0.23534179 0.18802133

exp_avg f4 [128, 18]
00000000: 7aa6 31ba 2801 6ebb d2d0 8cbb 4cf8 f7bc
00000010: 913a 15bc b72a 90bc 8dd2 86bc 7248 c0bc
00000020: a566 cfbb 07d4 13bb 23fd 07bd aa58 8dbc
00000030: 6588 263c 276f 7cba 370e 59bc e561 c93c
00000040: e3fb 4e3b 81cf 013c 3357 043a 1505 74bb
00000050: 3a39 39bb 896c e53b a697 24bc 71f4 b3bb
00000060: d199 513c fd6c 3abc 5654 10bc ae52 c9ba
00000070: c3d1 9d3c 2b61 f53b 79c5 91ba 2ce7 c73a
00000080: 02cb 57ba c274 05bc c02c c4ba 8703 90bb
00000090: cfb1 3a3c 0054 c73b 6a25 423b 0fb2 a1bb
000000a0: 1120 a0bb 20bc 06bc de43 76bc 16c3 2ebc
000000b0: 3fac 7cbc e50d 043c 195a d2bb 2515 a1bc
000000c0: a819 d93a c4e0 4c3a c467 c538 b8bf 093b
000000d0: 5661 063a ddd2 0bbc 78f3 c23a ca7a 5bbb
000000e0: e2cb e539 c9fb b33b c0e3 29bc 51d4 cdbb
000000f0: cbd2 2c3c 1fe9 62bc 18c0 bfbb e0a2 bebb
00000100: d045 293c 40af bc39 014f ddba 0a6f e2ba
00000110: ef13 c43a c126 a83a 41ec 06bb 8b2e 04bb
00000120: d5d6 00bc b12c 2abc 73a1 2f3c 8306 f03c
00000130: c2dc 483c 0511 203c 0aa4 823c cf9c 943c
00000140: bae3 e53b c7ee b2b9 9e1a cd3b 47d0 6ebb
00000150: 45f2 43bc e8ed c03b ecc2 d03b 4347 2f3c
00000160: 0f75 99ba 3757 10bc 6759 e93a ac36 c3b9
00000170: b0e5 2a3a 67d8 47bb 280f 993a 4cd3 53bc
00000180: fbf1 52bc 9f80 d9ba ccee 0b3c 7da8 07ba
00000190: f52a 8db9 2fb9 5ebc fd72 91bb 7d30 02bc
000001a0: 185a ebbb 4ec5 2bba 5f07 ae37 b480 71bc
000001b0: 4baa 9dbc 4ff0 7abc 6bd3 9dba 63b2 86bb
000001c0: ca0f 443b 10d1 9d39 3116 cbbb fe55 6f3b
000001d0: 374d bc3b cb87 98bb d80c 833a 7fc4 a5bb
000001e0: 1947 3cbb dc55 2bbb 5ec2 0c3c fcea ad3c
000001f0: 01da 7bba 5b45 acbb d33c 08bc 191c 00bc
00000200: a715 d53b 95cf 7cbb af22 3dbb 82a4 d5bb
00000210: 2105 8d3b 277f 07bc c529 afba 3568 ac3a
00000220: aaba 60bb b362 7e39 7595 3339 fb66 edba
00000230: 504e 813b 7f81 213d 2f0d 8c3c 5bbe 3f3c
00000240: c00f c23b 4f8f 12bc 8a5b 973b 159b 4b3c
00000250: 64a9 1fbc 5a88 00bc 00f1 9c3c 99a4 0cbc
00000260: cd30 b7bb 4819 e5bb 6ae0 c83b e005 e93b
00000270: 753d 10bb dc0f 723b 8a48 653c 5ba9 efbb
00000280: 5050 0ebb de11 54bb 6eaa 303b 6c44 bebb
00000290: 27d6 c43b c853 07bc 08f5 f4ba 7530 abbb
000002a0: 99a7 84bb 03ee c4b9 e325 e03b 8bb6 d03b
000002b0: 20fc 9039 d03e 22bb 086f 6abb 8261 d4ba
000002c0: 09e0 0cbb 38e7 743c cbc2 1e3c 6589 433b
000002d0: dc56 02bc a53f e9bb 55be 53bb eb96 0ebb
000002e0: c849 5639 6529 983b a081 a63b 2df3 9d3b
000002f0: 1a0d 143b 9b1b bfb9 7b13 05bc 16ee b7ba
00000300: 8444 dc3b 36d2 dd3b e466 1b3a f078 75bb
00000310: 7ad0 3a3b cb55 de3b 090e 3abb 48cd 0e3a
00000320: a7f3 c5bb 938c d63a 2a50 0bbb faca 6d3a
00000330: 2915 c83b 3b32 91bb 8497 23bb 897c a7bb
00000340: 81fd 383c d04c d93b d119 68bc 8d11 85b9
00000350: 4e51 89b8 ea16 8b3b 12f6 543b 67bf fabb
00000360: e802 9638 21b3 2b3b dbe5 9abb 8981 00ba
00000370: 8d97 8c3a 630d 843b 9ea0 7dba 2455 f8ba
00000380: 0865 efbb 274c ad39 2f4c 7c3b 6c79 143c
00000390: 89ac 4f3b ea05 993b 3e80 cc3a 6de7 aabc
000003a0: af8d 19bc 586d 54bb e818 113b 8a14 b5bb
000003b0: d817 793c 248a 5cbb 8929 763b fe51 74bb
000003c0: f10a 353b 218b 503a 2df0 b0bb 8fb9 8d3a
000003d0: 0035 893b cf60 13bc 98c6 52bb 6185 52bb
000003e0: 2e63 1d3c 5b36 e13c 2290 3f3c 4655 533c
000003f0: 1dfc bdbc e47d 80bc fc56 c9bc 2504 eebc
-0.0006776821 -0.0036316607 -0.0042973543 -0.030269764 -0.009108202 -0.017598493 -0.01645782 -0.023472045
-0.006329375 -0.0022556798 -0.033200394 -0.017254192 0.010164355 -0.00096296 -0.013248018 0.024582813
0.0031583242 0.007923008 0.0005048394 -0.0037234474 -0.002826287 0.007001464 -0.010045921 -0.005491786
0.01279302 -0.011378524 -0.00880917 -0.0015359723 0.019265061 0.00748839 -0.0011121474 0.001525139
-0.00082318496 -0.008145513 -0.001496695 -0.0043949517 0.011394932 0.0060830116 0.0029624351 -0.0049345563
-0.004886635 -0.008223563 -0.015030829 -0.010666629 -0.015421926 0.008059953 -0.006419432 -0.019663403
0.0016563432 0.0007815475 9.41302e-05 0.0021018814 0.00051261985 -0.00853416 0.0014873585 -0.0033489936
0.00043830188 0.0054926616 -0.010369241 -0.0062814136 0.010548304 -0.013849526 -0.005851757 -0.005817756
0.010331586 0.00035988726 -0.0016884507 -0.0017275524 0.0014959554 0.0012828932 -0.0020587596 -0.0020169343
-0.00786372 -0.010386632 0.010719645 0.02929998 0.012259664 0.009769683 0.01594736 0.018141178
0.0070156725 -0.0003412871 0.0062592765 -0.003644006 -0.011959617 0.0058877356 0.0063708927 0.010698142
-0.001170786 -0.008809856 0.0017803133 -0.00037234032 0.00065192115 -0.0030493976 0.001167749 -0.012928795
-0.012875075 -0.0016594118 0.00854082 -0.0005174948 -0.0002692562 -0.013593956 -0.0044387565 -0.007946131
-0.007182371 -0.0006552533 2.0745849e-05 -0.014740158 -0.019246241 -0.015316083 -0.0012041157 -0.004110621
0.0029916638 0.00030101137 -0.006197714 0.0036519761 0.0057465094 -0.0046548597 0.0009998335 -0.0050588246
-0.00287289 -0.0026143705 0.008591263 0.021230213 -0.0009607375 -0.0052572913 -0.008315283 -0.007819199
0.0065028253 -0.0038575877 -0.0028859784 -0.006519855 0.00430359 -0.008270062 -0.0013363889 0.0013153615
-0.0034290948 0.00024260096 0.00017126447 -0.0018112356 0.003946103 0.039430138 0.01709613 0.011703099
0.0059222877 -0.0089453 0.0046190666 0.012427111 -0.009744976 -0.007845009 0.019157887 -0.008584165
-0.0055905343 -0.006991539 0.006130268 0.007111296 -0.0022009287 0.0036935722 0.013994345 -0.00731389
-0.002171535 -0.0032359282 0.0026957053 -0.0058064964 0.0060069743 -0.008259721 -0.0018688748 -0.0052242824
-0.0040482995 -0.00037561366 0.006840454 0.006369417 0.00027653668 -0.0024756677 -0.0035771746 -0.0016203376
-0.002149584 0.014947705 0.009689997 0.0029836532 -0.007955279 -0.0071181827 -0.0032309492 -0.0021757435
0.00020436116 0.0046436065 0.0050813705 0.0048202486 0.0022590817 -0.00036450927 -0.00812232 -0.0014032747
0.006722035 0.006769444 0.00059281127 -0.0037456118 0.002850561 0.0067851297 -0.0028389713 0.00054474594
-0.0060410085 0.0016368799 -0.0021257498 0.00090710784 0.006106038 -0.0044310368 -0.0024962137 -0.0051112813
0.011290909 0.006631471 -0.014166311 -0.00025380813 -6.547813e-05 0.004244675 0.0032495302 -0.0076522115
7.153099e-05 0.0026199298 -0.004727108 -0.0004902115 0.0010726318 0.004029916 -0.0009675118 -0.0018946272
-0.007305745 0.0003305387 0.0038497557 0.009062152 0.0031688532 0.0046698945 0.0015602184 -0.020862306
-0.009372159 -0.0032413807 0.002214009 -0.00552613 0.015203439 -0.0033651674 0.0037561378 -0.0037280316
0.002762493 0.0007955302 -0.005399725 0.0010812747 0.0041872263 -0.008995249 -0.0032161828 -0.0032122957
0.009606166 0.027491739 0.011692079 0.012898749 -0.023191506 -0.01568503 -0.02457761 -0.02905471

exp_avg_sq f4 [128, 18]
00000000: 1f36 b03b 5b2e a43b 2f26 6a3b f0b1 1b3b
00000010: b041 1f3b 1b63 243b 040f 9a3b 975b 6a3b
00000020: 0da6 ad3b df3d 6e3b 972f 9a3b 4f1b d03b
00000030: fcf3 603a 979a db3b a974 b53b 0a4d 283b
00000040: 478f 453b 35cd 253b 62ed 5e3a c352 5b3a
00000050: 1ca4 763a 331d ad39 d318 153a fe44 013a
00000060: 2f60 4a3a 5854 223a f895 6b3a 2e9d 133a
00000070: 6b37 773a 3e43 773a 7817 a037 70c1 643a
00000080: 7427 5b3a 7572 7339 e6ab 6538 ff25 6c3a
00000090: 7286 453b 7f93 413b bb7f 453b 0a3d 113b
000000a0: a5b8 d83a 8c66 943a d1ef 393b d5a9 1d3b
000000b0: a96b 663b 9d1c ef3a 3bad a63a 33b5 8a3b
000000c0: 7174 9a38 71ca 953a 08fd 793b 0c39 ad39
000000d0: 5f2a c03a 5345 863b 4bb9 483a 9ad5 313a
000000e0: f066 6c3a 9114 fe39 e29c 043a 212f 043a
000000f0: 5982 263a b5ae 2b3a 3671 2d3a 3ee0 183a
00000100: c95f 1a3a dcf7 723a abc3 003a 66d9 bb38
00000110: 3286 3a3a 1154 5938 d609 fb39 5d17 d138
00000120: 2cf5 783b 32cd 4d3b 18ed 263b 461b a13a
00000130: b826 a03a e05c 453a ebae 5a3b cf77 033b
00000140: f654 cc3a 75b5 b53a 03e8 253b 538b 943b
00000150: c22f c13b 0f47 5f3b 51e3 1e3b 6b1b 9a3a
00000160: 7b1e 7b3b 6a13 663b 46b9 be3a 720a c73a
00000170: 5dfc b23a e0b4 4f3a a3ec d13a 7242 073b
00000180: 574e d43a bf8c 283b 5e27 f43a 6ae6 e33a
00000190: 8b94 273b e1ff ec3a 4aa7 623a 06f5 0d3b
000001a0: 0259 853a b531 103a 22b2 e438 5c59 213b
000001b0: 4b65 ee3a 33a9 e23a ffa0 093b 6598 b83a
000001c0: d62d 7b3a b4c2 303a 0c49 c83a 5eb6 a03a
000001d0: cf50 183b 145c 4e3a 0044 003b eafb 313b
000001e0: 0c8b 023b f3e9 3c3b d62c 073b a64c c03a
000001f0: d338 943a c297 973a 4512 873a ef85 8b3a
00000200: 28bc 553a 1cfe 113a 6346 2a3a dce1 f039
00000210: fd57 8c3a 17d5 503a 8403 0a3b c8e2 f039
00000220: b2c9 a73a 2455 853a c2ad 1239 3b55 923a
00000230: e9f5 973a 9f73 4e3a 4810 143a b84e 433a
00000240: f8d4 443b f944 373b 39ae 553b c10f d73a
00000250: f4e1 dc3a 02e9 af3a c03e 153b d32b 153b
00000260: 0181 913a 3800 d63a b387 8d3a bb42 813b
00000270: 2cf7 983a 6cef 443b d1aa 673b 75f4 483b
00000280: 323a 523b f8d4 383b 635f 183a 56d5 1e3a
00000290: c158 083a 02bf c039 b91f ea39 2491 8b39
000002a0: 834e 0d3a 1c2b 083a 0cdf 9e3a ea5e 0d3a
000002b0: 3d05 803a 3788 443a 8373 973a c509 a53a
000002c0: 4cc7 523a 676f 923a 4ac4 9e39 834f 8c3a
000002d0: 9647 d939 fcfc b439 dd4d 9539 97ec 9a39
000002e0: abd9 3b3a 2723 2b3a 9004 e139 2081 2c3a
000002f0: 9478 da39 d1fa 503a 7604 5d3a c07c 9b39
00000300: 3cc5 493a a2de 1f3a 2255 fc39 764c a13a
00000310: 6696 a03a 18a4 a639 28a1 763a 3940 6e3a
00000320: b177 863a e609 103a 13f2 bf39 3354 a039
00000330: 6160 783a 4a73 253a 1881 373a 88b3 183a
00000340: 1872 123a 9880 8b3a 84f8 fb39 91c2 ff39
00000350: a7fd 833a 79e3 5d39 e3b7 5c3a 8e37 b43a
00000360: 8243 0c3a af73 f839 8829 f039 4caf ad39
00000370: 4b49 353a dd2a 0d3a cf1e ad39 e17e 2c3a
00000380: 3ef6 1c3a 84a3 203a e34e 343a cdae 323a
00000390: 4ff5 3b3a cbca 0c3a 8732 4e39 54b8 863a
000003a0: 6eac 883a 8166 3d3a f602 133b 1657 133b
000003b0: d4b5 023b 609c c53a 8503 973a c07b 5d3a
000003c0: 1458 f33a 00e4 de3a 97b9 493b f7e5 823a
000003d0: 0e5d 143b 3b70 4d3b 3876 e73a ac09 623b
000003e0: 52fd a63a cc87 733b e1c8 363b 7865 f23a
000003f0: 7e70 e53a 68a2 cf3a 61d7 2e3b dac3 5b3a
0.0053775455 0.005010409 0.0035728326 0.0023757182 0.0024300627 0.0025083486 0.004701497 0.0035760158
0.005299336 0.0036352796 0.00470538 0.0063509117 0.00085812784 0.006701778 0.0055375886 0.0025680684
0.0030145214 0.0025299315 0.0008504001 0.00083665195 0.00094086095 0.00033018886 0.0005687598 0.000493124
0.0007720021 0.0006192378 0.00089868857 0.00056310266 0.000943056 0.0009432322 1.9084415e-05 0.0008726334
0.0008360066 0.00023216924 5.4757948e-05 0.00090083474 0.003013995 0.0029537377 0.0030135948 0.0022161626
0.001653452 0.0011322065 0.0028371701 0.0024057527 0.0035159385 0.001824278 0.0012716422 0.0042330264
7.364981e-05 0.001142813 0.0038145203 0.00033039635 0.0014661065 0.0040976196 0.00076570053 0.0006783843
0.00090180244 0.00048461978 0.0005058778 0.0005042423 0.0006351821 0.00065491657 0.0006616296 0.00058317545
0.0005888907 0.00092685013 0.00049119693 8.9573485e-05 0.00071153336 5.1815125e-05 0.0004788178 9.970248e-05
0.003798793 0.0031402824 0.0025470909 0.0012291453 0.001221857 0.0007528793 0.003336842 0.0020060425
0.0015589285 0.0013863283 0.0025315292 0.0045332103 0.0058955858 0.0034069454 0.0024244378 0.0011757439
0.0038317728 0.0035106787 0.0014551065 0.0015185608 0.0013655532 0.0007923376 0.0016015958 0.002063897
0.0016197663 0.0025718657 0.0018627455 0.0017387394 0.0025570716 0.0018081629 0.0008646144 0.0021660938
0.0010173621 0.0005500571 0.00010905067 0.0024619913 0.0018188147 0.0017292857 0.0021000502 0.0014083503
0.000958172 0.000674288 0.0015280559 0.0012261381 0.0023241525 0.0007871997 0.001957178 0.002715821
0.0019919304 0.0028825968 0.002062609 0.001467128 0.0011308439 0.0011565613 0.0010305127 0.0010644774
0.00081533426 0.0005569176 0.0006495474 0.00045944646 0.0010707375 0.0007966323 0.0021059224 0.00045945332
0.0012801199 0.0010172469 0.00013988375 0.0011164317 0.0011593673 0.0007875505 0.0005648178 0.00074503897
0.0030034166 0.0027964695 0.0032605065 0.0016407893 0.0016852007 0.0013420882 0.0022772998 0.0022761717
0.0011101068 0.001632697 0.0010797888 0.0039447225 0.0011670343 0.0030049933 0.0035349617 0.0030663286
0.0032078144 0.002820311 0.00058125536 0.0006059011 0.00052012136 0.00036763406 0.00044655593 0.00026620284
0.00053904223 0.0005194412 0.0012120917 0.00053928664 0.0009767186 0.0007497104 0.0011554811 0.0012591413
0.0008040562 0.0011172117 0.00030282355 0.0010704849 0.000414428 0.00034520763 0.00028477507 0.00029549442
0.0007165919 0.00065283704 0.00042918744 0.00065805204 0.00041670038 0.0007971945 0.00084311457 0.0002965685
0.0007696932 0.00060985435 0.00048128614 0.0012306112 0.0012251853 0.00031784247 0.00094081694 0.00090885494
0.001025906 0.0005494639 0.00036610718 0.0003058031 0.0009474811 0.000631143 0.00070001325 0.0005825092
0.00055864593 0.0010643182 0.0004805961 0.00048782353 0.0010070101 0.00021160943 0.0008419735 0.0013749467
0.00053506356 0.00047388437 0.0004580731 0.00033127738 0.00069155236 0.000538511 0.00033020086 0.0006580186
0.00059876207 0.00061278814 0.000687821 0.00068162085 0.0007170038 0.00053707947 0.00019664514 0.0010278323
0.0010427365 0.0007225052 0.0022432185 0.0022482327 0.0019944804 0.0015076511 0.0011521435 0.0008448921
0.0018565678 0.0017005205 0.0030780786 0.0009986748 0.0022638473 0.0031347412 0.0017659133 0.0034490628
0.001274029 0.0037159799 0.002789073 0.0018493375 0.0017504839 0.0015841248 0.0026678669 0.0008383371

exp_avg f4 [128]
00000000: d0c4 b23c 8722 123c 20ab 59bc 75b9 c03b
00000010: c562 9ebc b19e 0a3b 1c32 5bbb 1dce b7ba
00000020: f68c 6a3c cddf bb3b 1693 273a 53a2 a83b
00000030: 2150 92ba 8905 25bc badf 143d 1340 8f3c
00000040: 106d 3ebb 0672 42ba 46f5 e83b 2e73 d33b
00000050: c3e9 5d3c fe85 1cbc 54eb ae3b 7280 ffbb
00000060: 8723 af3c 52e0 f4b9 6b5b b4ba 13e3 01bc
00000070: 2e9a a6bc e010 033b 2983 c8ba f021 483c
00000080: 4227 4e3c d3dd be3b 5e4b 3dbc 52e3 cb3b
00000090: ed41 e1bb 2110 363b 4cfa 273b 376d 89ba
000000a0: c901 8b3b b332 063c 10ae 76bc 464a 1cbc
000000b0: 1692 ec3c 814a 073b 2538 ba3b 09a8 b73b
000000c0: 4b30 b33a 621b 993b a21a d1bb 334d 8e3b
000000d0: f5af 12bb aece fdbb cd21 d2ba f707 263a
000000e0: bbb5 c13b 7bee dcba 2335 61ba 63e2 1ebb
000000f0: 1cf7 33bb efd9 e73b 8a48 be3b b376 cf3b
00000100: 037d 27bb 5f0c 8d3b 3815 b0bc 5d50 45bb
00000110: b1e1 1abc c64b 59bc b889 aeb9 2f97 0d3c
00000120: 2b4c 8ebb 2662 10b9 8b9c 97ba f643 b23b
00000130: 95eb 013c 64be 96bc 36e0 293b 932f 903b
00000140: b71d d0bb 3e8b 4cba 1b0f 5ebb 7601 4639
00000150: d47a 7bbc e1d7 06bc e531 c0bb 16a2 8ebb
00000160: 6615 53ba ccad b6bb c758 2abc 6a70 4d3a
00000170: fcbc f9ba d377 e93b 6032 2fbb 5b74 0c3c
00000180: 63cc a43b 8271 d63b 11d1 343c 772e 2ebb
00000190: dde6 01bc 4c8a a7ba d0f6 6bbb 9081 ebbc
000001a0: 2189 a8bc 4198 463c b49a f13b d9fb 09bc
000001b0: dddf 423b fb72 003c 578b 2c3c b840 703c
000001c0: c96a 073c bf1b 7c3b f5a3 e6bb 175f 85bc
000001d0: 4e82 c03b 4a79 1cbc fb63 03ba 5dd7 c13b
000001e0: 6287 9539 3f0b 2fbc dc95 45bc 2294 8ebb
000001f0: 719b 1e3b 1cf1 ebba b60b 9a3c 23bd 9cbb
0.021822363 0.008919365 -0.013285428 0.005881483 -0.019334206 0.0021151716 -0.0033446616 -0.0014023219
0.014315834 0.0057334662 0.0006392462 0.0051463037 -0.0011162796 -0.01007212 0.036346175 0.017486608
-0.0029056706 -0.00074175035 0.007109317 0.0064529395 0.013544503 -0.009553431 0.005338112 -0.0077972943
0.021379245 -0.00046706438 -0.0013760155 -0.007927674 -0.02033719 0.0019999072 -0.0015297878 0.012215123
0.012582602 0.0058247834 -0.0115536135 0.006222167 -0.006874314 0.002778061 0.0025631366 -0.0010484819
0.004242156 0.008190799 -0.015056148 -0.009539193 0.028878253 0.0020643773 0.0056829625 0.005604748
0.0013671009 0.0046724537 -0.0063813487 0.004342699 -0.002238271 -0.0077455854 -0.0016031802 0.00063335843
0.0059115565 -0.0016855741 -0.0008590987 -0.0024243824 -0.002746052 0.0070755403 0.005806987 0.0063312887
-0.002555669 0.0043044533 -0.021494493 -0.0030107715 -0.009453223 -0.013262695 -0.00033290475 0.008642002
-0.004342576 -0.00013769473 -0.0011567039 0.0054402305 0.007929702 -0.018401332 0.0025920994 0.0044002025
-0.0063511985 -0.0007802731 -0.0033883515 0.00018883296 -0.015349109 -0.0082301805 -0.005865323 -0.0043528182
-0.00080522 -0.0055749174 -0.010397143 0.00078368804 -0.0019053514 0.00712488 -0.0026732907 0.008572663
0.0050292476 0.006544293 0.011036173 -0.0026577988 -0.007928577 -0.0012782305 -0.0036005266 -0.028748304
-0.0205732 0.012121261 0.0073731784 -0.008421862 0.0029735484 0.0078399135 0.010531268 0.014663868
0.008265206 0.0038468686 -0.007038588 -0.016280694 0.0058749085 -0.009550402 -0.00050121517 0.005915566
0.00028520363 -0.010683834 -0.012059655 -0.004351155 0.0024201537 -0.0018000933 0.018804412 -0.004783289

exp_avg_sq f4 [128]
00000000: f5ed cf3b f8bf 7c3a d778 6e3b d77d 6c3a
00000010: 9ddc 733b 7a24 f93a 3ffb 183b 3a09 ac3a
00000020: f85d 643b 9b85 683a 9a16 da39 8c3c 7c3a
00000030: 7b8c 243a cef5 333b 6107 133b f05f 153b
00000040: 40ee b53a b5f5 3a3a 50b8 7d3a caca 0b3b
00000050: c0b6 323a c563 643a 905d 053b 912d 7a3b
00000060: 9279 1d3b 8115 bb3b faf4 0e3b 6f4b a33a
00000070: dd71 653b a8a0 063a 25eb fc3a 9e28 983b
00000080: f69f e23a 7bb0 b23a 8e69 ba3a 017f 603a
00000090: 993c 223b 215c 833a 2059 593a 53b9 043b
000000a0: 0f22 083b 1225 db3b 7620 823b fa68 d23a
000000b0: 082d a93b 444d a63a 890b d03a c58e c23b
000000c0: c27d 843b db26 363a cd7e cb39 8e50 d13a
000000d0: 98d0 a939 7602 813b d698 be3a 53e3 c83a
000000e0: 3930 053b 8d38 c13a e649 bc3a d6bd 333b
000000f0: cb69 a33a 2a42 343a c6ce 1d3a 243c d03a
00000100: 7f60 8a3a 6840 2c3b 1a8f 0a3b b387 053b
00000110: 5fbc 793a 2f8d b13b a2da 143a ad37 df3a
00000120: 9000 6b3a c529 983a 8836 293b b15a ef3a
00000130: c24d bc3a 0abc 973b 808f 7d3b ac0c e03a
00000140: 204d dc3a f267 0a3a 8788 7e3b f339 9e3a
00000150: e51b 023b 18c2 e43a 36ef a83a 3e49 b63a
00000160: 9d06 993a 2f11 db3a 99e9 213a 0fe3 8939
00000170: f7de 5c39 a0ee 773a 1a28 803a 3dd3 563a
00000180: 1a96 773a f2e8 f13a 15cd e539 164f 993b
00000190: 6d52 a73a e25d b13a caef 8e3a ff67 003c
000001a0: 97f4 773b 1ed6 e03a 1588 1e3b 563a a03a
000001b0: d7c2 213b a96c 5c3a bac2 613a b144 143b
000001c0: bfef 023c 2b6d b239 ffb6 2d3b 9d35 253b
000001d0: 9b7d 3a3a c35f bd3a 7a9d 293b 9a3b c93a
000001e0: 9ba2 a73a bc46 1f3b 08a0 883a a255 f63a
000001f0: 696a 043b 8ed4 793a 53d1 7b3b 1386 e93a
0.0063455054 0.00096416427 0.0036387944 0.0009021437 0.0037210353 0.0019008063 0.0023343114 0.0013125308
0.0034846049 0.00088700064 0.0004159704 0.00096220593 0.0006277037 0.0027459743 0.0022434818 0.002279278
0.0013880208 0.000713195 0.0009678649 0.0021330588 0.0006817393 0.00087123766 0.0020349957 0.0038174132
0.002402876 0.0057093506 0.0021813498 0.0012458394 0.0035010495 0.0005135634 0.0019296153 0.004643514
0.0017290104 0.0013632918 0.0014222132 0.0008563847 0.0024755357 0.0010021963 0.0008291174 0.0020252063
0.0020772254 0.0066877687 0.003971155 0.0016053014 0.005162839 0.0012687822 0.0015872578 0.0059374296
0.004043312 0.0006948539 0.0003881365 0.0015969442 0.00032389606 0.003937061 0.0014541398 0.0015326537
0.0020322932 0.0014741585 0.0014365285 0.0027426383 0.0012467442 0.00068763143 0.00060198864 0.0015887064
0.0010557323 0.0026283506 0.0021142424 0.0020375072 0.00095266657 0.0054184417 0.0005678331 0.0017030142
0.00089646224 0.0011609128 0.0025819857 0.0018261281 0.0014366435 0.0046305703 0.003869027 0.001709362
0.0016807653 0.0005279771 0.00388387 0.0012071714 0.0019853052 0.0017452864 0.0012888673 0.0013907326
0.0011674945 0.0016713495 0.00061764714 0.00026299848 0.00021063896 0.000945786 0.0009777576 0.0008194929
0.0009444669 0.0018456264 0.00043831082 0.004678617 0.0012765654 0.0013532008 0.0010905203 0.007837295
0.0037834996 0.0017153656 0.0024189998 0.0012224417 0.0024682784 0.00084085256 0.00086120854 0.002262395
0.00799173 0.00034032142 0.002650678 0.0025208958 0.00071140536 0.0014448095 0.0025881217 0.0015352846
0.0012789549 0.0024303636 0.001042367 0.0018793831 0.0020205027 0.00095302693 0.0038424328 0.0017816446
