models/DiscreteBCQ/models.pth (torch, 601210 bytes, 42 tensors)

fc1.weight f4 [128, 18]
0	0x3d9212c7	0.07132488
1	0xbe69b436	-0.22822651
2	0x3dae3b60	0.08507419
3	0xbe864df7	-0.26231357
4	0xbea25f33	-0.31713256
5	0xbe40130f	-0.1875727
6	0x3e5cc806	0.21560678
7	0x3e9cc05f	0.30615517
8	0xbeae3ab0	-0.3402915
9	0x3eccf962	0.40034014
10	0x3eac43ea	0.33645564
11	0x3e1b363a	0.15157405
12	0xbe8e2454	-0.2776209
13	0xbd2de4bd	-0.04245447
14	0xbe2db3e5	-0.16963156
15	0xbe2cbe30	-0.16869426
16	0x3d567d24	0.052365437
17	0xbe888058	-0.2666042
18	0xbd2e0ac0	-0.04249072
19	0x3e6184ed	0.22023363
20	0xbe348150	-0.17627454
21	0x3e5e7a00	0.21726227
22	0x3e36be7e	0.17846105
23	0xbd9e2543	-0.07721951
24	0x3f067f97	0.52538437
25	0x3bf3a1db	0.007435066
26	0xbed77855	-0.42083994
27	0xbe066dc7	-0.13127814
28	0xbed2bcdc	-0.41159713
29	0xbe89f10a	-0.2694171
30	0xbeb43b5a	-0.35201532
31	0x3e10a6ec	0.14126176
32	0xbed07525	-0.40714374
33	0x3ea29560	0.3175459
34	0x3ab8abf5	0.0014089333
35	0x3d755761	0.059897784
36	0xbea6512e	-0.3248381
37	0x3e7d36b1	0.24727894
38	0xbe37a21e	-0.17932937
39	0xbe77b850	-0.24191403
40	0x3e1aa52b	0.15102069
41	0xbe466596	-0.1937469
42	0xbbc6d4bd	-0.006067841
43	0x3eb455a9	0.35221604
44	0xbd2b8269	-0.041872416
45	0x3e339a88	0.17539418
46	0x3d09fbd7	0.03368744
47	0x3e8ac858	0.27105975
48	0x3e0cdf6b	0.13757102
49	0xbd98f962	-0.07469441
50	0x3e48ce84	0.1961003
51	0x3e3bde1a	0.18346444
52	0x3ddb6495	0.10712544
53	0x3d10c187	0.035340812
54	0xbf093eb3	-0.53611296
55	0x3dcb05c5	0.0991321
56	0x3ea57331	0.32314447
57	0xbe5c3100	-0.21503067
58	0xbe74b9ea	-0.23899046
59	0xbf0aee5a	-0.54269946
60	0x3e657a1a	0.2240986
61	0xbc89a6e4	-0.016803212
62	0xbdf1df5c	-0.118101805
63	0xbe9b05a1	-0.30277732
64	0x3ea562ce	0.32301944
65	0x3e231e13	0.15929441
66	0xbd230b2c	-0.039805576
67	0xbe816117	-0.25269386
68	0x3e8ef3c0	0.27920341
69	0x3e993415	0.29922548
70	0xbe2ba2bc	-0.16761297
71	0xbd3f6a9e	-0.046732537
72	0x3e42e2d8	0.19031847
73	0xbe11b4c4	-0.14229113
74	0xbe31db4c	-0.17368811
75	0xbe94d284	-0.2906686
76	0x3e7f66fd	0.2494163
77	0xbdc944cd	-0.09827576
78	0xbe7d095a	-0.24710599
79	0x3d6ed3b0	0.05830735
80	0xbedb68a9	-0.42853287
81	0xbd2f4e54	-0.04279931
82	0xbdc772a8	-0.09738666
83	0xbeb51328	-0.35366178
84	0xbe179b96	-0.14805445
85	0xbee6c73c	-0.4507388
86	0xbeb265b1	-0.3484321
87	0xbe7f3cf3	-0.24925594
88	0xbd0d0c3e	-0.034435503
89	0x3e231fc0	0.1593008
90	0xbe82eecc	-0.25572813
91	0xbe1aa1b5	-0.15100749
92	0xbcfa2edf	-0.030539928
93	0xbeb61baa	-0.3556798
94	0x3efb55da	0.49088937
95	0xbeed4b5f	-0.46346566
96	0x3e4eb93e	0.20187852
97	0x3dac343c	0.084084004
98	0x3deff0ae	0.11715828
99	0x3ec937a7	0.39300272
100	0x3dbf3355	0.09335963
101	0x3e30fb31	0.17283322
102	0xbce4b03b	-0.027916064
103	0xbe59905a	-0.21246472
104	0x3e6a169e	0.2286019
105	0x3e60ff53	0.21972398
106	0x3d762be0	0.060100436
107	0x3e6529fd	0.22379299
108	0xbeb5b803	-0.35491952
109	0x3ea87cff	0.32907864
110	0xbc55f202	-0.013058187
111	0x3e1265b6	0.14296612
112	0xbea1b320	-0.31581974
113	0xbe960db5	-0.29307333
114	0x3dcb196a	0.09916957
115	0x3de822ea	0.11334784
116	0xbe0e83a1	-0.139174
117	0x3e2ec091	0.17065646
118	0x3da15a5c	0.07878563
119	0x3ec17067	0.3778107
120	0x3e3253a4	0.17414719
121	0x3deb8a7a	0.11501022
122	0x3e170fff	0.14752196
123	0x3e181018	0.1484989
124	0xbe2e7196	-0.17035517
125	0xbd03547b	-0.03206299
126	0xbe337a5e	-0.17527148
127	0x3d1b5080	0.037918568
128	0xbe9c4745	-0.30523124
129	0x3e95bcca	0.29245597
130	0xbeaa04f0	-0.33206892
131	0x3eb4fd67	0.3534958
132	0xbe9f1fcc	-0.31078947
133	0xbdb1f6d6	-0.08689658
134	0xbe98e201	-0.29859927
135	0x3e0d2c69	0.13786472
136	0xbe95117c	-0.29114902
137	0x3e966460	0.29373455
138	0xbe3bad35	-0.18327792
139	0xbdfae3e1	-0.12250496
140	0xbd940a51	-0.0722853
141	0x3ab3a54b	0.0013705877
142	0x3e08e080	0.1336689
143	0x3da5be84	0.080929786
144	0x3d8ff6ee	0.0702952
145	0xbc44e44a	-0.012017319
146	0xbdf61ca6	-0.12017183
147	0xbb2e20b9	-0.0026569797
148	0xbd0681d0	-0.032838643
149	0xbe9b2504	-0.30301678
150	0x3c3c6226	0.01149801
151	0xbd3fee78	-0.04685828
152	0xbdb1a341	-0.08673716
153	0x3e41bdaf	0.18920015
154	0xbb9a0beb	-0.0047011278
155	0xbecaaad8	-0.39583468
156	0xbe40bd77	-0.18822275
157	0x3e3dfe0f	0.18553947
158	0x3e9ab285	0.30214325
159	0x3e40904a	0.18805042
160	0xbdb6b8c2	-0.089219585
161	0x3e09239c	0.1339249
162	0xbe3f4764	-0.18679577
163	0xbdff76c4	-0.124738246
164	0x3ebd3139	0.36951616
165	0x3e07a88e	0.13247892
166	0x3d859ed9	0.065244384
167	0xbf2df007	-0.6794438
168	0x3e00ef5f	0.12591313
169	0xbeb0496d	-0.3443102
170	0x3e79da68	0.24399722
171	0x3cb52d0a	0.022116203
172	0xbe87255b	-0.26395687
173	0x3e476918	0.19473684
174	0x3e630867	0.22171174
175	0x3d7ea7c1	0.0621717
176	0x3e9ba63f	0.30400273
177	0x3e03ad18	0.12858999
178	0xbe1e87ab	-0.1548144
179	0xbce64481	-0.028108837
180	0xbef63463	-0.48086843
181	0xbd6094ce	-0.05482941
182	0xbe9fc5f4	-0.31205714
183	0x3e106dde	0.14104411
184	0xbf080736	-0.53136003
185	0x3e66569e	0.2249398
186	0x3da979fe	0.08275221
187	0xbdcdeb9f	-0.10054707
188	0xbe5cc0f2	-0.21557978
189	0xbe5f433c	-0.21802992
190	0xbe1b5ac1	-0.15171339
191	0x3e49cc82	0.1970692
192	0xbcfa1e14	-0.03053192
193	0x3da7c224	0.08191326
194	0x3dc73239	0.09726376
195	0xbe30d2b7	-0.17267881
196	0xbe7064e0	-0.23475981
197	0x3e176f01	0.14788438
198	0x3da1d34b	0.07901629
199	0xbcfcb139	-0.030846225
200	0xbdd97ebc	-0.10619876
201	0xbf5fce10	-0.874238
202	0x3d4165a5	0.047216076
203	0xbe5e290f	-0.2169535
204	0xbec910f0	-0.39270735
205	0x3e303b54	0.17210132
206	0x3d5f03d3	0.054447006
207	0x3b3513b2	0.0027630148
208	0xbe356fa5	-0.1771837
209	0x3e91c9a2	0.28474146
210	0x3d48478c	0.048896357
211	0xbe80a6ba	-0.25127202
212	0x3db77c91	0.08959306
213	0xbe8163e4	-0.25271523
214	0x3c301b7d	0.010748741
215	0xbe53a2e8	-0.20667613
216	0xbe8232d0	-0.25429392
217	0x3eec53b3	0.46157607
218	0xbe8dcb2f	-0.2769408
219	0x3c20fc1d	0.0098257335
220	0xbe0bd602	-0.13655856
221	0xbe779421	-0.241776
222	0xbe25be42	-0.16185859
223	0x3e6af0a0	0.22943354
224	0x3e4ced87	0.20012484
225	0x3dd1ecf7	0.102502756
226	0xbefe388e	-0.49652523
227	0xbdc2c8a6	-0.09510927
228	0xbcdc1d6f	-0.026869504
229	0xbe20b790	-0.15695024
230	0x3e98012c	0.29688394
231	0xbe13e2e2	-0.14442018
232	0xbdb2de52	-0.087338105
233	0xbd0010ae	-0.031265907
234	0x3e696d08	0.22795498
235	0x3ed91df7	0.42405674
236	0x3e3b83be	0.18311974
237	0x3e7d3717	0.24728046
238	0x3d1001f2	0.035158105
239	0x3ed20425	0.41018787
240	0xbec351bc	-0.38148296
241	0x3e80692c	0.2508024
242	0x3e8a7b97	0.27047417
243	0x3e205d81	0.15660669
244	0xbd8f25c9	-0.06989629
245	0x3daf9e1a	0.08575077
246	0x3de90236	0.11377375
247	0xbeb7c683	-0.3589364
248	0xbebb9f33	-0.36644897
249	0x3d27ff98	0.041015238
250	0xbcc68de2	-0.024237577
251	0xbe1451fc	-0.144844
252	0x3e704bf2	0.23466471
253	0xbf04a1ad	-0.518092
254	0x3d8cfc10	0.068840146
255	0x3da94f78	0.082671106

fc1.bias f4 [128]
0	0x3e4b8f7a	0.1987895
1	0xbdca9ff2	-0.098937884
2	0x3c405205	0.011738305
3	0x3d9ba31a	0.075994685
4	0x3e42d4e7	0.19026528
5	0xbe848887	-0.25885412
6	0x3e24646c	0.16053933
7	0xbecfd645	-0.40593162
8	0x3e8b1ffe	0.27172846
9	0xbe5f53e5	-0.21809347
10	0xbef870e2	-0.48523623
11	0xbef8ae28	-0.4857037
12	0xbc5a3420	-0.013318092
13	0xbe1cc1a3	-0.15308242
14	0xbe6c2b6e	-0.23063442
15	0x3ca523d2	0.020158682
16	0xbedf23c8	-0.43581986
17	0xbea9fa06	-0.33198565
18	0x3d21fe5c	0.039549217
19	0xbdb02439	-0.08600659
20	0xbd34c571	-0.044133607
21	0xbeb1796b	-0.34662947
22	0x3dbfdf27	0.09368735
23	0x3ed3e99e	0.41389173
24	0x3d8d1851	0.068894036
25	0x3cb33e3d	0.021880263
26	0x3e6686e6	0.22512397
27	0x3e556309	0.2083856
28	0xbf00baae	-0.5028485
29	0x3d65b814	0.056083754
30	0x3e74b321	0.23896457
31	0xbe122d6d	-0.14275141
32	0x3e3bf5f6	0.18355545
33	0xbe8d795c	-0.27631652
34	0x3e22eb03	0.15909962
35	0x3dd12d96	0.10213773
36	0x3e26619c	0.16248173
37	0xbd30c9fc	-0.043161377
38	0xbe5b82fc	-0.21436685
39	0xbec1dca4	-0.37863648
40	0x3e0d75d9	0.13814487
41	0x3e69ce55	0.22832616
42	0x3d9d1381	0.07669736
43	0x3e78b401	0.24287416
44	0x3e9aad2e	0.3021025
45	0x3e1744df	0.14772366
46	0xbe4667c2	-0.19375518
47	0xbd29e782	-0.04148055
48	0xbc14918b	-0.009067903
49	0xbe0e32e8	-0.13886607
50	0xbe9a5a4d	-0.3014702
51	0x3e02b7ca	0.12765422
52	0x3ecb0324	0.39650834
53	0x3ee18102	0.44043738
54	0x3ea6344b	0.3246177
55	0xbe9bb479	-0.30411127
56	0xbcf8cecd	-0.030372048
57	0x3de84945	0.113421
58	0xbd6adb3d	-0.05733799
59	0xbc4c5803	-0.0124721555
60	0xbd99861d	-0.07496283
61	0xbe58e775	-0.21182044
62	0xbeb7ca25	-0.35896412
63	0x3cfdf3df	0.031000076
64	0x3e8e7e45	0.2783071
65	0x3e81cdae	0.25352234
66	0x3e8d1174	0.27552378
67	0xbd23d7cf	-0.040000733
68	0x3df30f76	0.11868183
69	0x3dd4f383	0.10398009
70	0x3e7fa987	0.24967013
71	0xbeb36eba	-0.35045415
72	0xbdd1af57	-0.102385215
73	0xbef608b2	-0.4805351
74	0xbee9087f	-0.45514295
75	0xbe81ed0e	-0.2537617
76	0xbe8daff3	-0.276733
77	0xbe3086f6	-0.17238984
78	0xbe8db4f7	-0.27677128
79	0xbe3d0819	-0.1846012
80	0xbd76b873	-0.0602345
81	0xbebe1a96	-0.37129658
82	0xbe7326a7	-0.23745213
83	0xbe1da45c	-0.1539473
84	0xbe28da44	-0.16489512
85	0x3d500908	0.050789863
86	0x3e216ffb	0.15765373
87	0xbe1ecc05	-0.15507515
88	0xbe912d2b	-0.28354773
89	0xbe51fddd	-0.20506997
90	0x3e3fffa4	0.18749863
91	0xbea3c7a7	-0.3198826
92	0x3d817b12	0.06322302
93	0xbe8bfcba	-0.27341253
94	0x3e4cb585	0.19991119
95	0xbe351f7b	-0.1768779
96	0x3d747d91	0.059690062
97	0x3a2ec826	0.00066673977
98	0xbcfc9897	-0.03083448
99	0xbeca5ccb	-0.3952392
100	0x3e90a8a1	0.28253654
101	0x3e9af715	0.30266634
102	0xbda4ac08	-0.08040625
103	0xbf078ccc	-0.52949214
104	0xbea285c2	-0.31742674
105	0xbe82d2bb	-0.255514
106	0x3dbb40d2	0.09143223
107	0x3e2354c9	0.15950312
108	0x3e4fe983	0.20303921
109	0xbe4550c5	-0.19269092
110	0xbe9c3ec2	-0.3051663
111	0x3c21fec1	0.009887398
112	0xbb877aa7	-0.0041344943
113	0xbea8a87e	-0.3294105
114	0xbcc47fb0	-0.023986667
115	0xbdbaa509	-0.09113509
116	0xbef316e1	-0.47478393
117	0xbea86754	-0.32891333
118	0xba8d445e	-0.0010777821
119	0xbedb6f26	-0.42858237
120	0x3d725123	0.05915941
121	0xbe12c78c	-0.14333934
122	0x3c80a7b9	0.015704976
123	0xbe3a96e5	-0.18221624
124	0x3ebdf287	0.37099096
125	0xbdce5259	-0.100743
126	0xbde9af93	-0.11410441
127	0x3dbea6cc	0.09309158

fc2.weight f4 [128, 128]
0	0x3c3f769c	0.0116859935
1	0xbea18fb3	-0.31554946
2	0x3e50e7b9	0.20400895
3	0x3d673ada	0.05645261
4	0xbebc05db	-0.36723217
5	0xbdd7c1ef	-0.10535037
6	0x3dd0f260	0.10202479
7	0x3d87f547	0.0663858
8	0xbed9601d	-0.4245614
9	0xbc1d11d4	-0.00958677
10	0xbe602522	-0.21889165
11	0x3e8eef1e	0.27916807
12	0x3e0c450e	0.13698217
13	0xbe8d830f	-0.27639052
14	0xbdc77438	-0.09738964
15	0xbe424a95	-0.18973763
16	0x3e5439da	0.20725194
17	0xbd561b23	-0.052271973
18	0x3ea47b3d	0.32125273
19	0xbdb71bb8	-0.08940834
20	0xbe3c47f6	-0.18386826
21	0xbda0c1aa	-0.078494385
22	0x3db33841	0.08750964
23	0xbc837875	-0.01604865
24	0xbdc7c781	-0.09754849
25	0x3be6209a	0.0070229294
26	0x3e3a32e9	0.18183483
27	0xbe5076c8	-0.20357811
28	0xbf250fe1	-0.64477354
29	0xbd9d36bd	-0.07676456
30	0xbb100cf0	-0.0021980368
31	0xbd766bbe	-0.060161345
32	0x3d8a9e27	0.067684464
33	0x3e831749	0.25603703
34	0xbeb65bd4	-0.35616934
35	0xbcdc1d65	-0.026869485
36	0x3d6d05f5	0.05786701
37	0xbe1f2415	-0.15541108
38	0xbe6757bb	-0.2259206
39	0xbdd14e50	-0.10220015
40	0xbe43609b	-0.19079821
41	0xbd5df883	-0.054192077
42	0x3e6a8fb9	0.22906388
43	0x3da29c02	0.079399124
44	0xbd6594b0	-0.056050003
45	0xbd3c70bd	-0.046005953
46	0xbe667bef	-0.22508214
47	0x3e232ebb	0.15935795
48	0x3d113deb	0.03545944
49	0x3ea0fbb8	0.31442046
50	0xbec40d83	-0.3829156
51	0xbd915794	-0.07096782
52	0x3e1850e8	0.14874613
53	0xbe4943c9	-0.19654764
54	0x3de065d8	0.10956925
55	0xbe32c942	-0.17459586
56	0xbcdfb1b5	-0.027306417
57	0xbd1dcb2f	-0.03852385
58	0x3e8f3758	0.2797191
59	0xbcb4da8b	-0.022076866
60	0x3e828d47	0.2549841
61	0x3b545eb5	0.0032405083
62	0x3d03aa66	0.032144926
63	0xbcba91ed	-0.022774661
64	0xbe0b7ac4	-0.1362105
65	0x3ddf9861	0.10917736
66	0xbd19d2f2	-0.03755469
67	0xbe7619d3	-0.24033289
68	0xbeaebe50	-0.34129572
69	0xbde1eb33	-0.11031189
70	0xbda3b939	-0.07994313
71	0xbc302963	-0.010752055
72	0x3d2196ad	0.039450336
73	0x3e92dc43	0.2868367
74	0xbbee38a4	-0.0072699357
75	0x3e8d69f6	0.27619904
76	0x3d8f7de5	0.07006434
77	0x3e4bce57	0.19902931
78	0x3e1bdab9	0.15220155
79	0x3e234ac0	0.15946484
80	0xbe8ec076	-0.2788121
81	0x3e8ffc02	0.28121954
82	0xbe10f969	-0.14157642
83	0x3d652230	0.055940807
84	0x3dfd9db1	0.12383593
85	0x3e32da44	0.17466074
86	0xbe77cffc	-0.24200433
87	0xbe8e568e	-0.2780041
88	0x3dd398f4	0.10331908
89	0x3c867fb7	0.016418321
90	0xbe0fa04e	-0.14025995
91	0xbcddbec3	-0.027068501
92	0xbd7149cb	-0.058908265
93	0xbbaf7c88	-0.0053554215
94	0xbe7133e9	-0.23554958
95	0x3e8169de	0.25276083
96	0xbbbbcdc6	-0.005731317
97	0x3e9745bc	0.2954539
98	0xbafa012a	-0.0019073833
99	0xbe8bd959	-0.2731426
100	0xbd52dd7f	-0.051480766
101	0x3e4db59d	0.20088811
102	0x3e5fc4c0	0.21852398
103	0xbc74e969	-0.014948227
104	0x3e746d0c	0.23869723
105	0x3e6cc1f5	0.23120864
106	0xbd7de474	-0.061985448
107	0xbd34c54f	-0.04413348
108	0xbe07e81f	-0.13272141
109	0x3ddf27a5	0.108962335
110	0x3e898d0d	0.26865426
111	0x3e0cfba2	0.13767865
112	0x3d9d2cf8	0.07674593
113	0x3d653376	0.05595728
114	0xbe049afb	-0.12949745
115	0x3e1eb6e3	0.15499453
116	0x3e676ae9	0.22599377
117	0xbd9f8e0f	-0.077907674
118	0x3d6d9554	0.05800374
119	0xbe1c1b8c	-0.15244883
120	0x3e22a041	0.15881445
121	0x3e0955fe	0.1341171
122	0xbcfe538d	-0.0310457
123	0x3d8d46d1	0.06898273
124	0xbe4db2ed	-0.20087786
125	0x3e75d38d	0.24006481
126	0x3def9c5a	0.116997436
127	0x3dba436a	0.090948895
128	0xbedf665c	-0.43632782
129	0x3d1f64d5	0.03891452
130	0x3de061b0	0.109561324
131	0x3d94d397	0.0726692
132	0xbbc97da0	-0.006149009
133	0xbe3d6351	-0.18494917
134	0xbd9c4fb5	-0.076323904
135	0x3cd6761d	0.026179368
136	0x3e391698	0.18075025
137	0xbe8875f6	-0.26652497
138	0x3e3c6dc9	0.18401255
139	0xbdcb6a6e	-0.09932409
140	0x3ebe5cfa	0.3718031
141	0xbdd2ccbc	-0.10292956
142	0x3e13a0c7	0.144168
143	0xbcf6f695	-0.030146876
144	0xbe8c4b7c	-0.2740134
145	0x3db578d6	0.08860938
146	0xbd26a245	-0.040682096
147	0x3dd97e4d	0.10619793
148	0xbc58d39b	-0.013234044
149	0xbb99d132	-0.0046941275
150	0x3d16aa10	0.036783278
151	0xbdc9c9e4	-0.09852961
152	0x3e6e973a	0.23299876
153	0xbf19ec96	-0.60126626
154	0x3d515646	0.051107667
155	0x3bce4647	0.006294999
156	0xbe30120b	-0.17194383
157	0x3e3381b2	0.17529944
158	0x3d8305e5	0.06397609
159	0xbc80f0af	-0.015739767
160	0xbe01655e	-0.12636325
161	0x3e49849a	0.1967949
162	0x3dc4362e	0.095806465
163	0x3dd5c3aa	0.104377106
164	0xbca225d6	-0.019793432
165	0x3c185bc9	0.009299227
166	0x3cd50a74	0.026005961
167	0x3c7040a2	0.014663847
168	0x3eb50bdb	0.35360608
169	0x3dfa7b50	0.12230551
170	0xbda2637d	-0.07929132
171	0x3ea2802a	0.31738406
172	0x3e8e59c7	0.2780287
173	0xbe0bf766	-0.13668594
174	0x3c69c3d6	0.014267882
175	0x3cab18c9	0.020885842
176	0x3e44dca4	0.19224793
177	0x3e2b12ff	0.16706465
178	0xbe971d8c	-0.2951473
179	0xbe16b018	-0.14715612
180	0x3e8a4875	0.27008405
181	0x3e0e52d6	0.13898787
182	0xbdb8b6fc	-0.090192765
183	0xbdd00282	-0.10156728
184	0xbefc775e	-0.4930982
185	0xbc0e0c12	-0.00866987
186	0xbd279b69	-0.040919695
187	0xbd28672d	-0.04111402
188	0x3e5fe23f	0.2186365
189	0x3e4b15a7	0.19832478
190	0xbe5c1155	-0.21490987
191	0x3d4b35d3	0.049611878
192	0x3d438f61	0.04774416
193	0xbe271fcb	-0.16320722
194	0x3d565345	0.052325506
195	0x3d792079	0.060821984
196	0x3d981fa2	0.074279085
197	0x3e2f54e2	0.17122224
198	0x3e4d6e9b	0.20061724
199	0x3e49c5c6	0.19704351
200	0xbd84d66f	-0.064862125
201	0x3df016c7	0.117230944
202	0xbdc93b56	-0.098257706
203	0xbe0fd93a	-0.14047709
204	0x3e34a8c5	0.17642505
205	0xbd9afb75	-0.07567493
206	0xbce739db	-0.02822583
207	0xbe99547a	-0.29947263
208	0xbe1a3a00	-0.15061188
209	0x3e2e7e9e	0.17040488
210	0xbadd4810	-0.0016882438
211	0x3e21b59e	0.15791938
212	0xbdc8f476	-0.09812252
213	0xbd3122b7	-0.043245997
214	0x3d9e4b40	0.077291965
215	0xbe285961	-0.16440345
216	0xbe9224b0	-0.28543615
217	0x3d6c6326	0.057711743
218	0xbe151272	-0.14557818
219	0xbdc5d2ea	-0.09659369
220	0x3d160a7c	0.036631092
221	0xbc7cda25	-0.015432869
222	0xbe98a0bb	-0.29810128
223	0x3e5000fa	0.20312873
224	0x3c8b3245	0.016991744
225	0x3d1951ed	0.037431646
226	0xbe846296	-0.25856465
227	0x3d62e143	0.055390608
228	0xbccdaaf3	-0.025105929
229	0x3db5c30d	0.088750936
230	0x3dc85761	0.09782291
231	0xbe593159	-0.21210231
232	0x3cc9324a	0.024560113
233	0xbd8478cc	-0.06468353
234	0xbd5ff132	-0.05467338
235	0xbc9fd180	-0.019509077
236	0x3e3a1b82	0.18174556
237	0xbe107a25	-0.14109094
238	0x3df0b2ac	0.11752829
239	0x3b34d2a3	0.002759137
240	0x3d0ca071	0.034332696
241	0x3db74c2d	0.08950076
242	0xbd7cabde	-0.061687343
243	0x3e07a5ae	0.13246796
244	0x3d862c8a	0.06551464
245	0x3e855f95	0.26049486
246	0xbd789949	-0.06069306
247	0x3e05e66c	0.1307618
248	0xbeb9cd40	-0.36289406
249	0x3e803bc6	0.25045604
250	0x3daee130	0.08539045
251	0xbe4d6b64	-0.20060498
252	0xbc679d59	-0.014136636
253	0x3daf31a4	0.0855439
254	0x3c803c99	0.015653895
255	0xbe33973a	-0.17538157

fc2.bias f4 [128]
0	0xbe04d6fc	-0.12972635
1	0x3e0ee003	0.13952641
2	0xbdc81e4e	-0.09771405
3	0x3e4bc206	0.19898233
4	0x3d257a2e	0.040399723
5	0xbd3246d5	-0.043524582
6	0xbec6f580	-0.38859177
7	0xbe05a925	-0.13052805
8	0xbd9839db	-0.0743291
9	0xbdf49195	-0.1194183
10	0x3c8b5b51	0.017011316
11	0x3dd31b9f	0.10308003
12	0x3e3f3d85	0.18675812
13	0xbe02c3f1	-0.12770058
14	0x3c029df9	0.007972234
15	0x3e143a9c	0.14475483
16	0xbe1a6b84	-0.15080076
17	0x3daebd4a	0.08532198
18	0x3dfa69a3	0.1222718
19	0xbe23d15c	-0.15997833
20	0xbdd0d116	-0.1019613
21	0xbb83cefe	-0.004022478
22	0x3c52a2d4	0.012856204
23	0x3e1f9eab	0.15587871
24	0x3a40fd18	0.00073619327
25	0xbd00fd1b	-0.03149138
26	0xbd545014	-0.05183418
27	0xba84c14f	-0.0010128411
28	0xbd840d88	-0.064478934
29	0x3dbd1b5d	0.09233735
30	0x3c46f7e2	0.012144061
31	0x3c389d7f	0.011268019
32	0xbe548bb6	-0.2075642
33	0xbd115980	-0.035485744
34	0xbd8c5bfe	-0.068534836
35	0x3d6f096b	0.05835859
36	0xbd94bcfc	-0.072626084
37	0xbdd00b5f	-0.10158419
38	0xbca284d7	-0.019838734
39	0xbccd7274	-0.02507899
40	0x3dbd2d34	0.092371374
41	0xbdd8e0a7	-0.10589724
42	0x3a936a7f	0.0011246948
43	0xbcc7a249	-0.024369376
44	0xbd37a055	-0.04483064
45	0xbcffd1bd	-0.03122794
46	0xbde879a8	-0.11351329
47	0x3c981ff5	0.018569926
48	0x3c538ef6	0.0129125025
49	0xbd3e5221	-0.046465043
50	0xbcb84b4f	-0.022496847
51	0x3d24f125	0.040269036
52	0xbd7111bd	-0.058854807
53	0x3dafd18c	0.0858489
54	0x3d3fc881	0.046822075
55	0x3cce11b8	0.025154933
56	0xbd8727c1	-0.06599379
57	0xbd59c31e	-0.053164594
58	0xbcc36fa0	-0.023856938
59	0xbe2ea523	-0.17055182
60	0x3dde81fe	0.10864638
61	0x3d03e1c8	0.032197744
62	0x3c76206c	0.015022378
63	0xbdbc1b2f	-0.09184872
64	0xbcf17abe	-0.029477473
65	0xbd0b31a7	-0.0339829
66	0xbdbd965c	-0.092571944
67	0x3d1607ec	0.03662865
68	0x3bac0255	0.0052493014
69	0xbd4f05ab	-0.050542515
70	0xbdd5c343	-0.10437634
71	0xbcc1cca9	-0.02365716
72	0xbd1c4d15	-0.03815945
73	0xbdc45f60	-0.09588504
74	0x3e1e402b	0.15454166
75	0xbd811ff5	-0.063049234
76	0xbdbebeb4	-0.093137175
77	0xbaae7aeb	-0.0013311779
78	0x3e0ce0a1	0.13757564
79	0xbe232034	-0.15930253
80	0x3c2d0c78	0.010562055
81	0xbdaeac47	-0.08528953
82	0xbdfb5787	-0.12272554
83	0xbb322894	-0.002718483
84	0x3de2655a	0.110544875
85	0xbddf4cd0	-0.10903323
86	0x3c496078	0.012291066
87	0xbd873aae	-0.06602989
88	0xbd89b9ce	-0.067248926
89	0xbd95fca1	-0.07323576
90	0xbda73371	-0.081641085
91	0xbcaed603	-0.021342283
92	0xbe271c94	-0.16319495
93	0x3e870390	0.26369905
94	0xbd9f2074	-0.07769862
95	0xbd8154a6	-0.063149735
96	0x3e3519d0	0.17685628
97	0x3d545854	0.05184205
98	0x3d8e989d	0.069627024
99	0x3d6e61ca	0.058198728
100	0x3d0dab65	0.034587283
101	0x3e003f70	0.125242
102	0x3e29f1f1	0.165962
103	0x3cca4e3e	0.024695512
104	0x3da58d90	0.080836415
105	0x3d84d9dc	0.06486866
106	0xbd1a509a	-0.037674524
107	0x3d05451a	0.032536604
108	0xbd6ca17a	-0.057771184
109	0x3c8c8645	0.017153868
110	0x3c8a1f60	0.016860664
111	0x3d443981	0.047906402
112	0x3dc3790c	0.09544572
113	0xbdb4a4fe	-0.08820532
114	0xb9a9f87e	-0.00032419333
115	0xbe3c1d98	-0.18370664
116	0x3e1c9ec8	0.15294945
117	0xbd032060	-0.032013297
118	0x3d5f318e	0.05449062
119	0xbe5c1e03	-0.21495824
120	0x3d274989	0.040841613
121	0xbc995e88	-0.018721834
122	0xbe291333	-0.1651123
123	0xbe0c9515	-0.13728745
124	0x3c4fbd9c	0.012679484
125	0x3deb6bb8	0.11495155
126	0x3dabcdfa	0.08388896
127	0x3d12986f	0.035789903

fc3.weight f4 [16, 128]
0	0xbecce0ad	-0.40015164
1	0x3e802517	0.25028297
2	0x3eacf7e0	0.33782864
3	0x3f2131aa	0.62966406
4	0xbeba7d68	-0.36423802
5	0xbef56bd8	-0.4793384
6	0x3ee6e796	0.4509856
7	0xbe94d8a1	-0.29071525
8	0x3e95ed02	0.29282385
9	0x3eb480be	0.35254472
10	0x3e8cf08e	0.2752728
11	0xbeb95010	-0.36193895
12	0xbef63070	-0.4808383
13	0x3ea8f487	0.3299906
14	0xbeaec09b	-0.3413132
15	0xbeb494ec	-0.35269868
16	0xbe2f31e0	-0.1710887
17	0xbe082fdc	-0.13299507
18	0xbe554eb1	-0.208308
19	0x3ec71eaf	0.38890597
20	0xbce4d73a	-0.02793466
21	0xbe97da6e	-0.29658836
22	0xbef6032c	-0.48049295
23	0xbf253dd7	-0.64547485
24	0xbef1d627	-0.47233698
25	0x3f465296	0.77469766
26	0x3ead7bbf	0.33883473
27	0x3e67f71c	0.22652858
28	0xbf050c69	-0.5197206
29	0x3ec4fb6b	0.38473067
30	0xbe9616b1	-0.29314187
31	0x3eecda7e	0.46260446
32	0x3eb315f6	0.34977692
33	0xbee89d0b	-0.45432314
34	0x3e9022aa	0.28151447
35	0xbe1949f9	-0.14969625
36	0xbe2e99ab	-0.17050807
37	0xbea2d3f0	-0.3180232
38	0x3ec33b8c	0.38131368
39	0xbec43f66	-0.3832962
40	0xbec03c7c	-0.37546146
41	0xbf22ac61	-0.6354428
42	0x3e63d49f	0.22249077
43	0x3db8f3c7	0.09030872
44	0x3f25bfc3	0.6474573
45	0xbd55b23b	-0.052171927
46	0xbead00ec	-0.33789766
47	0xbf42b93f	-0.76063913
48	0x3f2ce94d	0.6754349
49	0xbe63ac12	-0.22233608
50	0xbe5c7567	-0.2152916
51	0x3ed26726	0.4109432
52	0xbf018ba4	-0.506037
53	0x3f1c7f59	0.6113182
54	0xbee42532	-0.44559628
55	0x3ebe7f47	0.3720648
56	0x3e4d21cd	0.20032425
57	0xbe97ce17	-0.29649422
58	0xbf12e813	-0.5738537
59	0x3f077306	0.52909887
60	0xbe99937e	-0.2999534
61	0xbed6025f	-0.41798684
62	0xbeba10e5	-0.36341015
63	0x3f15c3d6	0.58501947
64	0xbe041506	-0.12898645
65	0xbeaa6564	-0.3328048
66	0xbec90340	-0.39260292
67	0xbe92b3c1	-0.28652766
68	0xbf0219bc	-0.5082052
69	0xbed4aefa	-0.41539747
70	0x3ea6d38c	0.32583272
71	0xbee8c133	-0.454599
72	0xbe2acf4f	-0.16680644
73	0xbef8fb27	-0.48629114
74	0x3eaee1b4	0.34156573
75	0x3e2f226e	0.17102978
76	0x3ee91aef	0.4552836
77	0x3ee2eaac	0.44319665
78	0x3ed800e1	0.4218817
79	0xbed5e830	-0.41778708
80	0xbed53ea8	-0.41649365
81	0xbe3459f2	-0.17612436
82	0x3ee97ff6	0.4560544
83	0x3efd03f0	0.49417067
84	0xbe860827	-0.26178095
85	0xbeed346c	-0.46329057
86	0x3e96b280	0.2943306
87	0xbe3621e4	-0.17786366
88	0xbf1b2cec	-0.6061542
89	0x3ea9a725	0.33135334
90	0xbed54df0	-0.41661024
91	0xbeb79ab1	-0.35860208
92	0x3f7c7217	0.9861159
93	0xbe6695ab	-0.22518031
94	0x3f5cd184	0.86257195
95	0x3f271235	0.65262157
96	0xbe1e980d	-0.1548769
97	0xbe2c88b4	-0.16849023
98	0xbf1afe0b	-0.6054389
99	0xbee99d7a	-0.45627958
100	0x3ea230cb	0.3167785
101	0x3e1d2346	0.15345487
102	0xbeb53b62	-0.35396868
103	0x3f0ee470	0.5581732
104	0x3ede2b43	0.4339238
105	0xbe879921	-0.26484016
106	0xbef624da	-0.4807499
107	0x3ea8c184	0.3296014
108	0x3f7f30b1	0.9968367
109	0x3f1ab3b0	0.6043043
110	0xbe790f6d	-0.2432229
111	0x3ee83142	0.4535008
112	0x3e993c58	0.2992885
113	0x3eb201e0	0.34767056
114	0xbe60affd	-0.21942134
115	0x3ecc742f	0.3993239
116	0xbe86f1ef	-0.26356456
117	0xbe5ca570	-0.21547484
118	0xbe9b23e0	-0.30300808
119	0x3e515ad1	0.204448
120	0x3e99359b	0.2992371
121	0xbeb99cf0	-0.36252546
122	0x3eb67ae5	0.35640636
123	0x3f258d11	0.64668375
124	0x3e6b4954	0.22977191
125	0xbe9610e3	-0.2930976
126	0x3e54f9c3	0.20798402
127	0xbd313ea4	-0.04327263
128	0x3e93f586	0.28898257
129	0xbdd0d201	-0.10196305
130	0x3eff1dbe	0.4982738
131	0x3f0e4853	0.5557911
132	0xbdecc885	-0.115616836
133	0x3f0572eb	0.52128476
134	0x3df562b3	0.11981716
135	0xbe0fbc28	-0.1403662
136	0x3e416573	0.18886356
137	0x3e8f6efd	0.28014365
138	0x3db888eb	0.0901049
139	0xbc23eb48	-0.010004826
140	0x3dc37599	0.09543914
141	0xbe82e76e	-0.25567192
142	0x3f13d9ba	0.577541
143	0x3f906f73	1.1284012
144	0x3e7a56b0	0.24447131
145	0xbe147129	-0.14496292
146	0xbedb29d3	-0.42805347
147	0xbeb6acdd	-0.3567876
148	0x3ddae83e	0.10688828
149	0x3e9b72c1	0.30360988
150	0x3e54751b	0.20747797
151	0xbcc6acb9	-0.024252282
152	0xbe1f6beb	-0.15568511
153	0x3daf2a30	0.085529685
154	0x3f0cac25	0.5495017
155	0xbf26854c	-0.65047145
156	0x3f4b3bac	0.7938793
157	0x3e0450c7	0.12921439
158	0x3f43a4a2	0.76423085
159	0xbdefa0ed	-0.11700616
160	0x3efc7b37	0.49312755
161	0x3e73bfa1	0.2380357
162	0x3e8fd1b5	0.2808968
163	0xbed3cadc	-0.41365707
164	0xbe4c41a2	-0.19946912
165	0xb98803ca	-0.00025942764
166	0xbdfbc007	-0.12292486
167	0xbf15cdba	-0.5851704
168	0xbecbd3cb	-0.39810023
169	0xbc909ec9	-0.01765384
170	0xbdb00c53	-0.08596101
171	0xbeaf789c	-0.34271705
172	0x3eec3e21	0.4614115
173	0x3f14566f	0.5794439
174	0xbe9a5753	-0.30144748
175	0x3f733132	0.9499694
176	0x3e3dbe81	0.18529703
177	0xbf3250f7	-0.6965479
178	0xbde7c410	-0.11316693
179	0xbe5cd4b4	-0.21565515
180	0xbd4cce17	-0.05000123
181	0x3dd2a5a3	0.10285499
182	0xbe3ffc54	-0.187486
183	0x3e80edd1	0.2518144
184	0xbf00c21d	-0.50296193
185	0xbea56fcf	-0.32311866
186	0x3dc69119	0.09695644
187	0xbdef1291	-0.11673463
188	0xbed22907	-0.41046926
189	0x3e093bd2	0.13401726
190	0xbdcd4d22	-0.100244775
191	0x3f2c16b9	0.6722217
192	0xbf0c442c	-0.5479152
193	0x3dad3200	0.08456802
194	0xbe112de8	-0.14177668
195	0x3f143562	0.57893956
196	0x3ebad347	0.36489317
197	0xbcafbacf	-0.021451382
198	0xbda5c907	-0.080949835
199	0xbe688c8a	-0.22709861
200	0xbea8295c	-0.32844055
201	0xbeb113af	-0.3458533
202	0x3c5fffdf	0.013671844
203	0x3f21e3e0	0.63238335
204	0x3eda11cf	0.42591712
205	0xbe9acaa9	-0.30232742
206	0xbee81004	-0.4532472
207	0xbe4586d9	-0.19289722
208	0xbf232fa3	-0.6374456
209	0xbed763ca	-0.4206832
210	0x3e44f982	0.19235805
211	0xbd3c09ce	-0.045907788
212	0x3cb9f429	0.022699432
213	0xbe84c9fc	-0.25935352
214	0xbda4f3b2	-0.08054294
215	0xbdf08a95	-0.117451824
216	0xbec64625	-0.3872539
217	0x3e4ee1d0	0.20203328
218	0x3e0648a0	0.13113642
219	0xbe7cc9b9	-0.24686326
220	0x3fc9cd5c	1.5765796
221	0xbe640814	-0.22268707
222	0x3f224e8c	0.63401103
223	0x3ecf7250	0.405169
224	0xbecf6d7b	-0.40513214
225	0xbf08b18d	-0.5339592
226	0xbef9bdfe	-0.48777765
227	0x3ec1d8ee	0.37860817
228	0x3ea8e3a9	0.3298619
229	0x3f0b5172	0.5442115
230	0x3efe8195	0.49708238
231	0xbd94a345	-0.07257704
232	0x3f45a4d4	0.7720463
233	0xbe97f0a2	-0.29675776
234	0xbbfc8ffe	-0.007707595
235	0x3f1b4ffc	0.6066892
236	0xbe8d730e	-0.27626842
237	0x3ead74d5	0.33878198
238	0xbe4bfc40	-0.19920444
239	0x3e966814	0.2937628
240	0x3b7d6611	0.0038665573
241	0x3e0bb53c	0.13643354
242	0xbc7898d6	-0.015173158
243	0xbf42281b	-0.75842446
244	0xbec7457c	-0.389202
245	0xbdea4c38	-0.11440319
246	0xbdfc39e1	-0.12315727
247	0x3fa2964b	1.2702116
248	0x3f0c0bdd	0.547056
249	0xbe3ddebb	-0.18541996
250	0x3b256bf9	0.0025241359
251	0x3ec1232c	0.37722147
252	0x3ebbfe6b	0.36717543
253	0xbda4e5d5	-0.080516495
254	0x3f80dfea	1.0068333
255	0x3ecbd198	0.39808345

fc3.bias f4 [16]
0	0x3e0103c7	0.12599097
1	0x3ce26556	0.027636211
2	0xbcb6fddf	-0.022337852
3	0xbd8875a0	-0.0666306
4	0x3dd95422	0.1061175
5	0xbb82aac1	-0.0039876406
6	0x3b392c29	0.0028255081
7	0x3ae74928	0.0017645704
8	0x3e4b077f	0.19827078
9	0x3d4d3bbe	0.050105803
10	0xbe252e0e	-0.1613085
11	0xbca46600	-0.020068169
12	0xbe097bec	-0.13426179
13	0x3d012ffc	0.031539902
14	0x3d904fe5	0.07046489
15	0x3c893552	0.016749058

fc1.weight f4 [128, 18]
0	0x3d92db70	0.07170761
1	0xbe68ac72	-0.22722033
2	0x3da898c0	0.0823226
3	0xbe84fab8	-0.25972533
4	0xbea10d55	-0.31455484
5	0xbe3ec763	-0.18630747
6	0x3e5fd322	0.21857885
7	0x3e9afdff	0.3027191
8	0xbeb05429	-0.3443921
9	0x3ecbc597	0.39799187
10	0x3eab8252	0.33497864
11	0x3e1cadea	0.15300718
12	0xbe8c71d7	-0.27430603
13	0xbd3bfe6f	-0.045896944
14	0xbe2dd3d8	-0.16975343
15	0xbe2c727a	-0.16840544
16	0x3d56bdd2	0.05242712
17	0xbe899645	-0.2687246
18	0xbd200c97	-0.039074507
19	0x3e660ae5	0.22465093
20	0xbe368b24	-0.17826515
21	0x3e62619c	0.22107548
22	0x3e36dcb0	0.17857623
23	0xbda18542	-0.07886745
24	0x3f087a59	0.5331169
25	0x3b0e1c79	0.0021684451
26	0xbed73a61	-0.42036727
27	0xbe1252ff	-0.14289473
28	0xbed2c8b5	-0.41168752
29	0xbe870c0c	-0.2637638
30	0xbeb3161f	-0.34977815
31	0x3e13c070	0.14428878
32	0xbecfe653	-0.4060541
33	0x3ea37b82	0.31930166
34	0x3b2bd6fb	0.0026220668
35	0x3d80d9da	0.06291552
36	0xbea82d58	-0.32847095
37	0x3e7b7d78	0.24559581
38	0xbe3a5803	-0.18197636
39	0xbe73a8c7	-0.23794852
40	0x3e188df4	0.14897901
41	0xbe49c971	-0.1970575
42	0xbbaf4e47	-0.0053499076
43	0x3eb1aa22	0.34700114
44	0xbd2fdd2d	-0.04293554
45	0x3e30a5c1	0.1725073
46	0x3d13441b	0.035953622
47	0x3e8aa54c	0.27079237
48	0x3e09865d	0.13430162
49	0xbd993622	-0.07481028
50	0x3e476cc7	0.19475089
51	0x3e3feee6	0.18743476
52	0x3dd945ff	0.10609054
53	0x3d064220	0.032777905
54	0xbf08be88	-0.5341573
55	0x3dcc2aad	0.09969077
56	0x3ea46c3a	0.3211382
57	0xbe57c52e	-0.21071312
58	0xbe760c0d	-0.24028035
59	0xbf0be595	-0.5464719
60	0x3e5f7648	0.21822464
61	0xbc398c1a	-0.011324907
62	0xbdebac2e	-0.1150745
63	0xbe98e4d8	-0.29862094
64	0x3ea74ce7	0.3267586
65	0x3e26da55	0.16294225
66	0xbd0f65c0	-0.035009146
67	0xbe814593	-0.25248393
68	0x3e8ff8f3	0.2811962
69	0x3e98b9ee	0.29829353
70	0xbe2cb17c	-0.1686458
71	0xbd4f63b6	-0.0506322
72	0x3e41b2cc	0.18915862
73	0xbe128213	-0.14307432
74	0xbe30c653	-0.17263155
75	0xbe974282	-0.2954293
76	0x3e80868f	0.2510266
77	0xbdc3e275	-0.095646776
78	0xbe7c1fa1	-0.2462144
79	0x3d738aef	0.05945867
80	0xbedca714	-0.4309622
81	0xbd27e081	-0.040985588
82	0xbdc946bc	-0.09827945
83	0xbeb4f9b2	-0.35346752
84	0xbe180d61	-0.14848854
85	0xbee6f32a	-0.45107394
86	0xbeb1a8d3	-0.34699115
87	0xbe80dcea	-0.25168544
88	0xbcfa35a6	-0.03054316
89	0x3e220d0e	0.15825292
90	0xbe82e33d	-0.25563994
91	0xbe1b2b03	-0.15153126
92	0xbd0a0eeb	-0.033705633
93	0xbeb5cfd7	-0.35510132
94	0x3efb0d21	0.49033454
95	0xbeee21a7	-0.4651005
96	0x3e47b55b	0.19502775
97	0x3db67636	0.08909266
98	0x3debe45e	0.11518167
99	0x3eca981a	0.3956917
100	0x3dc03873	0.09385767
101	0x3e32fef5	0.17480071
102	0xbcfba18d	-0.030716682
103	0xbe5934f9	-0.21211614
104	0x3e6bc320	0.23023653
105	0x3e654902	0.22391132
106	0x3d692f30	0.056929767
107	0x3e60f79d	0.21969457
108	0xbeb6b83d	-0.35687438
109	0x3ea72d19	0.32651594
110	0xbc8e99da	-0.017407347
111	0x3e135dff	0.14391325
112	0xbe9f33d7	-0.31094238
113	0xbe949102	-0.29016882
114	0x3dca01fb	0.09863659
115	0x3df2e6d9	0.11860437
116	0xbe10bc4f	-0.14134334
117	0x3e324e8a	0.17412773
118	0x3d9c49d5	0.0763127
119	0x3ec35ca1	0.38156608
120	0x3e2f110f	0.17096351
121	0x3de50d03	0.111841224
122	0x3e18fd53	0.14940386
123	0x3e169675	0.14705832
124	0xbe2bf38c	-0.16792125
125	0xbd09e856	-0.03366884
126	0xbe31585a	-0.1731886
127	0x3d1ed810	0.038780272
128	0xbe9b6325	-0.3034908
129	0x3e93dd84	0.2887994
130	0xbeac8436	-0.3369462
131	0x3eb73db5	0.35789266
132	0xbe9e33d1	-0.30898908
133	0xbdb2c8a8	-0.087296784
134	0xbe962430	-0.29324484
135	0x3e0dcbbe	0.13847253
136	0xbe951b6c	-0.29122484
137	0x3e966ccd	0.29379883
138	0xbe36e62d	-0.17861243
139	0xbdff9b7b	-0.124808274
140	0xbd8d7d98	-0.06908721
141	0x3bdd6447	0.0067563388
142	0x3e09086a	0.13382116
143	0x3da1f1d4	0.07907453
144	0x3d96c3bf	0.07361554
145	0xbc0edcf8	-0.008719675
146	0xbdeabd8c	-0.114619344
147	0xbbcddcfa	-0.006282446
148	0xbcdc985f	-0.026928125
149	0xbe9beffe	-0.30456537
150	0x3c546857	0.01296433
151	0xbd402147	-0.046906736
152	0xbdab62f0	-0.0836848
153	0x3e41bbed	0.18919344
154	0xbba78e9c	-0.005113436
155	0xbecb594e	-0.39716572
156	0xbe404c70	-0.18779159
157	0x3e4104e0	0.18849516
158	0x3e9892c2	0.29799467
159	0x3e3d362a	0.18477693
160	0xbdbc4cbe	-0.09194325
161	0x3e0d1924	0.13779122
162	0xbe3a1805	-0.18173225
163	0xbdf82d42	-0.12118007
164	0x3ebde6c1	0.37090114
165	0x3e0a613d	0.13513656
166	0x3d869e8f	0.065732114
167	0xbf2d03bd	-0.6758383
168	0x3e010fae	0.12603638
169	0xbeaf0d4b	-0.3418983
170	0x3e7ba8c9	0.24576105
171	0x3cd077ef	0.025447814
172	0xbe859768	-0.26092076
173	0x3e4afb3b	0.198224
174	0x3e614789	0.21999945
175	0x3d8ac943	0.06776669
176	0x3e9c4c04	0.30526745
177	0x3dfdd16f	0.12393462
178	0xbe22e1cd	-0.15906449
179	0xbcf5e5f9	-0.030016886
180	0xbef5f939	-0.48041704
181	0xbd47e527	-0.04880252
182	0xbea0a157	-0.31373093
183	0x3e0e37cf	0.13888477
184	0xbf086a5f	-0.5328731
185	0x3e630b8b	0.22172372
186	0x3da01568	0.07816583
187	0xbdcd1fc4	-0.100158244
188	0xbe5e1a60	-0.21689749
189	0xbe611d1d	-0.21983762
190	0xbe19f8f3	-0.15036373
191	0x3e4ad15a	0.19806424
192	0xbd04d6b2	-0.032431312
193	0x3da8fb1a	0.08251019
194	0x3dc49137	0.0959801
195	0xbe310e55	-0.17290623
196	0xbe6f0eec	-0.23345536
197	0x3e1114cd	0.14168091
198	0x3d97c01e	0.0740969
199	0xbd0c14eb	-0.034199636
200	0xbddd02cd	-0.1079155
201	0xbf5f2a40	-0.87173843
202	0x3d42738d	0.04747348
203	0xbe5c7d28	-0.21532118
204	0xbec93a59	-0.39302328
205	0x3e3030a4	0.17206055
206	0x3d5f85cb	0.054570954
207	0x3b555b6f	0.003255572
208	0xbe35065f	-0.17678212
209	0x3e946f04	0.28990948
210	0x3d3de6b7	0.046362605
211	0xbe7fc774	-0.24978429
212	0x3db1bda6	0.08678751
213	0xbe8237ef	-0.254333
214	0x3c04eb47	0.008112735
215	0xbe56539a	-0.20930329
216	0xbe858105	-0.26074997
217	0x3eea318f	0.45740935
218	0xbe8f0571	-0.2793384
219	0x3c03d1cc	0.008045625
220	0xbe0c6420	-0.1371007
221	0xbe79fe53	-0.24413423
222	0xbe24c302	-0.16090015
223	0x3e6a6fde	0.22894236
224	0x3e4f31c9	0.20233835
225	0x3ddd58e2	0.10807969
226	0xbef9e1d7	-0.48805115
227	0xbdbf61e3	-0.09344842
228	0xbcc89d22	-0.02448899
229	0xbe27e2e8	-0.16395152
230	0x3e996260	0.29957867
231	0xbe16392c	-0.14670247
232	0xbdb53131	-0.08847273
233	0xbce01290	-0.027352601
234	0x3e6932c4	0.22773272
235	0x3ed9ff5b	0.42577633
236	0x3e37245c	0.17884964
237	0x3e7b529a	0.24543229
238	0x3d13a896	0.036049448
239	0x3ed1ff7d	0.41015235
240	0xbec337b4	-0.38128436
241	0x3e80a217	0.25123665
242	0x3e8bc840	0.27301216
243	0x3e1e3841	0.15451147
244	0xbd855edf	-0.06512236
245	0x3daf9f05	0.085752524
246	0x3de772e4	0.113012105
247	0xbeb76b74	-0.35824168
248	0xbebd7aaf	-0.37007663
249	0x3d3473be	0.044055693
250	0xbcc40f9e	-0.023933228
251	0xbe0a9145	-0.13531978
252	0x3e6d1085	0.23150833
253	0xbf05c912	-0.52259934
254	0x3d91adc5	0.07113222
255	0x3dabaf6b	0.08383068

fc1.bias f4 [128]
0	0x3e4af957	0.19821678
1	0xbdbcabe5	-0.09212474
2	0x3c52678b	0.012842069
3	0x3da233c7	0.07920032
4	0x3e452a51	0.19254424
5	0xbe8463f9	-0.25857523
6	0x3e2312be	0.15925118
7	0xbed1cece	-0.40978092
8	0x3e8a8f41	0.2706242
9	0xbe61578f	-0.22006057
10	0xbefa4e53	-0.48887882
11	0xbef7999a	-0.48359376
12	0xbc450770	-0.012025699
13	0xbe194019	-0.14965858
14	0xbe68e10a	-0.22742096
15	0x3ca6ab2a	0.02034529
16	0xbedbb141	-0.42908671
17	0xbea99938	-0.3312471
18	0x3d1c7786	0.038199924
19	0xbdafafbb	-0.0857844
20	0xbd40b126	-0.047043942
21	0xbeb22196	-0.3479125
22	0x3dbf5c69	0.09343798
23	0x3ed199f1	0.4093776
24	0x3d8a384c	0.06749019
25	0x3caa28db	0.020771435
26	0x3e6756b6	0.22591671
27	0x3e554755	0.20827992
28	0xbf00383b	-0.500858
29	0x3d60b200	0.054857254
30	0x3e78a514	0.24281722
31	0xbe10ac46	-0.14128217
32	0x3e3ba12f	0.18323205
33	0xbe8cc20e	-0.27491802
34	0x3e23fdfc	0.16014856
35	0x3dd2088f	0.10255539
36	0x3e2122f4	0.1573599
37	0xbd30d457	-0.043171253
38	0xbe599541	-0.21248342
39	0xbec17bd5	-0.3778979
40	0x3e0f96ea	0.14022413
41	0x3e6b158d	0.2295744
42	0x3d96031d	0.073248126
43	0x3e76ed6a	0.24114004
44	0x3e99980d	0.29998818
45	0x3e1672d0	0.14692235
46	0xbe460cc9	-0.19340815
47	0xbd2bd40c	-0.04195027
48	0xbc0669bf	-0.008203923
49	0xbe10d71f	-0.14144562
50	0xbe98ddd9	-0.29856756
51	0x3dff2b9b	0.12459489
52	0x3ecc66b0	0.39922094
53	0x3ee0090d	0.43756905
54	0x3ea6689e	0.32501692
55	0xbe9c0355	-0.30471292
56	0xbccc5ab2	-0.02494559
57	0x3ddfa57c	0.109202355
58	0xbd6bf507	-0.057606723
59	0xbc641af3	-0.013922441
60	0xbd8ed1f5	-0.0697364
61	0xbe55a0cf	-0.20862125
62	0xbeb6540a	-0.35610992
63	0x3ce49e74	0.027907588
64	0x3e8f8001	0.28027347
65	0x3e81b707	0.2533495
66	0x3e8c8feb	0.2745355
67	0xbd0c465e	-0.034246795
68	0x3df99262	0.121861234
69	0x3dce0a2f	0.10060536
70	0x3e7e909e	0.24859855
71	0xbeb33bc7	-0.35006544
72	0xbdd82f5a	-0.105559066
73	0xbef3f358	-0.47646594
74	0xbee820fa	-0.4533766
75	0xbe8226eb	-0.25420317
76	0xbe8e10dc	-0.27747238
77	0xbe2f205d	-0.1710219
78	0xbe8ce736	-0.2752015
79	0xbe3d0882	-0.18460277
80	0xbd6e7896	-0.05822047
81	0xbebecb4b	-0.37264475
82	0xbe74d4a7	-0.23909245
83	0xbe1c5cc4	-0.15269762
84	0xbe2b8401	-0.16749574
85	0x3d4f43c9	0.050601754
86	0x3e1e4195	0.15454705
87	0xbe22bba6	-0.15891895
88	0xbe908123	-0.28223523
89	0xbe4e9150	-0.2017262
90	0x3e43cbe3	0.19120745
91	0xbea06366	-0.31325835
92	0x3d86ded0	0.06585467
93	0xbe8cc0be	-0.274908
94	0x3e50e96d	0.20401545
95	0xbe325275	-0.17414267
96	0x3d6ae562	0.057347663
97	0xba7f9290	-0.00097493175
98	0xbcea0a67	-0.028569413
99	0xbec8a94c	-0.39191663
100	0x3e92ab8c	0.28646505
101	0x3e996e58	0.29966998
102	0xbda82b17	-0.08211344
103	0xbf073685	-0.52817565
104	0xbea117bf	-0.3146343
105	0xbe837b4c	-0.25680006
106	0x3dbd3cee	0.09240137
107	0x3e23cc22	0.15995839
108	0x3e54e418	0.20790136
109	0xbe411bf2	-0.18858317
110	0xbe9ad8c6	-0.3024351
111	0x3bfe569d	0.00776179
112	0xbbec8193	-0.007217595
113	0xbea6965d	-0.32536593
114	0xbcc4e84e	-0.024036553
115	0xbdc95581	-0.09830762
116	0xbef3a589	-0.4758723
117	0xbea96541	-0.33085063
118	0xbb342085	-0.0027485203
119	0xbedc9a4a	-0.43086463
120	0x3d69b5dd	0.057058204
121	0xbe11c2ca	-0.14234462
122	0x3c5422ea	0.012947777
123	0xbe3b7dc8	-0.183097
124	0x3ebbb092	0.3665815
125	0xbdc6ebbe	-0.09712933
126	0xbde9eb03	-0.11421778
127	0x3dc3de0e	0.09563838

fc2.weight f4 [128, 128]
0	0x3c4869d4	0.012232263
1	0xbea620a5	-0.3244678
2	0x3e52e9e6	0.20597038
3	0x3d6e3978	0.058160275
4	0xbebc10d3	-0.36731586
5	0xbdce0f22	-0.1006148
6	0x3dd00863	0.1015785
7	0x3d8e23fe	0.06940459
8	0xbed8746f	-0.42276332
9	0xbc547f16	-0.012969753
10	0xbe5d308b	-0.21600549
11	0x3e8f37a9	0.27972153
12	0x3e0b78b8	0.1362027
13	0xbe8c6662	-0.27421862
14	0xbdc4bba6	-0.096061036
15	0xbe427d84	-0.18993193
16	0x3e5750a7	0.2102686
17	0xbd5c3270	-0.05375904
18	0x3ea5fc01	0.32418826
19	0xbdbda256	-0.09259479
20	0xbe3b22ff	-0.18275069
21	0xbda9692f	-0.08272015
22	0x3db19e1a	0.086727336
23	0xbc9c8b91	-0.01910952
24	0xbdc97e76	-0.09838574
25	0x3bd694ad	0.0065484853
26	0x3e3757d4	0.17904598
27	0xbe50434a	-0.20338169
28	0xbf259f2f	-0.6469602
29	0xbd9927b0	-0.07478273
30	0x3a9a6e8c	0.0011782213
31	0xbd6b92a5	-0.057512898
32	0x3d87d859	0.06633062
33	0x3e83c3b8	0.2573526
34	0xbeb65377	-0.35610554
35	0xbcd97386	-0.026544344
36	0x3d771c17	0.060329523
37	0xbe1d169f	-0.1534066
38	0xbe64d0c9	-0.2234527
39	0xbdd1b4cf	-0.102395646
40	0xbe429845	-0.19003399
41	0xbd5e5360	-0.05427873
42	0x3e6ba1bd	0.23010917
43	0x3da27f92	0.07934488
44	0xbd6991d7	-0.05702385
45	0xbd47b186	-0.048753284
46	0xbe63a717	-0.22231708
47	0x3e228b21	0.15873386
48	0x3d1c3053	0.038132023
49	0x3ea095f5	0.31364408
50	0xbec45b77	-0.38351032
51	0xbd8f24c9	-0.06989438
52	0x3e152c7e	0.14567754
53	0xbe493ab6	-0.19651303
54	0x3de1f971	0.11033905
55	0xbe3126bf	-0.17299937
56	0xbced54f2	-0.02897117
57	0xbd1f9c64	-0.038967505
58	0x3e8fb457	0.28067276
59	0xbcb44f27	-0.022010399
60	0x3e7f9db6	0.24962506
61	0x3b2a23e7	0.002596134
62	0x3ce39cc2	0.027784709
63	0xbcd40e72	-0.025885794
64	0xbe08ca27	-0.13358365
65	0x3de61cf7	0.11235993
66	0xbd15dba3	-0.036586415
67	0xbe79126d	-0.24323435
68	0xbeadff4f	-0.33983847
69	0xbddfba05	-0.10924152
70	0xbda76e28	-0.081753075
71	0xbc51996c	-0.012792926
72	0x3d22b0c3	0.039719354
73	0x3e958eea	0.29210597
74	0xbb923fe5	-0.004463183
75	0x3e8d38a5	0.2758228
76	0x3d92601f	0.0714724
77	0x3e4d168f	0.20028137
78	0x3e1bec23	0.15226798
79	0x3e254693	0.16140203
80	0xbe906a77	-0.28206226
81	0x3e904c9e	0.28183454
82	0xbe135d30	-0.14391017
83	0x3d645aeb	0.05575077
84	0x3dfa8ac7	0.12233501
85	0x3e32ccd8	0.17460954
86	0xbe769ad7	-0.24082504
87	0xbe8cfee6	-0.27538222
88	0x3dd9d736	0.10636751
89	0x3c90f627	0.0176955
90	0xbe0fa15b	-0.14026396
91	0xbcf2401c	-0.029571585
92	0xbd68ba29	-0.05681816
93	0xbb6c5ae3	-0.0036064915
94	0xbe70907c	-0.23492616
95	0x3e821e35	0.2541367
96	0xbbe1ff66	-0.006896901
97	0x3e97420c	0.29542577
98	0xbb71be74	-0.00368872
99	0xbe8a9539	-0.27066973
100	0xbd4f319f	-0.05058443
101	0x3e4cf985	0.20017059
102	0x3e5ee088	0.2176534
103	0xbc3f648b	-0.011681686
104	0x3e7461c4	0.2386542
105	0x3e6c49ef	0.23075078
106	0xbd8160b5	-0.063172735
107	0xbd2df6ba	-0.042471625
108	0xbe09224f	-0.13391994
109	0x3dd25853	0.10270753
110	0x3e89c04e	0.2690453
111	0x3e0de1e4	0.13855702
112	0x3d985eda	0.074399665
113	0x3d6b05cc	0.057378575
114	0xbe04a283	-0.12952618
115	0x3e1d8276	0.15381798
116	0x3e6b75b1	0.22994114
117	0xbd98bf35	-0.07458345
118	0x3d70f37c	0.058825955
119	0xbe221c8d	-0.15831204
120	0x3e221d25	0.1583143
121	0x3e0a6866	0.13516387
122	0xbd0168f6	-0.03159424
123	0x3d8be866	0.06831436
124	0xbe49adf8	-0.1969527
125	0x3e758ca6	0.23979434
126	0x3def7561	0.1169231
127	0x3dbf7a0b	0.0934945
128	0xbedf131e	-0.43569273
129	0x3d2d0519	0.04224119
130	0x3de1d879	0.11027617
131	0x3d90959f	0.07059788
132	0xbbb0bc5d	-0.0053935484
133	0xbe3e1d29	-0.18565811
134	0xbd9b584a	-0.07585199
135	0x3cd44e1a	0.025916148
136	0x3e37d34f	0.17951702
137	0xbe88d2c0	-0.2672329
138	0x3e3d98a4	0.18515259
139	0xbdce40e2	-0.10070969
140	0x3ebcc445	0.36868492
141	0xbdd46c8c	-0.10372266
142	0x3e13b439	0.14424218
143	0xbd073026	-0.033004902
144	0xbe8d9a16	-0.2765662
145	0x3db5aae0	0.088704824
146	0xbd2f2767	-0.042762186
147	0x3ddb4033	0.107056044
148	0xbc697244	-0.014248434
149	0xbb96e6ab	-0.0046051345
150	0x3d17c67f	0.037054535
151	0xbdd26fb6	-0.102752134
152	0x3e6cc015	0.23120148
153	0xbf1a4749	-0.6026502
154	0x3d565f39	0.052336905
155	0x3bf450e3	0.0074559315
156	0xbe3009b4	-0.17191201
157	0x3e329a6a	0.17441717
158	0x3d8255fb	0.06364056
159	0xbc5d6e2f	-0.013515039
160	0xbe037910	-0.1283915
161	0x3e457f77	0.19286905
162	0x3dc64e8a	0.09682949
163	0x3dd57b84	0.10423949
164	0xbc99a7d8	-0.018756792
165	0x3c0a29c3	0.008432808
166	0x3ce4560c	0.027873062
167	0x3c785c0e	0.015158666
168	0x3eb44495	0.35208574
169	0x3df575d4	0.119853646
170	0xbda0533f	-0.07828378
171	0x3ea2df47	0.31810972
172	0x3e8c96ef	0.27458903
173	0xbe0cf9fd	-0.13767238
174	0x3c376a55	0.011194785
175	0x3c998609	0.01874067
176	0x3e419c9a	0.18907395
177	0x3e2a5eb7	0.16637693
178	0xbe960c7b	-0.29306397
179	0xbe15a777	-0.14614664
180	0x3e8b0972	0.27155644
181	0x3e0d3b52	0.1379216
182	0xbdb8efad	-0.090300895
183	0xbdcc7f6f	-0.099852435
184	0xbeff4847	-0.4985983
185	0xbc09f40d	-0.008420003
186	0xbd1d7560	-0.038442016
187	0xbd2e7f2b	-0.042601746
188	0x3e5bf568	0.21480334
189	0x3e4b5e9e	0.19860312
190	0xbe5a9f58	-0.21349847
191	0x3d472223	0.04861654
192	0x3d4a5914	0.049401358
193	0xbe262e72	-0.16228655
194	0x3d3f6a83	0.046732437
195	0x3d7b7855	0.061394054
196	0x3d967212	0.07345976
197	0x3e2f46e2	0.17116883
198	0x3e4a98ec	0.19784898
199	0x3e49dd08	0.19713223
200	0xbd85c534	-0.06531754
201	0x3df098a0	0.11747861
202	0xbdc3d406	-0.09561925
203	0xbe0ef20e	-0.13959524
204	0x3e33aba1	0.1754594
205	0xbd9ce4c9	-0.07660825
206	0xbd01987e	-0.03163957
207	0xbe9a0f9f	-0.30090043
208	0xbe19c6d4	-0.15017253
209	0x3e317a2f	0.17331766
210	0xbbbb0181	-0.0057069664
211	0x3e211570	0.15730834
212	0xbdc9441e	-0.098274454
213	0xbd32daf3	-0.043665837
214	0x3da01c6c	0.07817921
215	0xbe26bfd3	-0.16284113
216	0xbe90eb9c	-0.28304756
217	0x3d703da4	0.058652535
218	0xbe183b02	-0.1486626
219	0xbdc352e4	-0.095372945
220	0x3d0ce3ef	0.034397062
221	0xbc846844	-0.016162999
222	0xbe99c8fb	-0.30036148
223	0x3e4e0720	0.20119905
224	0x3c7c8bd6	0.015414199
225	0x3d19fabd	0.03759264
226	0xbe82fe49	-0.2558463
227	0x3d6023fe	0.054721825
228	0xbccc4725	-0.024936268
229	0x3db7c115	0.08972374
230	0x3dcc3f8f	0.0997306
231	0xbe576749	-0.21035494
232	0x3cc38f54	0.023872055
233	0xbd80c47c	-0.062874764
234	0xbd5a33e6	-0.05327215
235	0xbc970c06	-0.01843835
236	0x3e38765c	0.180139
237	0xbe1191fd	-0.14215846
238	0x3df28da1	0.1184342
239	0x3a64762f	0.00087151205
240	0x3d08d5ae	0.033406906
241	0x3db76fbc	0.089568585
242	0xbd801940	-0.06254816
243	0x3e059f3d	0.13049026
244	0x3d83a295	0.064274944
245	0x3e865032	0.2623306
246	0xbd76a0ca	-0.060211934
247	0x3e03f14a	0.12885013
248	0xbeba08ed	-0.36334935
249	0x3e7ed12d	0.24884482
250	0x3da9960c	0.08280572
251	0xbe4d39bd	-0.20041557
252	0xbc8a441d	-0.016878182
253	0x3daca405	0.08429722
254	0x3c496478	0.01229202
255	0xbe3301e4	-0.1748119

fc2.bias f4 [128]
0	0xbe03aea6	-0.12859592
1	0x3e0cdd8c	0.13756388
2	0xbdcd54dc	-0.10025951
3	0x3e4bca8c	0.19901484
4	0x3d286690	0.041113436
5	0xbd2b7222	-0.041856892
6	0xbec76008	-0.38940454
7	0xbe0657d8	-0.13119447
8	0xbd970b34	-0.07375184
9	0xbdf78890	-0.12086594
10	0x3c7e49f6	0.015520563
11	0x3dd8f21e	0.10593055
12	0x3e3e12c3	0.18561845
13	0xbe03a7b4	-0.12856942
14	0x3bf3dec7	0.0074423286
15	0x3e0f7d60	0.1401267
16	0xbe1d20d4	-0.15344554
17	0x3dac4ad4	0.0841271
18	0x3dfac9ca	0.122455195
19	0xbe23ace3	-0.1598392
20	0xbdd04139	-0.1016869
21	0xbb3e0b28	-0.002899835
22	0x3c47235f	0.012154429
23	0x3e1ea2e9	0.15491833
24	0xba11d79e	-0.00055634405
25	0xbd03ae42	-0.032148607
26	0xbd53b655	-0.051687557
27	0x3954417b	0.00020242289
28	0xbd839f8f	-0.06426918
29	0x3dbcc7f2	0.09217824
30	0x3c471d83	0.012153032
31	0x3c1f7495	0.009732385
32	0xbe556b8f	-0.20841812
33	0xbd0d2b97	-0.0344654
34	0xbd90000d	-0.0703126
35	0x3d716daf	0.058942493
36	0xbd930022	-0.0717776
37	0xbdd4fea7	-0.104001336
38	0xbc99e9e8	-0.018788293
39	0xbcd2fd88	-0.025755659
40	0x3dbd66e2	0.09248139
41	0xbdd5813d	-0.10425041
42	0x3a39d6f9	0.00070892234
43	0xbcc9b84a	-0.024624009
44	0xbd3a4192	-0.04547269
45	0xbcf2c299	-0.029633807
46	0xbde4b201	-0.11166764
47	0x3c8a80a6	0.016907047
48	0x3c5d5e78	0.013511293
49	0xbd3ebe8f	-0.04656845
50	0xbca79ee0	-0.0204615
51	0x3d223e70	0.039610326
52	0xbd70c43a	-0.058780886
53	0x3db0194d	0.08598576
54	0x3d45ab7d	0.048259247
55	0x3cd1e79a	0.025623132
56	0xbd8a7391	-0.06760324
57	0xbd5348c5	-0.05158307
58	0xbccd2c97	-0.025045676
59	0xbe2d95b6	-0.16951641
60	0x3dde16f1	0.108442195
61	0x3d021e50	0.03176719
62	0x3c88edb6	0.016714912
63	0xbdbb16df	-0.09135222
64	0xbcf58093	-0.029968536
65	0xbd12de9a	-0.03585682
66	0xbdbd0b36	-0.09230654
67	0x3d1a4857	0.037666645
68	0x3b8112ce	0.0039390093
69	0xbd4babfe	-0.04972457
70	0xbdd775c2	-0.105205074
71	0xbcc32144	-0.023819573
72	0xbd17f8e4	-0.037102595
73	0xbdc2def2	-0.0951518
74	0x3e1cb68e	0.15304014
75	0xbd8069ee	-0.062702045
76	0xbdbd203a	-0.09234662
77	0xbb1fb225	-0.0024367657
78	0x3e0d28ce	0.13785097
79	0xbe2189a9	-0.1577517
80	0x3c3738af	0.011182948
81	0xbdaebce4	-0.08532122
82	0xbdfa1a23	-0.122120164
83	0xbb3bf7f3	-0.0028681725
84	0x3de1bd8c	0.11022481
85	0xbddb3a54	-0.107044846
86	0x3c3c50f8	0.011493914
87	0xbd87d2e8	-0.06632024
88	0xbd88f858	-0.06687993
89	0xbd987555	-0.07444254
90	0xbda8211e	-0.082094416
91	0xbcb88aab	-0.02252706
92	0xbe271599	-0.16316833
93	0x3e86c198	0.26319575
94	0xbd9ef4ca	-0.077615336
95	0xbd7e274f	-0.062049206
96	0x3e34a085	0.17639358
97	0x3d53cdeb	0.05171005
98	0x3d8ccaa8	0.06874591
99	0x3d7375d8	0.059438556
100	0x3d0cc3be	0.03436636
101	0x3e00f624	0.12593895
102	0x3e2933aa	0.16523615
103	0x3ccd24d0	0.025041968
104	0x3da3f8e6	0.08006458
105	0x3d87b04b	0.06625422
106	0xbd243196	-0.04008635
107	0x3d0a6d2f	0.03379553
108	0xbd6d5cd7	-0.057949867
109	0x3c9fafb9	0.01949297
110	0x3c95f59a	0.018305589
111	0x3d455dd4	0.048185185
112	0x3dc061eb	0.09393676
113	0xbdb138a8	-0.086533844
114	0x3711e594	8.696126e-06
115	0xbe3ab9b6	-0.18234906
116	0x3e1d21ec	0.15344971
117	0xbd00c8d3	-0.03144152
118	0x3d6a97b2	0.057273574
119	0xbe5a2e3a	-0.21306697
120	0x3d267dda	0.040647365
121	0xbc9ee1c4	-0.019394763
122	0xbe2afb02	-0.16697314
123	0xbe0c32b2	-0.13691214
124	0x3c5466cc	0.012963962
125	0x3def2ffe	0.11679076
126	0x3dad59e9	0.084644146
127	0x3d16ba61	0.03679884
