models/DiscreteBCQ/models.pth (torch, 601210 bytes, 42 tensors)

fc1.weight f4 [128, 18]
00000000: 271c 0abe 1229 7c3e 0b15 3ebe fed1 9c3d
00000010: 943e 48bd 5027 253e e150 a83c e1b4 0ebd
00000020: f528 bbbd 58be 8b3e f614 29be 4921 633e
00000030: ecfb 33be 67a7 ed3d d5a8 2a3e 8f88 e93c
00000040: 3a15 283e 8c0f 5bbe 8944 85bc d07c ebbd
00000050: 42bc abbd 14c4 363e 734a 663e d5d8 b13d
00000060: 6f27 073d c4c4 c63d 1fab 3dbe f3d2 5f3e
00000070: a669 11be d416 e33d 44d4 693d c7e8 06be
00000080: 0020 1c3e d01c 3dbe 4bc5 11be 189e fa3c
00000090: 820f a93d dc65 03bd fb85 18bd ad42 e1bb
000000a0: 4bf3 c33d 122d 1f3e 6157 4abe 65a7 213e
000000b0: 6840 4d3d 162c 223d 3462 293e 2897 813e
000000c0: 83b2 f2bd 3702 69bc bb7e 3b3e 0da0 1c3e
000000d0: e6a9 303e 9506 26be e44f 89bd 8392 153e
000000e0: 9521 73be 71c9 8c3d deb3 7cbd 9dc0 85be
000000f0: 28a2 24bc 013e 1cbe eaf2 f3bc 393e 2c3e
00000100: 1d9d 22bb 193a cdbc 13b2 efbd a87b afbd
00000110: 99cf dc3d a15a 18be 5ff5 4ebd 673b 44be
00000120: 19f3 0fbe 5891 8d3e ee47 873d 733e 3c3d
00000130: 7533 7b3e 78b0 08be 5b69 033d 8dbd 86bd
00000140: ba7c 24be 39eb 003e afcf 45b9 5689 1ebe
00000150: c129 15be 3900 7f3d 1331 f9bd e632 b1bc
00000160: a9d1 5fbe 907e 243e 4c89 703d 40d9 33be
00000170: 232d 5bbd b5ea 4bbe 8e29 353e e7d1 363d
00000180: 8f88 603d e11d 2fbe 416b 523e a352 9c3d
00000190: c8f5 6ebe 8302 10be cf71 553e d685 8e3d
000001a0: 30ab e73d f52f 283e 39d4 d9bd a3f6 ddbd
000001b0: 667a f8bd fefa 0b3a e335 6e3e df68 1dbe
000001c0: 2c18 0abe 9198 8b3e 6946 fdbc 524d c63d
000001d0: 8272 6fbe 85ce 903e c150 68be 373e 0a3e
000001e0: b168 983d b32a 25bd c3e8 fbbb fc4e 7e3d
000001f0: 11cd 83bc c066 ffbd 452a a83d d079 aebd
00000200: 676a 533c 240f a1bd 10fd 1dbb ef05 f0bd
00000210: e24e 92be 3fcb 05be f391 b53d f194 b8bd
00000220: b860 653d 3560 5fbd 3aeb 68bd 3573 d1bd
00000230: c902 67be a319 233e 3804 cdbd 19f4 563d
00000240: 4e56 0dbe aa50 d7bc f47e 103e 1b07 96bd
00000250: 6914 15be b817 2fbe c2e8 903d c105 4d3b
00000260: 090f a73c 0c42 31be 97c3 3bbe 34cd f0bc
00000270: 0be3 9cbd 8f60 76be 77c8 533e 5567 283e
00000280: 4754 67be 2e10 2fbe 1210 f7bd a255 513c
00000290: e71e 33be 1c84 80be d489 3bbe f2a0 913e
000002a0: 4cfa 723d e6ed 2fbc 5a91 cabd b753 903d
000002b0: f58f a3bd 9217 6fbe cedf 40be 78cb 3e3e
000002c0: a160 d73d 0005 fbbd 4fd0 3f3e 5cd3 cdbc
000002d0: 0e0a 0cbe 612a 043e 93ee cbbc fdc4 65be
000002e0: 4672 a5be 33bd 473e 88e8 d33d 734c f03d
000002f0: acca 163e 9ec7 003e 0b95 e13d be54 0f3d
00000300: 35dd 82bd 9eef 493e 3970 80bd f006 d73b
00000310: a560 08bd 8a99 dbbd 3b1d 06be 622d e23d
00000320: 0943 983d 0e07 573e 474d 013e 22a1 f7bd
00000330: 4ac5 003d fe57 383e c839 8d3c 460a f9bd
00000340: 8441 6c3e 6610 0f3e f06d 59be 5024 513e
00000350: 62ac 38bd 2ba8 d63d 65a0 cabd 1651 063e
00000360: 9fc4 573d ac0f 00bd 01ba bc3d 1314 15bd
00000370: 61d0 c1bd 2d55 1abd 8d2b 583d 903e 883d
00000380: 44db c53d c77a ac3d 9628 3b3e 0cc1 7a3e
00000390: c4b0 15bd a02c 88be 8912 43be e729 d13d
000003a0: 24d2 8ebe e79c 8dbd 7653 f4bd c40a 17be
000003b0: 3bac 113a 72ef 103d 61fd 013e 2b7c ee3b
000003c0: c038 80bd 700b c8bd d4ed 133e d0a3 793e
000003d0: 280b 8abe 06c6 4ebe 4617 bf3d 7c39 36be
000003e0: 4a33 183e e53c 71bd a8dc b23d 048c 04bd
000003f0: 7e53 39be b132 f8bd fc5f f0bd 194b 4a3e
-0.13487302 0.24625042 -0.18562715 0.0765724 -0.048887804 0.16128278 0.020546379 -0.03484047
-0.09138671 0.27293658 -0.16511902 0.22180666 -0.1757657 0.11604195 0.16665967 0.028507499
0.16414347 -0.2139265 -0.016268032 -0.114984155 -0.08385517 0.17848235 0.22489338 0.086839356
0.03299659 0.09705499 -0.18522309 0.21857814 -0.14200458 0.110883385 0.057087198 -0.13174735
0.15246582 -0.18468022 -0.14235418 0.030592963 0.08254911 -0.032079563 -0.03723715 -0.0068744035
0.09567889 0.15544537 -0.19759895 0.15786512 0.05011025 0.039592825 0.16541368 0.25310636
-0.11850455 -0.0142217195 0.18310063 0.1529543 0.17252311 -0.16213448 -0.06704691 0.14606671
-0.2374328 0.068743594 -0.061694972 -0.26123515 -0.010048427 -0.15258028 -0.029778916 0.16820611
-0.0024812885 -0.025052117 -0.11703887 -0.085685074 0.107817836 -0.14878322 -0.050526973 -0.19163285
-0.14057578 0.2764995 0.066055164 0.045957994 0.24531348 -0.13348567 0.032082897 -0.06579123
-0.16063204 0.1258973 -0.00018864752 -0.15482077 -0.14566709 0.06225607 -0.12167563 -0.021630716
-0.21857323 0.16063905 0.058724687 -0.17563343 -0.053509843 -0.19913752 0.17691633 0.044633772
0.054817732 -0.17101242 0.20548727 0.07632949 -0.23335946 -0.14063458 0.20844196 0.06959121
0.11311948 0.16424544 -0.106361814 -0.10838058 -0.12132721 0.000533983 0.23262744 -0.15372036
-0.13485783 0.27264836 -0.030917363 0.096827164 -0.23383525 0.28282562 -0.22687055 0.13500296
0.07441843 -0.040323924 -0.0076876595 0.062087044 -0.016088994 -0.1247077 0.08211187 -0.08519328
0.012903786 -0.07864216 -0.0024107136 -0.11719882 -0.28575808 -0.13065813 0.08865728 -0.09012783
0.05600044 -0.05453511 -0.056864955 -0.10227052 -0.22559656 0.15927748 -0.1001057 0.052478883
-0.13802454 -0.02628358 0.14110929 -0.07325574 -0.14558567 -0.17098892 0.07075645 0.0031283947
0.020392912 -0.17310351 -0.1833633 -0.029394723 -0.076604925 -0.24060272 0.2068194 0.16445668
-0.22590743 -0.17096016 -0.12063612 0.012776764 -0.17492257 -0.2510079 -0.18314296 0.28443104
0.059320733 -0.010737872 -0.09891005 0.07047217 -0.07986442 -0.23348835 -0.18835375 0.18632305
0.105164774 -0.12256813 0.18731807 -0.025125198 -0.1367571 0.12906791 -0.024894034 -0.22438426
-0.32313746 0.19505768 0.10347086 0.117333315 0.1472575 0.12576148 0.11014756 0.034992926
-0.06389848 0.19720313 -0.06271405 0.0065621063 -0.033295292 -0.107226446 -0.13097088 0.11043812
0.07434661 0.20998785 0.12627135 -0.120912805 0.03143815 0.18002316 0.017239466 -0.12160163
0.23071867 0.139711 -0.21233344 0.20424008 -0.045086272 0.10481294 -0.09893874 0.1311687
0.052677747 -0.031264946 0.09215165 -0.036396097 -0.09463573 -0.037678886 0.05277591 0.06652558
0.09660962 0.084218554 0.18277201 0.24487704 -0.03654553 -0.26596546 -0.1905004 0.1021307
-0.278947 -0.06914692 -0.119299814 -0.147502 0.00055569754 0.035384603 0.12694313 0.0072779856
-0.06260824 -0.097678065 0.14446193 0.24378896 -0.26961637 -0.20192727 0.09330611 -0.17795366
0.14863315 -0.058895964 0.08733493 -0.03236009 -0.18098256 -0.121190436 -0.117370576 0.1975521

fc1.bias f4 [128]
00000000: 7179 84bd 7f4b 4abe b18e 343e b321 a83d
00000010: b6a5 dc3b c017 3abe 747f 283c 6523 e73d
00000020: 7f17 b23d bd0c d73d 089d 373c d63b f23d
00000030: d21a 823e b2c3 5b3d 8290 a5bc 5999 12be
00000040: a143 e1bd 016d 44bd 2270 883e edbf 22be
00000050: aef5 a83e 0a29 3abe 8464 9a3e e170 893e
00000060: 2663 383e 8779 a93d ad67 11be d335 d4bd
00000070: 8c5a 1cbe 5900 1b3c 7578 f0bc 1a2b f9bc
00000080: b6ad b93d da73 e23c 4720 f5bc 165c c73d
00000090: 3566 2bbd e203 cabd 387c 1d3e b8e9 d6bd
000000a0: fade 773e dce1 223e f1d1 c33b e50e 603e
000000b0: 66a6 ad3d a317 8a3d 9214 1ebe da47 043e
000000c0: e1fa adbd c3c8 9a3e 85c7 003e 115f a63d
000000d0: a261 14be 58bd 28be c09c fc3d 0141 403e
000000e0: 42a2 643e 20fc 41be d79c ecba 40d8 e0bd
000000f0: 567a e33d b6b9 663e c919 413e af81 24be
00000100: 9e19 653e 7f5d c13d c24e 97bd 0e44 d13d
00000110: e663 953c 6a3a 0ebe 7fd3 883e 6bad b63d
00000120: 99fa a93c f36b 913e 0dad 273e 1791 5d3e
00000130: e05b ffbd 2e56 183e be03 5fbd 1d07 473e
00000140: 0847 203e d986 68bc 4bba 35be 6487 fc3a
00000150: b1d2 1ebe 9f39 783e ead1 ad3c e9ae 78be
00000160: d339 033d 03c0 f03d 1366 093e 546a fbbd
00000170: e6dc 3a3b ca79 173c c4a8 1ebe 54ed 04be
00000180: 50ae b5bc a5bf 1bbe 1273 26be bb84 71be
00000190: 5fea f2bd 94f8 86be fda0 02be 4f9e a6bd
000001a0: 6d11 4b3c 6df1 653e 440d 2a3e e28f 113c
000001b0: 06ec a23d f639 113e 1eac b7bc c77f c1bd
000001c0: 981d ba3d f2fd 80be d951 4e3c 671f 303e
000001d0: 49e2 04be 8e0d b3bd bd09 6c3e e245 a2bc
000001e0: 6c82 1dbe 6095 993e 29d3 6d3d bae3 d83d
000001f0: dd66 813d 486c 80be 2584 323d 4814 e83d
-0.064684756 -0.19755362 0.17632557 0.082095526 0.0067336215 -0.18173122 0.010284293 0.11286048
0.08695888 0.105004765 0.011206873 0.11827819 0.25411087 0.053653426 -0.020210508 -0.1431631
-0.10999227 -0.047955517 0.2664805 -0.15893526 0.3299994 -0.18179718 0.30154812 0.26843932
0.18006572 0.082751326 -0.14199705 -0.10361829 -0.15268916 0.009460532 -0.029354313 -0.03041606
0.09066336 0.027643133 -0.029922618 0.09734361 -0.04184552 -0.09864022 0.15379417 -0.10493797
0.24206153 0.15906471 0.0059759547 0.21880682 0.084790036 0.067427896 -0.15437534 0.12918034
-0.08495117 0.30231294 0.1257611 0.08123601 -0.14490369 -0.16478479 0.12334585 0.18774797
0.22327521 -0.18943834 -0.0018052113 -0.109787464 0.11107318 0.2253178 0.18857493 -0.16065095
0.22373053 0.09441661 -0.07388069 0.102180585 0.018236112 -0.1388947 0.2672386 0.089197956
0.020749377 0.2840267 0.16374607 0.21637379 -0.12468696 0.14876625 -0.05444693 0.19436307
0.15652096 -0.014192306 -0.17746846 0.0019266424 -0.1551006 0.2424073 0.021218259 -0.24285473
0.032037567 0.11755373 0.13417844 -0.1227614 0.0028513013 0.009245345 -0.15494066 -0.12981158
-0.022177845 -0.15209825 -0.16254833 -0.23585789 -0.11861109 -0.26361525 -0.12756725 -0.08135664
0.012394291 0.22455378 0.16606623 0.008884402 0.07955174 0.14182267 -0.022420939 -0.094482
0.09087676 -0.25193745 0.012592756 0.17199479 -0.12976946 -0.0874282 0.2305059 -0.019808713
-0.15381783 0.29996777 0.058062706 0.105903104 0.06318448 -0.25082612 0.043583054 0.11331993

fc2.weight f4 [128, 128]
00000000: d5e3 5cbb bd95 5fbd cd95 38bc 6672 cebd
00000010: b787 bebc dde3 213e 3f8a f9bd 7179 313e
00000020: 9ffd c63d d307 43bd 6558 133e 63a2 86bb
00000030: a2e9 eebb fa79 933d 27a9 8e3d 9cc5 2d3d
00000040: 9083 0ebc a407 283e e1f1 ab3d d324 25be
00000050: 185d 26bd 64de 283d f8fe 4a3d cfb4 65bd
00000060: 2dcf f5bd 2a22 05be 1b14 89bd d307 d63d
00000070: 2fde 983d 382e 223d 2f8c 02be c600 bc3d
00000080: 0832 a8bd c9fe 19be bd7e 97bd 9f84 a3bb
00000090: 0a33 0ebd 8b05 233e ce40 013e b44e 3b3e
000000a0: 1c3f 2ebd e3dc 9cbb c018 c93d 6fd4 a9bd
000000b0: fb82 643d fcaa 9b3d af70 7e3d 815e f03b
000000c0: 904d 82bc deeb 24be a3ff c53d 36b7 143e
000000d0: 685b 013e 39dc 903d afa4 13bd c220 df3c
000000e0: 1c27 ba3d f76f eebc d8f0 133d 8877 83bc
000000f0: c7de 2c3e 6e27 843d c6d7 d23d 14db 9c3d
00000100: 50e0 99bd 7a3b ff3d 51fb 0b3e 8939 66bd
00000110: e5c3 f7bd 0225 ea3c d897 f03d 3bbe 323d
00000120: c85c 1cbe 9a58 163e 6cd6 1dbd 20f5 e1bd
00000130: 7a61 16be f79c 803d 2146 6e3d e5d6 8cbd
00000140: 6273 f3bd e990 ae3c 1db8 b33c 8a94 f0bc
00000150: b85a 013e 4694 323d e8a5 583d a6d8 a9bd
00000160: 85f4 983a b1f9 943c d5d1 2c3d 824e 183e
00000170: 7d4e 9f3d d046 e83d 9c15 f0bc 2b5d 3abe
00000180: 8275 97bd 39bc c23d e932 e0bc 355b 903b
00000190: 5872 97bd cd6d 4ebb fdb0 a4bd 03b5 36bc
000001a0: 7d9a 113e ad95 35be 6289 93bc b0e5 ffbd
000001b0: 3887 d33d a71c 2abe 17d5 a23c fbb4 7dbd
000001c0: e6bd 5fbb c7e2 6dbd b286 113e 46da 3f3d
000001d0: d94a 8a3d dfde e53d df71 3d3d b4c9 e73d
000001e0: 6f16 2bbd 4b6b 1d3e 383f 733d 56e0 513e
000001f0: 62af 0e3c 18e8 d93c c067 cc3d 3eb6 4cbc
00000200: 4834 00bd 15a9 4abc 8c41 aa3d 74ae 5b3c
00000210: 8348 d53d 7b5a dfbd cf62 233d 12ec 533d
00000220: f4c1 aabb 1714 a73d e4f5 e73d 8890 1dbd
00000230: 7a73 c93d 48cb 46bd d9d9 b13d 173f 5b3c
00000240: 61b7 aebd 659c f1bd d5f9 04bd 234e 093d
00000250: 2a7c e33d 0a36 05be d4a5 4e3d 860f 25bd
00000260: 8a67 4e3d c982 08bd 22ca 84bd 6798 d8bb
00000270: c37b f03d 68b2 bd3d fb02 1ebe b3ca b2bd
00000280: e90f 4abe 2b68 c5bd 25f3 303e 026c 013d
00000290: ee9a d8bc 4d00 4cbd 79b5 2abd ab02 70bd
000002a0: 9ab6 823b ecf6 a73d 8d61 c7bd d116 06be
000002b0: 8959 aaba ac5a b4bc 31bd cabd 609b 74bd
000002c0: 295e c63d f00b c03d 54ed fa3d 53ac 6cbd
000002d0: e8fd bc3d b0aa babd 9e63 a8bd 9df4 f7bb
000002e0: 9553 a53d 7fe9 f93d fdc8 27bd 3003 6f3c
000002f0: f161 5d3d 30ba 143e da5f ecbc ac33 413d
00000300: c33c e1bd bf66 323e 4698 f83c 11bb b73d
00000310: eaca c9bd 30bb 393e 7ffe 87bd 320e 0cbe
00000320: 4b4f 063e a6f2 47be c6b9 13be c6e5 2b3e
00000330: ab1f 7bbd 3fc9 26be da80 f5bc 6a72 8bbd
00000340: ae4c fc3c f4a5 8c3c a5c2 1e3e d1ad e3bd
00000350: 9fc1 c63d e295 d0bd 3d4b 60bd 6e8a 3abe
00000360: ffb3 44bd 8ec0 1a3e 3013 093e 06b9 73be
00000370: d8a8 71bd 2e0c d3b8 cf14 2e3e e9d7 88bd
00000380: 79a5 113e b944 303e 9d1f e7bd a74b 2abe
00000390: ef1b dabd 33b1 07be 1774 693d 0dca b1bd
000003a0: 220d 3abd 6a07 c8bd 90ae c33d 3035 973b
000003b0: d447 0e3e 04bf 96bd b090 e73d 8ed6 0dbe
000003c0: 5717 043e cd48 ae3c 1f87 d9bc 3fae ba3c
000003d0: 2e18 633d 7f1a cc3d ce6e 093e ef63 293a
000003e0: 01d8 383e 73b3 df3d 50ca 2abc 2fe8 fbbd
000003f0: f424 4c3d 4cc7 14be 18c3 90bd a620 64bd
-0.0033705134 -0.05458616 -0.011266184 -0.100804135 -0.023258073 0.15809579 -0.121845715 0.17331482
0.09716343 -0.047614884 0.14389189 -0.0041087135 -0.007291035 0.072009996 0.06965857 0.042424783
-0.008698359 0.16409165 0.08395744 -0.16127329 -0.040616125 0.041227713 0.049559563 -0.056080636
-0.12002406 -0.13001314 -0.06693288 0.10450711 0.07464253 0.03959486 -0.12748788 0.09179835
-0.08212668 -0.15038599 -0.0739722 -0.004990175 -0.034716643 0.15920083 0.12622377 0.18291742
-0.042540655 -0.004787074 0.09819174 -0.082924716 0.055788975 0.07600972 0.062119182 0.0073354845
-0.015906125 -0.16105601 0.096678995 0.14523014 0.12632525 0.07073254 -0.036045726 0.0272373
0.09089491 -0.029106123 0.03611836 -0.016048208 0.16881858 0.06452833 0.10295062 0.07658973
-0.07513487 0.12462516 0.13670088 -0.056207214 -0.12097911 0.0285821 0.11747712 0.04363845
-0.15269768 0.14682236 -0.038534567 -0.11033082 -0.14685622 0.06279939 0.05817235 -0.068769254
-0.11887242 0.021309333 0.021938378 -0.029367704 0.12632263 0.043598436 0.052892596 -0.082932755
0.0011669552 0.018185468 0.0421923 0.14873698 0.07778642 0.113416314 -0.02930718 -0.18199603
-0.0739546 0.09508557 -0.027368026 0.004405404 -0.07394856 -0.0031498552 -0.0804157 -0.011151555
0.14219089 -0.17732878 -0.018009845 -0.12494981 0.10328525 -0.16612493 0.019877 -0.061940175
-0.0034140288 -0.0580776 0.14211538 0.04683902 0.06752557 0.1122415 0.046251174 0.11317769
-0.04176944 0.1537296 0.059386462 0.20495734 0.008708807 0.026599929 0.09980726 -0.012494622
-0.03129986 -0.012369414 0.08313283 0.013408292 0.10414221 -0.1090593 0.039889153 0.051738806
-0.0052111093 0.08158129 0.11326197 -0.038467914 0.098364785 -0.048533708 0.08684129 0.013381741
-0.085310705 -0.11797408 -0.03246482 0.033521783 0.11107667 -0.13008896 0.050451115 -0.040298007
0.05039171 -0.03332785 -0.06483866 -0.0066099647 0.11742356 0.09262544 -0.15430824 -0.08730068
-0.19732632 -0.09639009 0.17280252 0.031597145 -0.026441064 -0.049804974 -0.041676972 -0.058596294
0.003989053 0.082013935 -0.09735403 -0.13094641 -0.0012996654 -0.022015892 -0.09899367 -0.05971849
0.096859284 0.09377277 0.12252298 -0.05778153 0.09228116 -0.09114587 -0.082221255 -0.007567002
0.08072583 0.12202739 -0.04096316 0.014588162 0.054048482 0.1452415 -0.0288543 0.04716842
-0.109979175 0.17422007 0.030346047 0.08971227 -0.09853156 0.18137813 -0.06640338 -0.1367729
0.13116185 -0.19526157 -0.14426336 0.1678687 -0.061309498 -0.16287707 -0.029968668 -0.06808932
0.030798282 0.017168976 0.15503938 -0.11117137 0.09704899 -0.10184838 -0.054759253 -0.18216869
-0.04802322 0.15112516 0.13386226 -0.2380105 -0.058998913 -0.00010063533 0.17000125 -0.066818066
0.14223279 0.17213716 -0.11285327 -0.16630422 -0.10649859 -0.1325119 0.056995478 -0.08681116
-0.04542268 -0.09767039 0.095547795 0.0046144947 0.13894588 -0.07360652 0.11306894 -0.13851377
0.12899528 0.021274948 -0.026553689 0.022788165 0.05544298 0.09965991 0.13421175 0.00064617296
0.18051149 0.10922899 -0.010424212 -0.12300145 0.04983993 -0.1452915 -0.07068461 -0.0556952

fc2.bias f4 [128]
00000000: 0d74 f6bb 5070 c43d 6541 823d 71ac 723d
00000010: 411d 963d c429 c13c 3cbf f1bd 6467 7bbd
00000020: f2c5 b9bc 04d8 133d 9961 403d fbe7 71bd
00000030: 611c 81bd def9 30bd a614 b8bc 9167 e03d
00000040: a94b a13d d491 2bbd 09f6 913c 6bc8 543d
00000050: 41e5 dc3c c6d0 ffba 6a89 bd3c 4085 a43a
00000060: 2674 583c 89a1 d2bd d75d 85bd bf98 6bbc
00000070: f215 bfbc 14df a33c 4b5c 93bd 09f4 673d
00000080: 21a2 55bd 965f 343d 4bf0 4cbc 02eb 95bd
00000090: 88fa b6bd 2a38 04bd d7ec af3d bd9f 1c3d
000000a0: 1337 f53c 63e2 1f3d 5889 bf3d b441 8cbd
000000b0: a0cc 96bc 3ed2 6e3b 4ca7 b1bd f32b 6abd
000000c0: e4a4 83bc 9580 1cbd 2dd4 5a3c 6151 013e
000000d0: 0ef4 5d3c b5f3 af3c 45c1 aabc ef8f 6dbc
000000e0: e8cc a9bd c20c 333c 112c ac3b 2300 3abb
000000f0: b967 be3d f436 ab3d 9a6c e8bb 0347 6dbc
00000100: 7600 9f3d 0170 99bd e3a0 6f3d 3c07 623d
00000110: 1bed 0e3c dedb 333d 6c26 f1bc 2d89 943d
00000120: b218 8c3d 85a7 dbbc cb6b b0bb b904 1d3d
00000130: 2029 e43c 4179 19bd 902f f63c 6a64 db3b
00000140: 4485 893d 7038 09bd 11ba 843c 37d7 4b3d
00000150: ec78 1a3c bc82 2dbd ccc0 92bd 3fdf 783c
00000160: 1739 99bd de3e 63bd daf6 c6bb 7277 08bd
00000170: a70e 60bc 0227 063e 7322 bf3d d1cd a0bd
00000180: b2f6 f5bc f66e acbd d292 13bd b53a 083e
00000190: dcc7 d03d d160 abbd 6a9d 793d 7f32 67bd
000001a0: 7045 fd3d 8658 423c 050c b03c d2f8 863d
000001b0: 63b3 423d b9a3 a43d 31b0 47bd fe37 1abc
000001c0: 9e77 bbbc ab82 e3bd 825a e0bc 7c26 273d
000001d0: da06 213d bba5 f43c ad63 26bd 2883 98bd
000001e0: ee29 48bd c8e4 313d 8721 50bd 074d 043d
000001f0: ab47 d03d a46e 2739 0dbf 4dbd a5e8 93bc
-0.0075211585 0.095917344 0.06360129 0.059246484 0.073297985 0.023579486 -0.11804053 -0.061377898
-0.022677395 0.03609468 0.046968076 -0.059059124 -0.06304241 -0.043207042 -0.022470783 0.10957254
0.07875759 -0.04188712 0.017817514 0.051948946 0.026964786 -0.0019517175 0.023136813 0.0012551919
0.013211286 -0.10284717 -0.06512039 -0.014379679 -0.023325894 0.020003833 -0.07195338 0.056629214
-0.05215657 0.04403647 -0.012508462 -0.07320215 -0.08934504 -0.032280125 0.085900955 0.038238276
0.029933488 0.03903426 0.09352368 -0.068484694 -0.01840812 0.0036441232 -0.086744875 -0.05717082
-0.016069837 -0.038208563 0.013356251 0.126287 0.013546957 0.021478513 -0.020844111 -0.0144996485
-0.08291036 0.010928335 0.0052542766 -0.002838143 0.09297127 0.08360091 -0.0070930244 -0.014482263
0.0776376 -0.07492066 0.058503043 0.05518268 0.008723523 0.043910854 -0.029437266 0.07252727
0.06840648 -0.026813278 -0.0053839437 0.038334582 0.027851641 -0.037469152 0.030051976 0.00669532
0.067148715 -0.03350109 0.016202005 0.04976579 0.009428244 -0.042361006 -0.07165679 0.015189945
-0.07481592 -0.055479877 -0.0060719075 -0.033317037 -0.013675368 0.13100818 0.093327425 -0.07851756
-0.03002486 -0.084196016 -0.03602869 0.13303645 0.1019437 -0.08368076 0.060941137 -0.05644464
0.1236676 0.011861926 0.021490106 0.065904275 0.047534358 0.0803904 -0.048752014 -0.009412764
-0.022884186 -0.11108907 -0.027386907 0.040808186 0.039313175 0.029864183 -0.040622402 -0.07446891
-0.048868112 0.043431073 -0.050813224 0.03230002 0.101699196 0.00015967578 -0.05023103 -0.01805527

fc3.weight f4 [16, 128]
00000000: 1723 233d 402d b63d 340b ae3c 5aaf 85bd
00000010: f973 513d e9ae 8e3d ea32 d23d 5238 f53d
00000020: 79b9 cebc 1d67 b43d 43da 04be 2624 0d3e
00000030: bd7d fbbd f53c 11be d8ac 073e 6881 e73c
00000040: 80f4 10bd 52f4 023e 04c4 ba3c 3203 5bbd
00000050: afa3 81bd 6ec0 debb ae8e b6bd 5492 37bd
00000060: 12ee 0fbe b699 f33d 8fe4 37bd 2127 b8bd
00000070: 7faf 85bd 3245 08be 115a 7e3e 6bae 5d3d
00000080: 17bb fb3d c744 9bbd f5a6 83bd be0d 743d
00000090: 28c7 ffbd df68 913c 7433 bfbd 4628 303c
000000a0: e998 ec3c 3e55 5abd 72db 02bd e762 513d
000000b0: 0134 7f3d d0fb 0d3e dcbe 0cbe fde4 f5bd
000000c0: a629 503d 8c22 523c 4b25 b0bc f71f adbd
000000d0: f7e8 273e 9ce9 82bd 1984 8dbd 69af de3c
000000e0: b226 95bd 581d 3cbd 963b dcbd f17e fcbd
000000f0: 5419 91bd 5e0f 8d3d c0ef 9a3d f747 1f3e
00000100: 0fe6 cdbd 9136 443d 31cb 03be 447b cdbd
00000110: 5dbd 1b3e ed6f 153e 04a2 9cbd 6e63 7bbd
00000120: 361f a93c c373 8cbd 6b44 8abd 3605 ebbd
00000130: d063 ec3d b012 c8bd 8d5b a83d e76e d1bd
00000140: 1a8a cbbd b17b 6fbe a28c 0d3c 8178 f4bb
00000150: 6cc0 c3bd 3be6 aa39 28a8 b43d 920e b1bd
00000160: f019 61bd a091 a0bd 7d07 f8bd 1ad2 53be
00000170: ec17 ec3d ea3e 903c 76a3 943d 1a01 313e
00000180: 9ae1 20be e1bf 783d 3b63 173e 0e99 92bb
00000190: 7e97 cebd 2307 193e 8cf3 ef3c c88f 72be
000001a0: 0b9c 823c 89ba 073e 1d44 37bd 0baf 6cbd
000001b0: 3fde 113e 420c c53d e3a7 cebc 2ba5 ebbd
000001c0: 97d0 553d 134c fe3d a168 40bd 5205 78bd
000001d0: a1f5 febc 35aa 09be 6865 6ebe 054e 78bc
000001e0: 45dd 2c3e 1c32 18be 3c50 8ebd 68ff 8a3d
000001f0: bd9d 84bd c9b5 97bc bf9d 92be 3bab 803d
00000200: 5353 3a3c 2a17 523c 522e dfbc eeec 9bbc
00000210: 3c21 913b 07c1 0c3b e142 ab3d 0f50 85bd
00000220: a53b 3cbd 2889 793c 552b de3d b8a2 ed3c
00000230: ecf2 60bd c942 75bd b59a 263e 5c0e 923d
00000240: 6207 69bd eed2 bf3d 9077 64bd fa90 cebd
00000250: e4dd 81bd f54f fe3d 519e 733d 6e22 99bb
00000260: 9fdd 513d 3667 4fbd 68b8 4bbd 815f 7ebd
00000270: ff2c 24bb 299c 153c ea0c 813d 78f4 963d
00000280: 81ef eebd 02f9 1cbd e586 2c3e fd4d 953e
00000290: fe33 b7bd 5ffc 363d 9e20 74bd 87ce 7c3d
000002a0: 21d9 283d fef3 143c e2e6 84bd c114 283e
000002b0: 0132 af3d 908f ba3d 907a 53bc bdce 8dbc
000002c0: 7359 ceba 463a a7bd 8163 873c fcb6 96ba
000002d0: 9b3c 503d 73d9 98bc 30e9 613d 91ba 5abc
000002e0: c514 83bd d0e0 a4bd 4f1a d7bc e9be 8f3a
000002f0: d10c 623c 8bfa a9bb a5aa 373d 6920 ccbc
00000300: c7de 98bd b9e2 123d a5d6 d9bd e75c d3bd
00000310: da65 df3c c8e8 323d 5cee bebd 3de6 11bd
00000320: 8ae6 97bc 9ffd 30bd 0467 40bd 122c 56bd
00000330: 0582 9bbc 25f3 f13c 41d5 69bd f2d9 10bd
00000340: 9277 593d eade 073c b52a 623c 965f d53b
00000350: f84f bebd aaca 97ba ff7a 463d a257 96bd
00000360: cbab 5a3c ea63 b63d 7660 03be 7033 db3c
00000370: 854a d53c 2be3 ffbc 9768 aa3c 17ae c43e
00000380: 02d5 07bb 62b8 f9bc 1aa7 493d 44a8 ccbc
00000390: 647a b4bd 0eb8 9a3d 1a5c 8d3c 33e3 133e
000003a0: 74a0 c8bc aafe eb3c 14ba 95bd 6c8f 5fbd
000003b0: 3633 8a3d 7c22 933c 81ac cfbc bc0f 153c
000003c0: cbb2 ddbd 6b8d a73d e636 933c 4192 dbbc
000003d0: b475 c6bd 8c98 313c bb49 b0bd fd9d 8fbd
000003e0: ab62 bd3c 0072 af3d c849 f4bc 72a8 863d
000003f0: e89b 28bd a993 053d 138b 223e 8455 2d3d
0.039828386 0.088953495 0.021245576 -0.06527586 0.05113599 0.06966955 0.10263617 0.11973633
-0.025234925 0.0880873 -0.12973885 0.13783321 -0.12279842 -0.1418341 0.13249528 0.028259948
-0.035389423 0.12788513 0.022798546 -0.053469844 -0.06330048 -0.0067978418 -0.08913933 -0.044817284
-0.1405566 0.118945524 -0.044895705 -0.08991838 -0.06527614 -0.13307646 0.24839045 0.054121416
0.12291544 -0.075814776 -0.06428329 0.059583418 -0.12489158 0.017750202 -0.09335986 0.010751789
0.028881507 -0.05330395 -0.03194756 0.05111971 0.062305454 0.1386559 -0.13744682 -0.12006567
0.05082097 0.012825619 -0.021502158 -0.084533624 0.16397463 -0.06392214 -0.06909961 0.027183251
-0.07282771 -0.045926422 -0.107535526 -0.123289 -0.07084909 0.06887697 0.0756526 0.15554796
-0.10053646 0.0479036 -0.1287048 -0.10033277 0.15208955 0.14593478 -0.076480895 -0.06137412
0.020644765 -0.06858017 -0.06751331 -0.11475603 0.11542475 -0.09769189 0.08220587 -0.10226231
-0.0993845 -0.23387028 0.0086394865 -0.0074606542 -0.09558186 0.00032596462 0.08821136 -0.08645357
-0.054956377 -0.07840276 -0.12110803 -0.20685616 0.11528 0.017608125 0.0725774 0.17285576
-0.1571106 0.060729865 0.14783947 -0.004473812 -0.100874886 0.14944129 0.029290937 -0.2368766
0.015943548 0.13254751 -0.044742692 -0.05778412 0.14244936 0.096214786 -0.025226539 -0.11506113
0.05220088 0.12416854 -0.046974782 -0.06055195 -0.031122984 -0.13443835 -0.23280871 -0.01515532
0.16881283 -0.14862865 -0.06948897 0.06786996 -0.06475399 -0.0185193 -0.28635976 0.062826596
0.011372405 0.012822906 -0.027243767 -0.019033875 0.0044290107 0.0021477358 0.083623655 -0.065094106
-0.04595532 0.0152304545 0.10848109 0.029008254 -0.05491917 -0.059878144 0.16269954 0.07131645
-0.056891806 0.093664035 -0.055778086 -0.10086246 -0.063411504 0.12417594 0.059477154 -0.004673294
0.051236745 -0.05063554 -0.04973641 -0.0621028 -0.0025051234 0.00913147 0.06301291 0.073708475
-0.116667755 -0.03832341 0.16848333 0.29161063 -0.089454636 0.044674274 -0.05960142 0.061720397
0.041222695 0.009091375 -0.0648935 0.16414167 0.08554459 0.091094136 -0.012907639 -0.017310495
-0.0015743211 -0.08165412 0.01652694 -0.0011498625 0.050839048 -0.018658375 0.055154026 -0.013350145
-0.06400446 -0.08050692 -0.026257662 0.001096693 0.013797001 -0.0051873378 0.044840474 -0.024917798
-0.074643664 0.03586075 -0.10636643 -0.10320454 0.027270246 0.04367903 -0.09322807 -0.035619963
-0.018542547 -0.043210622 -0.046973243 -0.052288122 -0.018982897 0.029534886 -0.05708814 -0.0353641
0.053092547 0.008292893 0.013804127 0.006511639 -0.092925966 -0.0011580784 0.048457142 -0.073409334
0.013346623 0.08905776 -0.12829766 0.026757926 0.02603651 -0.031236252 0.020801825 0.3841407
-0.0020726328 -0.030483428 0.049231626 -0.024982579 -0.08812407 0.07554637 0.017255832 0.14442138
-0.024490573 0.028807957 -0.07310882 -0.054580137 0.06748049 0.01796078 -0.025350811 0.00909799
-0.10825118 0.0818127 0.017970514 -0.026803138 -0.09690419 0.010839593 -0.08607813 -0.07012556
0.023118338 0.08566666 -0.029820338 0.06575097 -0.04116431 0.032611523 0.15873365 0.042317882

fc3.bias f4 [16]
00000000: f70e f43b 691e b2bb d9f7 473b 9b0d 9cbc
00000010: 58bb b2bc be28 c3bc 98bb 86bc 52c0 16bc
00000020: 7058 bbbc 601a 2bbd 6c15 89bc 4506 86bc
00000030: e5c9 28bd 9a7b cabc 8f10 4ebc 5160 43bb
0.007448073 -0.005435754 0.003051272 -0.019049456 -0.021817848 -0.023823138 -0.016446874 -0.009201126
-0.022869319 -0.0417732 -0.016733848 -0.016360411 -0.041208167 -0.024717141 -0.01257719 -0.0029812048

fc1.weight f4 [128, 18]
00000000: 30ea 09be 6f79 7c3e a2d9 3dbe d592 9e3d
00000010: 6229 4cbd 2b16 243e 3b63 a63c 08b1 10bd
00000020: 80fd b8bd 6dc4 8b3e 6309 29be 7b96 623e
00000030: 3aeb 33be f9a3 ee3d 811a 2b3e 2479 e13c
00000040: 93bd 273e 50d9 5abe 9803 8ebc 1450 edbd
00000050: 40b7 adbd ccbf 353e 7157 663e 4cd0 b23d
00000060: 5306 063d bc11 c63d 5a9b 3cbe 8eb6 603e
00000070: cdb8 11be ad20 e13d b6c0 653d 3b3d 06be
00000080: 7ca9 1c3e bbdb 3bbe 8d6b 11be fb1b f13c
00000090: caa0 aa3d 4d85 02bd 55ce 18bd 063a b3bb
000000a0: 48a9 c33d a31b 1f3e 5ac7 49be d155 213e
000000b0: 45b3 483d 8c0d 1f3d 3971 2a3e 16b8 813e
000000c0: 50e6 f1bd 50af 63bc 58eb 3b3e b68f 1c3e
000000d0: 78ed 303e 4072 25be 0b84 88bd 85a4 153e
000000e0: 2664 73be 77b9 8b3d 882e 7bbd 36db 85be
000000f0: cdb1 29bc e78a 1cbe 31fa f1bc 6f60 2b3e
00000100: cd41 13bb 18cb cabc 73b7 efbd f677 b0bd
00000110: 9f3f dc3d 6d78 18be 052f 51bd 3885 44be
00000120: c617 0fbe 2199 8d3e 3b19 883d fd22 3d3d
00000130: f9f7 7a3e 1456 08be a272 063d 6bbf 86bd
00000140: 735d 24be 7f13 003e 42de feb7 cc37 1ebe
00000150: d36e 15be 9100 803d 6b02 f9bd 92a3 b9bc
00000160: 6829 60be 959e 243e 9f34 703d 251f 33be
00000170: 5c47 5cbd e829 4cbe 6d8d 353e 11c6 393d
00000180: c762 593d a149 2ebe f219 533e 9354 9b3d
00000190: dc80 6ebe f960 10be 9178 553e 8ebf 8d3d
000001a0: 6f31 e63d 0556 283e 534b d9bd fe50 debd
000001b0: 615f f9bd 1b77 483a 371d 6d3e 39b7 1dbe
000001c0: d4d5 09be adba 8b3e 409f f6bc ea39 c53d
000001d0: 9698 6ebe 769f 903e 3a5c 68be 6fcf 093e
000001e0: 4c5c 983d 14c1 25bd 26ed e8bb 364a 813d
000001f0: 9e36 7dbc 1e2d 00be e071 a83d e6e7 afbd
00000200: 6da7 503c 9d43 a1bd 90cb 0bbb 7524 f0bd
00000210: c100 92be 63fc 05be 5e0c b53d 630a b9bd
00000220: 6c88 653d 4a88 5bbd f920 69bd f117 d0bd
00000230: 44a3 66be 23a2 223e 1ad4 ccbd aee2 563d
00000240: df7a 0dbe 7aac d4bc 5426 103e e7f3 95bd
00000250: 74af 14be 88b8 2fbe ffbc 923d f229 423b
00000260: 33b7 a83c aa2b 31be 31bc 3abe e3fd f5bc
00000270: 8763 9ebd 683d 76be f3b7 533e cd82 273e
00000280: 1d94 67be 4f2a 30be 92f4 f7bd 3dda 4b3c
00000290: aef8 32be da2f 80be 1f8a 3bbe d7a2 913e
000002a0: 591d 753d a82b 31bc a703 cbbd 0c8f 8f3d
000002b0: 4ddf a2bd 86a2 6ebe 53a0 40be 8378 3f3e
000002c0: 2738 d63d f7d6 fabd 1590 3f3e f15f cfbc
000002d0: 389d 0cbe 3027 033e 91a1 d3bc 23af 66be
000002e0: 4a32 a5be 7098 473e 264c d33d 9745 ef3d
000002f0: 3889 163e 2612 013e aa19 e23d 95a3 123d
00000300: e268 82bd 32e3 493e 9f98 80bd b68a d63b
00000310: 5311 08bd 6988 dbbd 46b6 05be 2ac3 e33d
00000320: a23d 993d c6ab 563e d543 013e fcdc f7bd
00000330: c4ca 003d 4830 383e 69d0 903c 147a f8bd
00000340: 59d0 6b3e 15a9 0e3e 529f 59be 3c36 513e
00000350: db1b 36bd e11d d73d 6e58 cbbd 07d5 053e
00000360: b307 5c3d d23d fdbc 6bee bb3d 8e01 14bd
00000370: da83 c1bd b4b8 18bd 1bab 5f3d 06ab 863d
00000380: 8569 c33d 64ac ac3d 8a5b 3a3e 2343 7b3e
00000390: f575 14bd 94db 87be 6748 43be 1473 d23d
000003a0: 2c09 8ebe 8b9f 8bbd 81a1 f3bd 6536 17be
000003b0: 63fb 663a b095 0e3d b46e 023e be57 f63b
000003c0: 2618 80bd 6a07 c8bd 9d80 143e a348 793e
000003d0: c055 8abe c4e9 4dbe 4087 bf3d 49b2 35be
000003e0: 7299 183e fe78 70bd ca39 b33d 2662 04bd
000003f0: c2f1 39be 8630 f9bd e151 f1bd f626 493e
-0.13468242 0.24655698 -0.18540052 0.0774285 -0.049844153 0.16024081 0.020310989 -0.03532508
-0.09032726 0.27298298 -0.16507487 0.22127716 -0.175702 0.11652369 0.16709329 0.027523585
0.1638091 -0.2137196 -0.017335698 -0.11587539 -0.08482218 0.17748946 0.22494294 0.08731136
0.032720875 0.09671351 -0.18418637 0.21944639 -0.14230652 0.109925605 0.056091987 -0.13109295
0.15299028 -0.1834554 -0.14201184 0.029432287 0.08331449 -0.031865407 -0.03730615 -0.0054695634
0.09553772 0.15537886 -0.19704953 0.15755393 0.04899909 0.03883128 0.16644754 0.2533576
-0.11811507 -0.013896778 0.18351495 0.15289196 0.17278087 -0.16156864 -0.0666581 0.1461354
-0.23768672 0.06822484 -0.061323673 -0.26143807 -0.010357332 -0.15287362 -0.029538246 0.16736005
-0.002246964 -0.024755046 -0.11704912 -0.08616631 0.10754322 -0.14889689 -0.051070232 -0.19191444
-0.13973913 0.2765589 0.06645437 0.046175946 0.24508657 -0.13314086 0.032824166 -0.06579479
-0.16051273 0.12507437 -3.0382656e-05 -0.15450972 -0.14593057 0.06250108 -0.12158664 -0.022661004
-0.21890795 0.16076119 0.058643933 -0.1749235 -0.05377899 -0.19937861 0.17729731 0.045354906
0.053072717 -0.17020275 0.20615366 0.075844906 -0.23291343 -0.14099492 0.20846774 0.06921302
0.112398975 0.16439064 -0.1061007 -0.10855292 -0.12176395 0.00076471426 0.23155676 -0.15401925
-0.13460475 0.2729086 -0.030105233 0.09630187 -0.23300394 0.2824666 -0.22691432 0.13458036
0.07439479 -0.040467337 -0.0071083484 0.06312983 -0.015454916 -0.12517211 0.08224845 -0.08589153
0.01273523 -0.07874224 -0.002133105 -0.117257036 -0.285162 -0.13084559 0.088402495 -0.09035184
0.056038305 -0.053596772 -0.05691621 -0.101608165 -0.22523218 0.15882163 -0.10001393 0.052462272
-0.13816403 -0.02596115 0.14077121 -0.07321911 -0.14520055 -0.17160237 0.071649544 0.0029627052
0.020595169 -0.17301813 -0.18235852 -0.03002829 -0.07733827 -0.24046862 0.2067564 0.1635849
-0.22615094 -0.1720364 -0.12107195 0.012442169 -0.17477676 -0.25036508 -0.18314408 0.2844455
0.05984244 -0.010813631 -0.09912806 0.07009706 -0.079527475 -0.23304185 -0.18811159 0.18698315
0.10459929 -0.122480325 0.18707307 -0.025314303 -0.13731849 0.12807918 -0.025833877 -0.22527747
-0.3226493 0.19491744 0.103172585 0.11683195 0.14700782 0.1260458 0.11040051 0.035800535
-0.06367661 0.19715574 -0.0627911 0.0065472974 -0.033219647 -0.107193775 -0.13057813 0.11121209
0.07482459 0.20963964 0.12623532 -0.12102696 0.031443372 0.17987168 0.017677503 -0.121326596
0.23028697 0.13931687 -0.21252182 0.20430845 -0.04446016 0.10503746 -0.09928976 0.13069545
0.05371828 -0.030913267 0.09176334 -0.036134295 -0.09448977 -0.03728552 0.05460654 0.06575589
0.09541611 0.084313184 0.18198982 0.2453733 -0.036245305 -0.26534712 -0.19070588 0.10275856
-0.27741373 -0.0681754 -0.11896039 -0.14766844 0.0008811263 0.034810722 0.12737542 0.007517784
-0.06254606 -0.09767039 0.14502187 0.24344115 -0.27018547 -0.20108706 0.09351969 -0.17743792
0.14902285 -0.058709137 0.08751257 -0.032320164 -0.1815863 -0.12167458 -0.11783195 0.19643769

fc1.bias f4 [128]
00000000: a30f 85bd 7576 4abe b3b5 343e 020b a83d
00000010: 6226 dd3b 89e6 39be 4c39 233c 5119 e73d
00000020: 66bb b23d dc94 d63d b9e1 3e3c 4d8e f13d
00000030: 1985 813e e1d0 5e3d 28a9 a4bc 64ef 11be
00000040: 88b6 e0bd 014e 45bd 3579 883e 252b 23be
00000050: e122 a93e 5ceb 3abe 6333 9a3e a7a7 893e
00000060: b1af 383e d230 aa3d 3864 11be ad69 d4bd
00000070: 055d 1cbe f110 153c 7ee9 eebc 83df f2bc
00000080: 66a1 b83d 9407 e03c fde5 f8bc 322d c73d
00000090: 271b 2cbd 5791 cabd d79e 1d3e 444a d7bd
000000a0: 7886 783e baee 223e 2c55 b53b ffa6 5f3e
000000b0: ce0f ad3d e108 8a3d e551 1ebe 44af 043e
000000c0: 196d adbd 8833 9b3e 6d97 003e 407c a53d
000000d0: b989 14be d053 28be 2484 fb3d fc65 3f3e
000000e0: 1d53 653e 1496 41be ec05 e1ba 8c66 e1bd
000000f0: 0277 e33d 5fda 663e 098a 403e a42d 24be
00000100: 3127 653e 6266 c23d 3d3d 96bd e236 d13d
00000110: c82f 963c 6315 0ebe 43d6 883e 9e0e b73d
00000120: 047e a83c dc6b 913e 802c 283e fb3b 5d3e
00000130: 0aab febd f081 183e e6b2 5fbd 8b10 463e
00000140: 2ba8 1f3e f3f7 66bc ee9f 36be a484 d03a
00000150: fdc1 1ebe 90b1 783e 66f5 ae3c 9746 78be
00000160: 871b 023d a4a0 f03d e2ce 083e 76b6 fbbd
00000170: 036a 143b 8092 153c 22e3 1dbe 0343 05be
00000180: 66e8 babc 8566 1bbe 3888 26be c18d 71be
00000190: 7738 f3bd 2bef 86be 3598 02be d914 a6bd
000001a0: c7b1 443c dd30 663e 37e5 293e 61cf 133c
000001b0: 5934 a43d 5dc5 113e 0cf9 b3bc b3c1 c2bd
000001c0: 4afa b83d 0e02 81be 8661 503c 8e1a 303e
000001d0: 6a06 04be 91ed b1bd d20c 6b3e 5c6e 9fbc
000001e0: 32f7 1dbe e64f 993e 1b71 6d3d dabd d83d
000001f0: 2204 823d 8b53 80be b12e 323d 2a07 e83d
-0.06497123 -0.1977175 0.17647438 0.082052246 0.0067489604 -0.18154348 0.009962391 0.112841256
0.0872715 0.104776114 0.011650496 0.1179472 0.25296858 0.05439842 -0.020100191 -0.14251477
-0.10972315 -0.048170093 0.26654974 -0.15934427 0.33034423 -0.18253845 0.3011733 0.2688572
0.18035771 0.08310093 -0.14198387 -0.103717186 -0.15269859 0.009098277 -0.029164072 -0.029647594
0.09015159 0.027347364 -0.030383104 0.09725417 -0.042018082 -0.098910026 0.15392624 -0.10512212
0.24270046 0.1591138 0.005533835 0.21841048 0.0845028 0.06739975 -0.15460928 0.12957484
-0.08468074 0.30312753 0.12557764 0.080803394 -0.14505662 -0.16438222 0.12281063 0.18691248
0.22394986 -0.18904907 -0.0017167903 -0.110058874 0.11106683 0.2254424 0.18802656 -0.16033036
0.22378232 0.09492184 -0.07335899 0.10215546 0.01833333 -0.13875346 0.2672597 0.08938335
0.020567901 0.28402603 0.16423225 0.21604912 -0.12434967 0.14893317 -0.05461397 0.19342248
0.15591495 -0.014097202 -0.17834446 0.0015908671 -0.15503688 0.24286485 0.02135725 -0.24245678
0.031764533 0.1174939 0.1336017 -0.12290661 0.0022646196 0.009129167 -0.15418676 -0.13013844
-0.022815894 -0.15175827 -0.16262901 -0.23589231 -0.11876004 -0.26354346 -0.12753375 -0.08109445
0.012005276 0.22479577 0.16591345 0.009021611 0.08017797 0.14235444 -0.02196934 -0.095096014
0.09032114 -0.2519688 0.012718564 0.1719763 -0.12893072 -0.0868789 0.2295411 -0.019461803
-0.15426329 0.2994377 0.057969194 0.10583086 0.063484445 -0.25063738 0.04350156 0.113294914

fc2.weight f4 [128, 128]
00000000: 122d 4bbb 5889 5dbd 6149 3dbc 161e cebd
00000010: c1c9 bebc 6811 223e b75f f8bd e9c4 303e
00000020: e365 c63d f2bc 41bd 9348 133e 3dba 91bb
00000030: 0b40 f8bb a9ca 923d df0c 8e3d 3860 2d3d
00000040: bc65 0cbc 28c7 273e 1bc9 ab3d 829b 25be
00000050: 72fe 26bd 57e8 283d faaf 493d 276b 66bd
00000060: 2fe7 f5bd 67ec 04be ab20 89bd 8c17 d63d
00000070: e664 983d 9526 223d 5956 03be c743 bb3d
00000080: 8cc3 a8bd 309e 19be a63d 98bd 90a0 b8bb
00000090: e270 0fbd ec18 233e 51db 003e 2b9b 3b3e
000000a0: 19b3 2dbd 703e b1bb 6cb2 c83d 8f09 abbd
000000b0: 6035 643d 77a2 9b3d 17ed 7a3d b36a ef3b
000000c0: 7b3b 81bc 1db8 24be a7b1 c53d 5e64 143e
000000d0: 68cc 003e 0abd 8f3d 50b9 16bd 83bf df3c
000000e0: 5a7d ba3d f95f efbc 7851 113d cb36 89bc
000000f0: a5aa 2c3e 1349 833d 044b d33d 91cc 9c3d
00000100: 403a 9abd 9cb8 fe3d fd9e 0b3e 15bd 66bd
00000110: 6316 f9bd d8bd ec3c 2ffe f03d 85c4 303d
00000120: be8b 1dbe 7218 163e 317f 1cbd 043f e1bd
00000130: 3705 16be a672 803d f790 6c3d 0a1a 8dbd
00000140: 61b6 f3bd 5f7f af3c e8d8 b43c 409d f4bc
00000150: 5ba5 003e 1a1d 313d da9e 573d 3f6d aabd
00000160: 68bd 9d3a d9f2 923c aefd 2c3d 238f 173e
00000170: 0f42 9f3d e199 e73d 3fbb edbc de44 3abe
00000180: 294f 98bd e90c c43d 50c1 e7bc e6ec 8f3b
00000190: 3d14 98bd ef89 55bb 452e a3bd 567b 3cbc
000001a0: e3dd 103e d6c6 35be e7c2 94bc c275 ffbd
000001b0: 10a8 d33d e572 2abe 433d a13c f91e 7cbd
000001c0: b63d 65bb 70cc 6dbd e843 113e 90e1 3c3d
000001d0: 2e31 893d 5589 e63d 8f65 3c3d d822 e83d
000001e0: 91ff 2cbd af71 1d3e f1ee 713d 45c0 513e
000001f0: 648b 103c f1a4 d33c 00c3 cc3d 9ebe 4fbc
00000200: aeff 02bd 8b38 54bc 9a2e a93d 5095 573c
00000210: 50d4 d43d 0377 dfbd d960 223d 542b 533d
00000220: 5783 b0bb 3745 a73d 2072 e83d bc5f 1bbd
00000230: e4e8 c93d 894e 48bd 1370 b03d ed27 573c
00000240: ecdd aebd d88a f1bd 2910 05bd 7176 083d
00000250: 82b1 e33d 58de 04be 4cbd 4e3d e85d 24bd
00000260: 9450 4c3d 24ed 09bd 6b2a 85bd e36b d6bb
00000270: f752 f03d 129c bd3d baa6 1dbe 1ce3 b3bd
00000280: 7424 4abe 14b1 c5bd f272 313e 7c15 033d
00000290: dee0 d9bc f3e1 4bbd 1e75 2abd 715c 70bd
000002a0: 0393 973b 2040 a83d aa26 c7bd bed2 05be
000002b0: 0a93 82ba b071 b3bc 83c8 c9bd e2f6 74bd
000002c0: 0cf0 c53d 0c28 c03d 4bee fb3d d04f 6abd
000002d0: bd16 bd3d ee1e bbbd 6414 a7bd 627b f4bb
000002e0: c74f a53d 31ec fa3d eea4 2abd 6a74 763c
000002f0: cdfd 5c3d ba44 143e 9c29 edbc 85fd 403d
00000300: e691 e1bd 6544 323e 3d4f f13c 084f b63d
00000310: fceb c9bd 332c 3a3e a41a 88bd a650 0cbe
00000320: f4c7 053e 5e69 48be 2c9d 13be 44a8 2b3e
00000330: fd4e 7bbd e5f6 26be 049e f3bc 3c6b 8cbd
00000340: 6d7b fe3c 5733 8c3c de36 1f3e b609 e3bd
00000350: 23c8 c63d 20ff d0bd c258 62bd 0e66 3abe
00000360: a20d 47bd 2a92 1a3e f47f 083e a2f5 72be
00000370: a421 72bd d585 4d3a 4c43 2e3e 4ddd 88bd
00000380: a4b8 103e 7c9e 303e 93a9 e6bd f28a 29be
00000390: 10c0 dabd 3674 07be c4ef 6b3d 8d71 b1bd
000003a0: 5236 3cbd f21e c8bd d803 c43d f629 943b
000003b0: 9b6d 0e3e aaa0 96bd b24a e73d e1cc 0dbe
000003c0: beca 033e d866 ac3c 41d7 d3bc 8c78 b53c
000003d0: 9558 663d 5a94 cc3d d710 093e 6c98 983a
000003e0: d552 383e 3508 e03d fe89 24bc 3b7a fbbd
000003f0: 85df 4b3d c596 15be d6c0 90bd d8c9 65bd
-0.0031002206 -0.05408606 -0.011553139 -0.10064332 -0.023289563 0.15826952 -0.12127631 0.17262615
0.09687402 -0.047299333 0.14383154 -0.00444725 -0.007575994 0.071675606 0.06936049 0.04232809
-0.008569177 0.16384566 0.08387967 -0.16172603 -0.04077 0.0412372 0.04924009 -0.056254532
-0.120069854 -0.12980805 -0.06695684 0.1045371 0.0744112 0.039587576 -0.12825908 0.09143787
-0.082404226 -0.1500175 -0.074336335 -0.005634375 -0.035019763 0.15927476 0.12583663 0.1832091
-0.04240713 -0.0054090545 0.09799656 -0.083514325 0.055714965 0.07599347 0.061261263 0.0073064207
-0.015775433 -0.16085859 0.09653025 0.14491412 0.12577975 0.07018478 -0.03679782 0.027313
0.0910594 -0.029220568 0.035478085 -0.01674976 0.1686197 0.06410422 0.103170425 0.076562054
-0.075306416 0.12437555 0.13634868 -0.056332666 -0.12162473 0.028899118 0.11767232 0.043156166
-0.15385339 0.14657763 -0.038207237 -0.109983474 -0.14650427 0.062718675 0.057755437 -0.06889732
-0.119000204 0.02142304 0.022076085 -0.029860139 0.12563078 0.043240644 0.052641727 -0.08321618
0.0012034597 0.017938064 0.042234115 0.14800696 0.077762716 0.11308647 -0.02901995 -0.18190333
-0.074369736 0.09572775 -0.02829042 0.004392254 -0.07425735 -0.0032583436 -0.079678096 -0.011504015
0.14147143 -0.17751631 -0.018159343 -0.124736324 0.1033479 -0.16645391 0.019682532 -0.061552975
-0.003497941 -0.058056295 0.1418606 0.04611355 0.066988334 0.11256663 0.04599529 0.11334771
-0.042235915 0.15375398 0.059065763 0.20483501 0.008822296 0.025835486 0.09998131 -0.012679724
-0.031982116 -0.012952934 0.08260842 0.0131581575 0.10392058 -0.109113716 0.039643142 0.051554993
-0.0053867507 0.081674986 0.113498926 -0.037933096 0.098588735 -0.048903022 0.086151265 0.013132078
-0.08538422 -0.117940605 -0.032486115 0.03331608 0.11117841 -0.12975442 0.050473496 -0.04012862
0.049881533 -0.03367342 -0.06502231 -0.006543623 0.11734574 0.09258284 -0.15395632 -0.08783552
-0.19740468 -0.096529156 0.17329004 0.03200291 -0.026596483 -0.04977603 -0.041615598 -0.05868191
0.0046256795 0.08215356 -0.097241715 -0.13068673 -0.0009962034 -0.021904796 -0.09852698 -0.05980576
0.09664926 0.09382638 0.1230131 -0.05720502 0.092328526 -0.09136759 -0.08158186 -0.0074609974
0.08071857 0.12252081 -0.041661195 0.015042404 0.05395298 0.14479342 -0.028950505 0.047116775
-0.11014156 0.17408903 0.02945673 0.08901793 -0.098594636 0.18180923 -0.06645706 -0.1370264
0.13064557 -0.19571444 -0.14415425 0.16763407 -0.061354626 -0.1630512 -0.029738434 -0.06856391
0.031064713 0.017114324 0.15548274 -0.110858366 0.09706142 -0.10204911 -0.055260427 -0.18202993
-0.048596986 0.1509482 0.1333006 -0.23726514 -0.059114113 0.0007840072 0.17017859 -0.06682835
0.14132935 0.17247957 -0.112628125 -0.1655691 -0.10681164 -0.13227925 0.057601705 -0.08664236
-0.04595024 -0.09771527 0.09571046 0.0045216037 0.13908999 -0.07354863 0.11293544 -0.13847686
0.12870309 0.021045133 -0.025859477 0.022152208 0.056236822 0.09989233 0.1338533 0.0011642105
0.18000348 0.10939065 -0.0100426655 -0.12279173 0.04977371 -0.14608295 -0.070680305 -0.056100696

fc2.bias f4 [128]
00000000: 8baa fdbb a865 c43d 7c5a 823d 550a 723d
00000010: a85e 963d 8d7e c03c 4495 f1bd b3d7 7cbd
00000020: 9c19 b8bc ba6e 153d 2b9f 403d 75d7 70bd
00000030: 17e5 80bd 18c4 30bd 8cf5 b5bc c10d e13d
00000040: b259 a13d 1d6d 2bbd 2b46 903c 40a9 533d
00000050: 2049 dd3c 6f0d ccba 67ed b43c 1574 b03a
00000060: fbcf 543c e9b5 d1bd 0624 86bd 6555 70bc
00000070: 702c c1bc d9a3 a13c 24a7 92bd db15 6a3d
00000080: 6c2c 55bd 52ad 343d 7462 51bc 6656 95bd
00000090: 0238 b7bd 6245 04bd 4a95 af3d 4d67 1d3d
000000a0: b18b f23c 6aac 1e3d 140d c03d e33d 8cbd
000000b0: 6c95 97bc 51d4 473b ff0c b2bd 6de7 68bd
000000c0: f268 83bc 4a36 1cbd 0532 5b3c 9294 013e
000000d0: 06ca 5e3c 138a b03c c023 abbc f1ff 6dbc
000000e0: 142e aabd 58c8 313c 8382 a53b d481 42bb
000000f0: 8c9e bd3d 70a6 ab3d 5879 e6bb 3d9a 7abc
00000100: 41c5 9e3d 703b 99bd e5d7 6e3d 98d8 613d
00000110: 4438 0e3c 3075 343d 5fb9 f4bc ff12 943d
00000120: aeea 8b3d 7108 dcbc 8b17 adbb 3151 1c3d
00000130: 9921 e23c 0e36 1bbd e27b f53c 7374 de3b
00000140: e821 8a3d 0405 07bd e124 873c 42ad 4b3d
00000150: 8572 1b3c 1091 2bbd b983 92bd a5ae 7b3c
00000160: 7391 99bd 3b00 64bd feb6 c2bb fd84 09bd
00000170: 9522 64bc b71d 063e 9b2e bf3d d3d0 a0bd
00000180: 29f6 f6bc 1dbf abbd 64e0 12bd 3d46 083e
00000190: 9223 d13d 3bbd abbd 4546 793d 0c5c 66bd
000001a0: 323a fd3d 9eae 403c fc16 b03c ded0 863d
000001b0: 3ab6 433d 2e22 a53d 19f2 46bd 43ae 18bc
000001c0: 2d86 babc 2d0a e4bd b52f e1bc 3b59 273d
000001d0: 3211 213d b9be f43c 4a15 26bd 0b67 99bd
000001e0: 64ba 49bd 9000 313d f98a 4fbd ec77 033d
000001f0: 52b2 d03d 5579 62b8 5a71 4cbd ba0f 95bc
-0.0077412776 0.09589702 0.06364915 0.059091885 0.07342273 0.023497844 -0.11796048 -0.061729144
-0.022473149 0.03648255 0.047026794 -0.058799226 -0.062936954 -0.04315576 -0.022211812 0.109889515
0.07878436 -0.041852105 0.017611584 0.05167508 0.027012408 -0.0015567968 0.022085859 0.001346233
0.0129890395 -0.10239775 -0.0654984 -0.014668797 -0.02358076 0.019731449 -0.07160786 0.05714975
-0.052044317 0.044110604 -0.012779821 -0.0729187 -0.089462295 -0.03229273 0.085733965 0.038428593
0.029607626 0.038738646 0.093774945 -0.068477415 -0.018503867 0.003049154 -0.08693885 -0.05686133
-0.016041253 -0.03813771 0.013378625 0.12654331 0.013597971 0.021550214 -0.02089107 -0.014526353
-0.0830957 0.010850988 0.0050509586 -0.0029679434 0.09258756 0.08381355 -0.0070335083 -0.015295562
0.07752467 -0.0748204 0.05831136 0.0551382 0.008680407 0.04405707 -0.029873548 0.07230186
0.06831871 -0.026859494 -0.0052823476 0.038163368 0.027603911 -0.037893347 0.029966298 0.006788784
0.06744748 -0.032963768 0.016497077 0.04972578 0.009487753 -0.04188639 -0.0715403 0.015361463
-0.07498445 -0.055664282 -0.0059422245 -0.033574093 -0.013924261 0.13097273 0.09335061 -0.0785233
-0.030146675 -0.08386061 -0.035858527 0.13308044 0.102118626 -0.08385702 0.06085803 -0.056240126
0.123646155 0.011760382 0.021495335 0.06582807 0.047781207 0.0806316 -0.048570726 -0.009318891
-0.022769058 -0.111347534 -0.027488569 0.04085658 0.03932304 0.0298761 -0.040547647 -0.07490357
-0.04925002 0.043213427 -0.050669644 0.03209679 0.10190262 -5.3995598e-05 -0.049912788 -0.018195976
