models/DistributionalDQN/model.pth (torch, 499566 bytes, 7 tensors)

supports f4 [51]
0	0xc358c743	-216.77837
1	0xc354715b	-212.4428
2	0xc3501b74	-208.10724
3	0xc34bc58c	-203.77167
4	0xc3476fa4	-199.4361
5	0xc34319bc	-195.10052
6	0xc33ec3d4	-190.76495
7	0xc33a6ded	-186.4294
8	0xc3361805	-182.09383
9	0xc331c21d	-177.75826
10	0xc32d6c36	-173.4227
11	0xc329164e	-169.08713
12	0xc324c066	-164.75156
13	0xc3206a7e	-160.41599
14	0xc31c1496	-156.08041
15	0xc317beaf	-151.74486
16	0xc31368c7	-147.40929
17	0xc30f12df	-143.07372
18	0xc30abcf8	-138.73816
19	0xc3066710	-134.40259
20	0xc3021128	-130.06702
21	0xc2fb7680	-125.731445
22	0xc2f2cab1	-121.39588
23	0xc2ea1ee2	-117.06032
24	0xc2e17312	-112.72475
25	0xc2d8c744	-108.38919
26	0xc2d01b74	-104.05362
27	0xc2c76fa4	-99.71805
28	0xc2bec3d5	-95.382484
29	0xc2b61806	-91.04692
30	0xc2ad6c36	-86.71135
31	0xc2a4c066	-82.37578
32	0xc29c1497	-78.040215
33	0xc29368c8	-73.70465
34	0xc28abcf8	-69.36908
35	0xc2821128	-65.03351
36	0xc272cab2	-60.697945
37	0xc2617313	-56.362377
38	0xc2501b74	-52.02681
39	0xc23ec3d5	-47.691242
40	0xc22d6c36	-43.355675
41	0xc21c1497	-39.020107
42	0xc20abcf8	-34.68454
43	0xc1f2cab2	-30.348972
44	0xc1d01b74	-26.013405
45	0xc1ad6c36	-21.677837
46	0xc18abcf8	-17.34227
47	0xc1501b74	-13.006702
48	0xc10abcf8	-8.671135
49	0xc08abcf8	-4.3355675
50	0x00000000	0.0

network.0.weight f4 [128, 18]
0	0x3f39fb59	0.7264915
1	0xbf05ea62	-0.52310765
2	0xbea6dce2	-0.32590395
3	0xbe9950cc	-0.29944456
4	0x3e05aea1	0.13054897
5	0x3dbeea06	0.0932198
6	0x3dc88424	0.09790829
7	0xbe2edbc3	-0.1707602
8	0x3e5425b9	0.20717515
9	0xbeba571e	-0.3639459
10	0xbeaa80ca	-0.33301383
11	0x3d60209e	0.054718606
12	0xbd94a778	-0.07258505
13	0x3dfad74f	0.12248098
14	0xbbfe5c5c	-0.007762475
15	0xbe1da844	-0.1539622
16	0xbdff78ac	-0.12474188
17	0x3c5c889d	0.0134603055
18	0xbd9b72be	-0.07590245
19	0x3e0429c1	0.12906553
20	0xbe663d9c	-0.2248444
21	0xbdcaddad	-0.099055625
22	0x3e09d00a	0.13458267
23	0xbf0b4ed8	-0.5441718
24	0x3daccf07	0.08437925
25	0xbe176c6f	-0.14787458
26	0xbf34a4c0	-0.7056389
27	0x3eef40db	0.46729168
28	0xbde1fb2d	-0.11034236
29	0x3e9da77d	0.30791846
30	0x3dc9b610	0.09849179
31	0x3e451ebd	0.19250007
32	0xbd909b98	-0.07060927
33	0xbd278acd	-0.040903855
34	0x3c368dd2	0.011142211
35	0xbdb22a0d	-0.08699427
36	0xbde8ad7e	-0.11361216
37	0x3e1c66ee	0.1527364
38	0x3eade974	0.33967173
39	0xbdec6c4e	-0.11544095
40	0x3ebadc41	0.36496165
41	0xbeb22975	-0.34797254
42	0xbe98212a	-0.29712802
43	0xbdef2f6a	-0.116789654
44	0x3c3ac8b3	0.0114003895
45	0xbd31849d	-0.04333936
46	0xbdbdee45	-0.09273962
47	0xbf07d65d	-0.5306147
48	0x3df00685	0.117199935
49	0x3cbc4b57	0.022985144
50	0xbe10a69b	-0.14126055
51	0x3c1d4e74	0.009601224
52	0xbc327efd	-0.010894534
53	0x3d92bc71	0.071648486
54	0x3df492cd	0.119420625
55	0xbd7f005e	-0.06225621
56	0x3de534ac	0.11191687
57	0x3d947438	0.072487295
58	0x3bf4cc53	0.0074706464
59	0xbed0f0bd	-0.4080867
60	0xbef728ab	-0.48273215
61	0x3f1a22d1	0.60209376
62	0xbe90c2a8	-0.2827351
63	0xbe5ec20b	-0.21753709
64	0x3e0effaa	0.13964716
65	0x3e939e4d	0.2883171
66	0xbeec2568	-0.4612229
67	0x3e009388	0.12556279
68	0xbd286923	-0.04111589
69	0x3dd6af75	0.104826845
70	0xbdefa9c5	-0.11702303
71	0x3e436908	0.19083035
72	0xbece09e1	-0.40241912
73	0x3eca8b2b	0.39559302
74	0xbd9bf5c3	-0.07615235
75	0x3d264381	0.04059172
76	0x3f096b64	0.5367949
77	0x3cfee3ea	0.031114537
78	0x3e6da471	0.2320726
79	0x3d037702	0.032095917
80	0x3c1a5e12	0.009421842
81	0xbf17b741	-0.59264
82	0x3e7a9bcb	0.24473493
83	0xbe7d3e5b	-0.24730818
84	0x3df6d672	0.12052621
85	0xbe928a17	-0.2862098
86	0xbe1e93c7	-0.1548606
87	0x3c9da42c	0.019243322
88	0xbe2220b3	-0.15832786
89	0x3e4a7adc	0.1977343
90	0xbeda8642	-0.42680556
91	0x3e968b2b	0.29403052
92	0x3e00eae6	0.12589607
93	0xbd6ec6ee	-0.058295183
94	0xbd4363ff	-0.047702786
95	0xbe810444	-0.25198567
96	0xbe24b98e	-0.16086408
97	0x3d55e9a6	0.052224778
98	0x3c6b5ee7	0.014365888
99	0x3dbbb885	0.09166054
100	0xbdaa4ee5	-0.08315829
101	0x3e8429be	0.25813097
102	0x3d62eff4	0.05540462
103	0x3d072285	0.032991905
104	0xbd9b6f17	-0.07589548
105	0x3dfff345	0.12497572
106	0xbdc06cc1	-0.09395743
107	0x3e40c6aa	0.18825784
108	0x3ea4a31b	0.3215569
109	0xbf3bd0f4	-0.7336571
110	0xbd37873a	-0.044806696
111	0xbef1de31	-0.4723983
112	0xbe9cefa7	-0.3065159
113	0x3dfa089e	0.12208675
114	0xbd99d3b7	-0.075110845
115	0xbd2d1c94	-0.042263582
116	0xb80a5854	-3.2984026e-05
117	0x3e8a60d9	0.27027014
118	0xbe44459a	-0.19167176
119	0xbdb9c581	-0.09070874
120	0x3dd1d96d	0.10246549
121	0xbdbad730	-0.09123075
122	0xbb11c973	-0.0022245317
123	0xbe350bd9	-0.17680301
124	0x3dd4c967	0.10389977
125	0xbda6f508	-0.08152205
126	0xbe190c65	-0.14946134
127	0xbdfe267b	-0.12409683
128	0x3e28bf52	0.16479233
129	0x3eb7837c	0.35842502
130	0xbf83a112	-1.028353
131	0x3eab0ee8	0.3340981
132	0x3e896d87	0.26841375
133	0xbe061699	-0.13094558
134	0x3f0b6903	0.5445711
135	0x3e8546ea	0.26030666
136	0x3f0a0529	0.53914124
137	0xbdf712bf	-0.120641224
138	0x3de3f96e	0.11131559
139	0xbcb4fb5e	-0.022092517
140	0x3e899b07	0.2687609
141	0x3cbcc564	0.023043342
142	0x3da27256	0.07931964
143	0x3e4464b5	0.19179042
144	0x3d9fd8fe	0.0780506
145	0x3ec31820	0.38104343
146	0x3fa61f15	1.2978235
147	0xbf2addda	-0.6674477
148	0xbf19f05d	-0.6013239
149	0xbda9fd9f	-0.083003275
150	0x3e8f97ab	0.280454
151	0xbe844925	-0.25837055
152	0x3f19b36e	0.6003941
153	0x3cda1e1b	0.026625684
154	0xbeb1ec04	-0.34750378
155	0x3e34f8d9	0.17673053
156	0x3ee0b7bd	0.4389018
157	0x3dcf0584	0.10108474
158	0x3e33e5e3	0.17568164
159	0x3ef9fabe	0.48824114
160	0x3df4ed39	0.11959309
161	0x3e823fc0	0.25439262
162	0xbe52e92f	-0.20596765
163	0x3e6b4598	0.22975767
164	0xbd6a5fc9	-0.057220254
165	0xbc959521	-0.018259587
166	0x3f3800da	0.718763
167	0xbf6c5c33	-0.92328185
168	0x3e23087a	0.15921202
169	0xbf630f3f	-0.8869514
170	0x3d7a9e68	0.061186224
171	0x3dacd2dd	0.084386565
172	0xbd912de3	-0.0708883
173	0xbe66a4a0	-0.22523737
174	0x3daab81b	0.083358966
175	0x3cf5bd80	0.029997587
176	0x3e29bf1f	0.16576813
177	0x3dd991ee	0.10623537
178	0x3d9a238b	0.075263105
179	0xbe23bbf7	-0.15989672
180	0x3da4f18d	0.08053885
181	0x3a650299	0.0008736044
182	0xbe6ae688	-0.22939503
183	0x3e3096e3	0.17245059
184	0xbee59b06	-0.44844836
185	0x3d06e078	0.032928914
186	0xbe026a1b	-0.12735789
187	0x3e85624c	0.26051557
188	0xbf094f96	-0.53637064
189	0x3d9f5c71	0.07781304
190	0xbea8411e	-0.3286218
191	0xbe87ff68	-0.26562047
192	0x3e56bae2	0.20969728
193	0xbe43b23f	-0.19110964
194	0xbe1a8a88	-0.15091908
195	0xbd34ff46	-0.04418876
196	0xbe45ef20	-0.193295
197	0xbdba8699	-0.09107704
198	0x3ca8cfa8	0.02060683
199	0x3dcb17a8	0.099166214
200	0xbb1ca90a	-0.0023904466
201	0xbf0bedc4	-0.54659677
202	0x3e15908e	0.14605924
203	0xbecc6b1f	-0.39925477
204	0x3d275191	0.040849272
205	0x3e4d8f7f	0.2007427
206	0xbe909e42	-0.2824574
207	0xbe625cbc	-0.22105688
208	0xbdc4ce6a	-0.09609683
209	0x3e954d8d	0.2916073
210	0x3d454139	0.048157904
211	0xbce9d693	-0.0285447
212	0xbb56f407	-0.003279926
213	0x3c31444b	0.010819505
214	0xbe35e6b5	-0.17763789
215	0xbe504d34	-0.2034195
216	0xbd2eef65	-0.042708773
217	0x3eb627eb	0.3557733
218	0xbcb91119	-0.02259116
219	0xbe6f281b	-0.23355143
220	0x3e372d15	0.17888291
221	0xbed11d1f	-0.4084253
222	0x3d06626e	0.032808714
223	0xbf4e9a4b	-0.8070418
224	0xbc3cc86c	-0.011522394
225	0x3f1f4dc6	0.6222805
226	0xbcb05e9e	-0.021529492
227	0x3e6e9b7a	0.23301497
228	0x3d47d474	0.048786595
229	0x3d2ea9c5	0.042642374
230	0x3e62fd71	0.22166993
231	0x3e0e0317	0.13868366
232	0x3bf7b431	0.0075593223
233	0x3d079288	0.033098727
234	0xbd9892d1	-0.07449878
235	0x3e570da3	0.21001296
236	0xbe031f42	-0.12804893
237	0xbfad6b98	-1.354846
238	0xbf24f381	-0.6443406
239	0x3e7ff47f	0.24995612
240	0x3d05393f	0.032525297
241	0xbe84a746	-0.2590887
242	0xbbb11675	-0.0054042884
243	0xbcc4cdf5	-0.02402399
244	0x3e933b4c	0.28756177
245	0x3d2568c9	0.040383134
246	0x3e36c707	0.1784936
247	0x3e6da613	0.23207884
248	0xbd7ca252	-0.06167824
249	0xbcec5365	-0.02884836
250	0xbd80fd3a	-0.06298299
251	0x3d6be8e8	0.057595164
252	0xbe7b688d	-0.24551602
253	0x3ee62a61	0.44954208
254	0xbd1922f7	-0.03738686
255	0xbf10dad8	-0.5658393

network.0.bias f4 [128]
0	0xbfcc06f0	-1.5939617
1	0xbff894f9	-1.9420463
2	0xbf777ecb	-0.96677846
3	0xbebf2346	-0.373316
4	0xbf0f2d64	-0.55928636
5	0xbfe122ba	-1.7588723
6	0xbfeacb41	-1.8343278
7	0xbd31ccc0	-0.043408155
8	0x3ee67fcc	0.45019376
9	0xbf93a781	-1.1535493
10	0xbfc9b599	-1.5758544
11	0xbf6294c6	-0.8850826
12	0xc015c710	-2.3402748
13	0xbf8653a7	-1.0494279
14	0xbf463ff2	-0.7744132
15	0xbf0f10e5	-0.55885154
16	0xc0619d01	-3.5252078
17	0x3da9ae60	0.082852125
18	0xc0517f65	-3.2734005
19	0xbf427e26	-0.7597374
20	0xbf7019b2	-0.9378921
21	0xc026159e	-2.5950694
22	0xbfd515aa	-1.6647236
23	0xbfe90849	-1.8205653
24	0xbf127b01	-0.5721894
25	0xbf894b17	-1.0726041
26	0xbf30ed1a	-0.6911179
27	0xc01fc835	-2.4965947
28	0xbf9a1b1b	-1.2039522
29	0x3ea464ce	0.32108158
30	0xbf7b3c6b	-0.98139066
31	0xbf67b2c3	-0.90507144
32	0xbf833da7	-1.025319
33	0x3e9d7e14	0.30760252
34	0xc01e8803	-2.4770515
35	0xbf1d28a4	-0.6139014
36	0xbf864032	-1.0488341
37	0xbe82c7b6	-0.25542992
38	0xbfb05b81	-1.3777925
39	0xbf924ef7	-1.1430348
40	0x3e8b9933	0.2726532
41	0xbe97c61d	-0.29643336
42	0xbee9cc2f	-0.45663592
43	0xbfd03105	-1.626496
44	0xbfd5bf17	-1.6698941
45	0xbff39e96	-1.9032772
46	0xc0282623	-2.6273277
47	0xbfa9e3f9	-1.3272697
48	0xc01df3bd	-2.4680016
49	0xbede2535	-0.43387762
50	0xbfe18c57	-1.7620953
51	0x40c49a7d	6.1438584
52	0xc007bb92	-2.1208234
53	0xbfad1928	-1.3523302
54	0x412b58be	10.709166
55	0xbfda1cce	-1.704004
56	0xc03325a0	-2.7991714
57	0xbff09cca	-1.8797848
58	0xbfa67a1f	-1.3006018
59	0xbfeac60b	-1.8341688
60	0xbfb9cdff	-1.451599
61	0xbf0bbb9e	-0.54583156
62	0xbfb562af	-1.4170741
63	0xbf3321ba	-0.6997334
64	0xbfa86069	-1.3154422
65	0xbfa5ec3e	-1.296272
66	0xbf8b9d61	-1.0907403
67	0xbfd9b699	-1.7008849
68	0xbf335a74	-0.70059896
69	0xbe31938c	-0.17341441
70	0xbfe1d571	-1.7643262
71	0xbf7c1597	-0.98470443
72	0xbf4d4408	-0.8018193
73	0xc02163f1	-2.521725
74	0xbf94e371	-1.163191
75	0x3ecb033e	0.3965091
76	0xbe185638	-0.1487664
77	0xbfdeb192	-1.739794
78	0xbf38cc68	-0.721869
79	0xbfd09c9c	-1.6297793
80	0xc029957d	-2.649749
81	0xbf4bb6a2	-0.7957555
82	0xbf861367	-1.0474671
83	0xbf5ac834	-0.85461736
84	0xbfbb7447	-1.464486
85	0xbf411830	-0.7542753
86	0xc00cd087	-2.2002275
87	0xbf4832cd	-0.78202516
88	0xbf1f391a	-0.62196505
89	0xbe2f769c	-0.1713509
90	0xbf094fd8	-0.53637457
91	0xbf95c488	-1.1700602
92	0x3e2a38d9	0.16623248
93	0xc0115800	-2.270996
94	0xc00a7c64	-2.1638422
95	0xbfca6934	-1.5813355
96	0xbf208267	-0.6269898
97	0xbf9127a5	-1.1340224
98	0xc00547ee	-2.0825152
99	0xbf9027ce	-1.1262147
100	0xbfedacf3	-1.8568405
101	0xbf9945e7	-1.1974458
102	0xc009a2b7	-2.1505563
103	0xbf83fabf	-1.0310897
104	0xbef36c7d	-0.47543707
105	0xbf21aa35	-0.6315034
106	0xbfabe14b	-1.3428129
107	0xbd6ab0ea	-0.057297625
108	0x3f051b22	0.51994526
109	0x3f3461d4	0.70461774
110	0xbf542f7e	-0.8288497
111	0xbfd59b00	-1.6687927
112	0xbfff43a7	-1.9942521
113	0xbf5af8ad	-0.855357
114	0x3ee797ea	0.4523309
115	0xc0079e79	-2.1190474
116	0xbfc4f85c	-1.5388293
117	0xbfca53b3	-1.5806793
118	0xbe5e3fcc	-0.21704024
119	0xc00ba351	-2.181843
120	0x3e3480e5	0.17627294
121	0xbf691aef	-0.9105672
122	0xbf465ecc	-0.774884
123	0xbf0df97a	-0.55458796
124	0xbf3b2ce5	-0.7311538
125	0x3e126d36	0.14299473
126	0xbea82b05	-0.3284532
127	0xbf21f328	-0.6326165

network.2.weight f4 [128, 128]
0	0x3fdfbe11	1.7479879
1	0x3eb6c053	0.35693607
2	0x3f43f66a	0.76547873
3	0xbfce58de	-1.612087
4	0xbd55e7a0	-0.052222848
5	0xc0434cad	-3.051555
6	0x3fa4797a	1.2849572
7	0x3f497b10	0.78703403
8	0x3e457cbb	0.19285862
9	0xc091db89	-4.5580487
10	0x3d45f00f	0.04832464
11	0x3f7aabfb	0.9791867
12	0x3ee8bdf4	0.45457423
13	0x3fca55da	1.580745
14	0x3eafc481	0.34329608
15	0x3f686036	0.90771806
16	0xbf42d6b3	-0.76108855
17	0x3f27ac64	0.6549742
18	0xbeb9cf0f	-0.36290786
19	0x3ee301c9	0.443373
20	0x3dc028ef	0.093828075
21	0x3f8b903c	1.0903392
22	0x3d872c57	0.06600254
23	0x3eb6435b	0.35598263
24	0xbe4be651	-0.19912077
25	0xbd9e0db0	-0.077174544
26	0xbf3dc922	-0.7413503
27	0x3f990c63	1.1956905
28	0xbf405d90	-0.75142765
29	0x3de5ab33	0.11214294
30	0xbee14032	-0.4399429
31	0xc02b6e4e	-2.6786075
32	0xc04b0ce5	-3.172662
33	0xbe54b3ac	-0.20771664
34	0x3f3df603	0.7420351
35	0xbebb6d4a	-0.36606818
36	0x3bee0a91	0.007264443
37	0x3f80b989	1.0056621
38	0x3e963bcb	0.29342493
39	0xbf061d62	-0.52388585
40	0xbf046ed3	-0.51731604
41	0xbe73fe19	-0.238274
42	0xbe481aed	-0.19541521
43	0xbfff98f4	-1.9968553
44	0x3eba8ef8	0.36437201
45	0xbff3f1e3	-1.9058193
46	0xc0046517	-2.06867
47	0xbfbcc5a2	-1.4747813
48	0xbf8196ca	-1.0124142
49	0xc067fd46	-3.6248336
50	0xbf250bf2	-0.6447135
51	0xbdc410fc	-0.09573552
52	0xbfc96af6	-1.5735767
53	0x401cdfa8	2.451151
54	0xbe8250c8	-0.25452256
55	0xbf26eb2a	-0.6520258
56	0xbb3f0bf3	-0.002915141
57	0x3fadff85	1.3593603
58	0xbeb7c62c	-0.3589338
59	0xbb3309e1	-0.002731912
60	0x3f9c03ec	1.2188697
61	0xbe0de2fb	-0.13856117
62	0xbf937746	-1.1520774
63	0x3ebecd6f	0.37266108
64	0x3ed02124	0.40650284
65	0x3e0910e3	0.13385348
66	0x3fa58570	1.2931347
67	0x3e42a9c9	0.1901008
68	0x3d845b31	0.06462706
69	0x3f2f1cc7	0.68403286
70	0x404c682b	3.193858
71	0x3ef03d5b	0.4692181
72	0xbe629d82	-0.22130397
73	0xbf1ab598	-0.6043334
74	0xbfecc058	-1.8496199
75	0xbdaecef4	-0.08535567
76	0x3f3356de	0.70054424
77	0xc02a073c	-2.6566916
78	0x3eec4d25	0.46152607
79	0xbfe7f787	-1.8122414
80	0x3dbdbf47	0.09264999
81	0xbf14f8d4	-0.5819218
82	0x3fd23ed9	1.642543
83	0xbf901b30	-1.1258297
84	0x3e31cdf4	0.17363721
85	0x3e2ad442	0.16682532
86	0x3ed82844	0.4221822
87	0x3f8963cc	1.073358
88	0x3fb12885	1.384049
89	0xbf5c5798	-0.8607116
90	0x3f7b66fe	0.9820403
91	0xbe214156	-0.1574758
92	0x3d9dfbb4	0.07714024
93	0x3e6f31f9	0.23358907
94	0xbfa01b88	-1.2508402
95	0xbedf67b4	-0.43633807
96	0xbf7f5a4f	-0.99747175
97	0xbf3137ba	-0.69225657
98	0x3f3fda9d	0.7494295
99	0xc0d1d0c9	-6.5567365
100	0xbf411bf4	-0.7543328
101	0x3d5d20f1	0.053986493
102	0xbf336b58	-0.7008567
103	0xbe02f20c	-0.12787646
104	0xbed6961d	-0.41911402
105	0xbe300eea	-0.1719319
106	0xbc91cafc	-0.017796986
107	0xbf257a1b	-0.64639443
108	0x3d26267a	0.040564038
109	0x3ec7d8e7	0.3903267
110	0xbf9580c3	-1.167992
111	0xbfce3077	-1.610854
112	0xbed4c0f9	-0.41553476
113	0xc0867de4	-4.2028675
114	0x3e907b65	0.28219143
115	0xbfe7d79f	-1.8112677
116	0xbe8bbe83	-0.27293786
117	0xbe8f3404	-0.27969372
118	0xbda82039	-0.08209271
119	0x3f362698	0.7115264
120	0xbf720247	-0.94534725
121	0x3f23341d	0.63751394
122	0xbf084637	-0.5323214
123	0x3f670709	0.9024511
124	0xbf88e871	-1.0695935
125	0xbe1ec72e	-0.15505669
126	0xbec00ae1	-0.375083
127	0xbd860bf2	-0.06545247
128	0x3ec8d5ad	0.39225522
129	0x3fbedccb	1.4911131
130	0x3f81b80c	1.0134292
131	0x3f1085ff	0.5645446
132	0x3f30792d	0.689349
133	0x3f843121	1.0327493
134	0x3f8c3378	1.0953207
135	0x3f5cc914	0.8624432
136	0x3f3cc3ca	0.7373625
137	0x3f8d41a6	1.1035659
138	0x3fb88258	1.4414778
139	0x3e909091	0.28235295
140	0x3f5dce16	0.8664259
141	0x3f0ba9fa	0.5455624
142	0x3fdfcbe4	1.7484097
143	0xbf140150	-0.578145
144	0x3f078fac	0.529536
145	0x3d7be9cc	0.061502263
146	0x400a00b1	2.1562922
147	0x3f98c5cf	1.1935366
148	0x3fb3cbfa	1.4046624
149	0x3fb0556d	1.377607
150	0x401605c6	2.3441024
151	0x3fb78c1e	1.4339635
152	0x3d78c76a	0.06073705
153	0x3f748344	0.95512795
154	0x3fee8c00	1.8636475
155	0x3f9e17a7	1.2350968
156	0x3f564f1f	0.8371448
157	0xbf7625ef	-0.9615163
158	0xbe82591e	-0.25458616
159	0x3f6b3f86	0.91893804
160	0x3f9af01b	1.2104524
161	0x3f1fb9ec	0.6239307
162	0x401b19e5	2.4234555
163	0xbe53c6d0	-0.2068131
164	0x3feac29d	1.8340641
165	0x3fb8cf60	1.4438286
166	0x3e0d6980	0.13809776
167	0xbf6b7528	-0.9197564
168	0x3e51110d	0.2041666
169	0xbf1217bd	-0.5706747
170	0x3f2a23ba	0.66460764
171	0x3fef8535	1.8712527
172	0x3f22d450	0.63605213
173	0x40078677	2.117582
174	0x3f0c3e52	0.54782593
175	0xbf8d8c50	-1.1058445
176	0x4003e80f	2.0610387
177	0x3fae9ec9	1.3642207
178	0x3fb97ae7	1.4490632
179	0xbe7b0ec6	-0.24517354
180	0x3fc70e0c	1.5551162
181	0xbe4f747a	-0.20259276
182	0xbf809a55	-1.0047098
183	0x3fcc4f6b	1.5961736
184	0x40205b8d	2.5055878
185	0x3faba243	1.3408893
186	0x3f1e4065	0.6181701
187	0x3fcd97f5	1.6061999
188	0x3ffa140b	1.9537367
189	0x3eb386e3	0.35063848
190	0x3f8ae6e6	1.0851715
191	0x3de7a52c	0.11310801
192	0x3f6030d3	0.875745
193	0x40240c40	2.5632477
194	0xbe95a927	-0.29230615
195	0x3fab63e0	1.3389854
196	0xbf9331a7	-1.1499528
197	0xbe1d17f4	-0.15341169
198	0x3f3c9cd2	0.7367679
199	0xbfa629c4	-1.2981496
200	0x3fc92ac1	1.5716172
201	0x3fda5995	1.7058588
202	0x3fdd326f	1.7281016
203	0xbf14a059	-0.5805717
204	0x3f311b76	0.6918253
205	0x3fc353ee	1.5259988
206	0x3f5f1bb3	0.8715164
207	0xbf152383	-0.5825731
208	0x3fc9e38e	1.5772569
209	0x402f96b1	2.7435725
210	0xbf863467	-1.0484742
211	0x3f750460	0.957098
212	0xbe5461dd	-0.20740457
213	0x3f977c01	1.1834718
214	0x40104bf7	2.2546365
215	0xc005e8e7	-2.0923402
216	0x3fcab330	1.5835934
217	0xbf716d0f	-0.94307035
218	0x3fe1f5b1	1.7653104
219	0x3e2f9a98	0.17148817
220	0xb81c6cd7	-3.7294663e-05
221	0x3f7762cf	0.96635145
222	0x3f0ab29e	0.541788
223	0x3e0f7da7	0.14012776
224	0x3de186b6	0.11012022
225	0xbe15eb2c	-0.14640492
226	0x3f5e10d4	0.8674443
227	0x3fb35772	1.4011061
228	0x40323144	2.784257
229	0x3fdf4d10	1.7445393
230	0xbdeb5675	-0.114911
231	0x3dedff75	0.1162099
232	0x3f30d89c	0.6908052
233	0xbb852890	-0.0040636733
234	0x3ea77c13	0.3271185
235	0xbdb47bbf	-0.08812665
236	0xbe4b98c5	-0.19882496
237	0xbed32f5a	-0.41247064
238	0x3f667f0f	0.90037626
239	0x3eac2c7b	0.33627686
240	0x3fda38fe	1.7048643
241	0xbc19ea8a	-0.009394297
242	0x3e9290c0	0.2862606
243	0x3d3c15f5	0.045919377
244	0x3eddc048	0.4331076
245	0x3fa6a973	1.3020462
246	0x3e0340b5	0.12817653
247	0x3fb1747c	1.3863673
248	0xbf0159e7	-0.50527805
249	0x3d1d1e5c	0.03835903
250	0x3f99e60f	1.2023333
251	0xbf4f15c3	-0.8089258
252	0x3f884a70	1.0647717
253	0xbe2ad25f	-0.16681813
254	0xbecdf834	-0.40228426
255	0xbc5ab4b6	-0.013348749

network.2.bias f4 [128]
0	0xbf53883f	-0.8262977
1	0xc0284d3c	-2.629714
2	0xbf368a28	-0.7130456
3	0xbe330ee1	-0.17486145
4	0xbf0fd429	-0.56183106
5	0xbfa85c46	-1.315316
6	0xbf485aa8	-0.7826333
7	0xc0113f71	-2.2694972
8	0xbf2364a6	-0.6382545
9	0xbf63b9bd	-0.8895529
10	0x41299a16	10.600119
11	0xbf377ff1	-0.716796
12	0xbe24d43b	-0.16096584
13	0xbf0d78cd	-0.5526245
14	0xbfed4196	-1.853564
15	0xbe84771a	-0.25872117
16	0xc025d829	-2.5913184
17	0xbde60b7e	-0.11232661
18	0x3c0231c3	0.007946434
19	0xbfda2d69	-1.7045108
20	0xbe33d9d5	-0.17563565
21	0xbfb120a3	-1.3838085
22	0xbff60c51	-1.9222509
23	0xbef6d144	-0.48206532
24	0xbe9c491f	-0.30524537
25	0xbf692c38	-0.910831
26	0xbf7afbd3	-0.98040503
27	0xbe99e7f9	-0.30059794
28	0xbf87b9b0	-1.0603542
29	0xbd7efbb2	-0.062251754
30	0xbf96a3c5	-1.1768728
31	0xbe17856f	-0.14796995
32	0xbf1c5033	-0.61059874
33	0xbf7a56e2	-0.9778882
34	0xbf485c55	-0.7826589
35	0xbc33f04a	-0.010982582
36	0xbf2b3884	-0.6688311
37	0xc0254c8a	-2.5827966
38	0xbf696e5d	-0.91184026
39	0xbec88ba4	-0.39169037
40	0xbf3da2a6	-0.74076307
41	0xbdb1cda8	-0.08681804
42	0xbcfe21a5	-0.031021902
43	0xbe5cf42f	-0.21577524
44	0xc0288d7f	-2.6336362
45	0xbfa91885	-1.3210608
46	0xbf4b42c2	-0.7939874
47	0xbec42d96	-0.3831603
48	0xbfe7c706	-1.8107612
49	0xc0302e82	-2.7528386
50	0xbe23c35f	-0.15992497
51	0xbeeb3e76	-0.4594609
52	0x3fc20238	1.5156927
53	0xbe14b96e	-0.14523861
54	0xbfa9b631	-1.3258725
55	0xbe280508	-0.1640817
56	0xbf722a29	-0.9459558
57	0xbe11ef58	-0.14251459
58	0xbf90c18e	-1.1309068
59	0xbf523611	-0.8211375
60	0xbf9c96ae	-1.2233484
61	0xbf97e49f	-1.1866645
62	0xbfa03b15	-1.251803
63	0xbfa456b9	-1.2838966
64	0xbf99e430	-1.2022762
65	0xbf082fcb	-0.53197926
66	0xbf43e427	-0.7652001
67	0x3f1e801a	0.6191422
68	0xc00637f7	-2.0971658
69	0xbe06412b	-0.13110797
70	0x3e3b219d	0.18274541
71	0xbef47fd0	-0.47753763
72	0xbfc20ffb	-1.5161127
73	0xbf1342ce	-0.5752381
74	0xc0070451	-2.1096385
75	0xbedf6da1	-0.43638328
76	0xbe18f268	-0.1493622
77	0xbf508f91	-0.81469065
78	0xbf198346	-0.5996593
79	0xbde2bb10	-0.110708356
80	0xbf523d2d	-0.82124597
81	0x3e84a3a5	0.259061
82	0xbfaefc13	-1.3670677
83	0xc013992a	-2.3062234
84	0xbf6484c8	-0.8926511
85	0xc025174f	-2.5795476
86	0xbf0fadb8	-0.5612445
87	0xbff14107	-1.884797
88	0xbf9f4585	-1.2443091
89	0xc022902f	-2.5400503
90	0xbf57860b	-0.8418891
91	0xbfcc2eca	-1.5951779
92	0x3daa35a1	0.0831101
93	0xbe8415fe	-0.2579803
94	0xbfb08cb6	-1.3792942
95	0x3f118c56	0.5685476
96	0xbf15c334	-0.5850098
97	0xbfb30362	-1.3985407
98	0xbd5567d3	-0.052100968
99	0xbf790dde	-0.97286785
100	0xbfb69762	-1.4264948
101	0xbf1115f3	-0.56674117
102	0xbff7cfe5	-1.9360319
103	0xbea91c91	-0.33029607
104	0xbeb442df	-0.3520727
105	0xbfea067e	-1.8283231
106	0xbce33608	-0.027735725
107	0xbf52a8fe	-0.8228911
108	0xbf214ffb	-0.63012666
109	0xbdd4297d	-0.10359476
110	0xbfd58528	-1.6681261
111	0xbeafd682	-0.34343344
112	0xbf87835e	-1.0586965
113	0xbfd17429	-1.6363574
114	0xbfb87c1c	-1.4412875
115	0xbdabb3d6	-0.0838391
116	0xbd0f4a9d	-0.034983266
117	0xc0174d2c	-2.3640852
118	0xbfb503db	-1.4141802
119	0xbf7f6516	-0.9976362
120	0xbf2bd00f	-0.6711435
121	0xbfe0e48c	-1.7569747
122	0xbe7ac531	-0.24489285
123	0xbfa88d8b	-1.3168195
124	0xbe05b722	-0.13058141
125	0x3e9e58fb	0.30927262
126	0xbdcaefbf	-0.09909009
127	0xbd8e746d	-0.069558

network.4.weight f4 [816, 128]
0	0x3f6a82bc	0.91605735
1	0x3e443a8a	0.19162956
2	0xbf70443a	-0.93854105
3	0xbad3697a	-0.0016129457
4	0x40107f64	2.2577753
5	0x3fd8bcca	1.6932614
6	0x3f32b5bb	0.6980855
7	0xbe50a529	-0.20375504
8	0xbe9c3178	-0.30506492
9	0x3f47483b	0.7784459
10	0x3f3311d3	0.6994907
11	0x3f243d2c	0.6415584
12	0xbd8d4184	-0.06897262
13	0xbdba754e	-0.09104405
14	0xbdf18b01	-0.11794091
15	0x3fa15b22	1.2605937
16	0xbeb062ab	-0.34450278
17	0x3c637bc2	0.013884487
18	0x3d46a261	0.0484947
19	0xbef1e910	-0.47248125
20	0x3e000817	0.12503086
21	0x3fa59978	1.293746
22	0x3f7e7dd4	0.9941075
23	0x3f279889	0.65467125
24	0x3ffe73af	1.9879054
25	0x3df46f4a	0.11935289
26	0x3ded68c7	0.1159225
27	0x3e9607cf	0.29302832
28	0x3e20ab0b	0.15690248
29	0x3d767f14	0.060179785
30	0xbf0a499b	-0.54018563
31	0x3cacf598	0.021113202
32	0x3fc7be68	1.5604982
33	0xbf81f435	-1.0152651
34	0x401fe5b6	2.4983954
35	0x403eb851	2.9799998
36	0x3f0e1f4f	0.55516523
37	0xbde45a4b	-0.111500345
38	0xbe71c224	-0.23609215
39	0xbed09c41	-0.40744212
40	0xbf02cc01	-0.51092535
41	0xbd8f3d7c	-0.06994149
42	0xbd8a564a	-0.067547396
43	0x3f9a6bf9	1.2064201
44	0xbf0c0860	-0.5470028
45	0x3f22e3c8	0.63628817
46	0xbf0b8774	-0.5450356
47	0x3fc0f43c	1.5074534
48	0x3fb5c6a6	1.4201248
49	0xbf9639d9	-1.1736404
50	0xbd0c84ef	-0.034306463
51	0x3e2e1c3a	0.17002955
52	0xbfd2a759	-1.645732
53	0xbd3c2b04	-0.04593946
54	0xbf4d0900	-0.8009186
55	0x4011955b	2.274741
56	0xbec794bf	-0.38980672
57	0x3cbae16d	0.02281257
58	0xbeedb493	-0.4642683
59	0x4008cc47	2.137468
60	0x3fe20c32	1.7659972
61	0x400289fd	2.0396721
62	0x3fb177ef	1.3864726
63	0x3fb4ab9f	1.4114875
64	0xbe8d80f3	-0.27637443
65	0x40033c3b	2.0505512
66	0x3f8dd58b	1.1080793
67	0x3e33befd	0.17553325
68	0xbfc2f083	-1.5229648
69	0xbd5c6b84	-0.053813472
70	0x3f920ac8	1.140954
71	0x3de05b43	0.10954907
72	0xbf147dcf	-0.5800447
73	0x3f213369	0.6296907
74	0x3febd8bc	1.8425517
75	0xbf620e9f	-0.8830356
76	0x3db80d4b	0.089869104
77	0x4017feb4	2.3749208
78	0x3ff8e8fc	1.9446101
79	0xbf495a84	-0.7865374
80	0xbe882322	-0.26589304
81	0x4015dd5d	2.341636
82	0xbd926c7b	-0.07149597
83	0x3e6f5869	0.2337357
84	0x3ef3b9b8	0.4760263
85	0x3eccd2df	0.40004632
86	0xbd14867c	-0.036261067
87	0x40142e20	2.3153152
88	0xbf19533c	-0.5989263
89	0xbfbc2b30	-1.470068
90	0x3f0ac00d	0.54199296
91	0xbf02d175	-0.51100856
92	0x3e604a2c	0.21903294
93	0x3f495771	0.7864905
94	0x4001a5c5	2.0257428
95	0x3f5c8604	0.8614199
96	0x3ec8c8cb	0.39215693
97	0x3fa840e9	1.3144809
98	0x3ffe56f4	1.9870286
99	0xbfada1a5	-1.3564955
100	0xbdee4245	-0.11633734
101	0x3f9fff27	1.2499741
102	0xbcc2b261	-0.023766698
103	0x3fbf7aa9	1.4959308
104	0x3fdb4eaf	1.7133387
105	0xbf9563aa	-1.167104
106	0x3cf90142	0.030396108
107	0x3ef5cb85	0.48006836
108	0x3f7f371f	0.99693483
109	0x3cbcdeb4	0.023055412
110	0xbf82971c	-1.0202365
111	0xbed69356	-0.41909283
112	0xbf6c786e	-0.9237126
113	0xbee82c96	-0.45346516
114	0x4001e4ff	2.0296018
115	0x3d8e61f0	0.06952274
116	0x3fbf2c22	1.4935343
117	0x3ffac167	1.9590272
118	0xbf22704d	-0.6345261
119	0x3bcdd74a	0.006281768
120	0xc030eb99	-2.7643797
121	0xbe1e43fe	-0.15455624
122	0x3dffa519	0.12482662
123	0x3eac91ba	0.3370493
124	0xbdedd18f	-0.11612236
125	0x3fd2f171	1.6479932
126	0xc000457f	-2.0042417
127	0x3d7ec6d4	0.062201336
128	0x3f26166c	0.64877963
129	0x3f778f76	0.9670328
130	0xbe224cb2	-0.1584957
131	0x3dd19d11	0.10235036
132	0x404323ce	3.0490603
133	0x3feb0195	1.8359858
134	0x3f8d08b3	1.101828
135	0xbef96d45	-0.4871618
136	0x3f76111c	0.96119857
137	0x3f82c454	1.0216165
138	0x3f8bd11e	1.0923193
139	0x40315b98	2.7712154
140	0x3dc9d6ac	0.098553985
141	0x3e8252db	0.2545384
142	0x40210f1c	2.5165472
143	0x3ff09fd9	1.8798782
144	0xbe2a6e27	-0.16643582
145	0xbdc744b9	-0.09729905
146	0x3d8699f9	0.06572337
147	0xbff6ebda	-1.9290726
148	0x3d2fe54b	0.04294328
149	0x4005a002	2.087891
150	0x3fcf0fef	1.6176738
151	0xbe94a153	-0.2902933
152	0x4018775d	2.3822854
153	0x3fc4c3f8	1.5372305
154	0xbf874439	-1.0567695
155	0xbf8e5383	-1.1119236
156	0xbfd7d10b	-1.686067
157	0xbd347e97	-0.044066038
158	0x3f0042d8	0.50101995
159	0x3c116ef3	0.00887655
160	0x3e46c4ae	0.19410965
161	0xbdb7c3cb	-0.089728914
162	0x40786c62	3.8816152
163	0x4009706a	2.1474862
164	0xbd8c9d4d	-0.0686594
165	0x3fa750d7	1.3071545
166	0x3f689e21	0.90866286
167	0x4004403d	2.0664208
168	0xbe15b276	-0.14618859
169	0xbd845a7f	-0.06462573
170	0x3d972b95	0.073813595
171	0x3f92d561	1.1471368
172	0xbd17f000	-0.037094116
173	0xbf345295	-0.7043851
174	0xc00b841e	-2.1799388
175	0x3e36668e	0.17812559
176	0x4009da47	2.1539476
177	0x3f45afdb	0.7722146
178	0x3db38b82	0.087668434
179	0x401e8c22	2.477303
180	0x3f68434f	0.90727705
181	0x3d0c7418	0.034290403
182	0xbfa57897	-1.2927426
183	0x3fb6974a	1.426492
184	0x40025914	2.036687
185	0xbcd9d1c8	-0.02658929
186	0x3f95da61	1.1707269
187	0x40377ef1	2.867123
188	0x4016b1fa	2.3546128
189	0x3ded603c	0.11590621
190	0x3fdeb3af	1.7398585
191	0x3fae9a79	1.3640891
192	0xc0027065	-2.03811
193	0x3fd98f8b	1.6996931
194	0x3e999ce7	0.3000252
195	0x3e9dc9b8	0.30817962
196	0xbfaddcd6	-1.3583019
197	0xbca390e3	-0.019966548
198	0x3f2834de	0.6570567
199	0xbfbc0c59	-1.4691268
200	0xbfc27155	-1.5190836
201	0x4025e2f0	2.5919762
202	0xbf9bbd5e	-1.2167165
203	0xbe612e9c	-0.21990436
204	0xbc7fa140	-0.01560241
205	0x4005ed36	2.0926032
206	0x4041d15d	3.0284035
207	0xbf94d090	-1.1626148
208	0x40078749	2.1176322
209	0x400eeeca	2.2333245
210	0x3fb29e53	1.3954567
211	0x3fa24d7e	1.2679899
212	0xbfb50981	-1.4143525
213	0xc00a9703	-2.165467
214	0x3eb476e6	0.35246962
215	0x4007fd18	2.1248226
216	0xbde24f1b	-0.110502444
217	0x3ea2050b	0.31644472
218	0xbf993528	-1.1969347
219	0xbf32f0c7	-0.6989865
220	0x3dea4568	0.114390194
221	0x3f0dbcfc	0.5536649
222	0x4047eef8	3.1239605
223	0x3f2bfe29	0.6718469
224	0x3f87778c	1.0583358
225	0x3fdfa100	1.7471008
226	0x3fdd86fb	1.7306818
227	0xbfd4f3e0	-1.6636925
228	0x3fce1213	1.6099266
229	0x3fff1074	1.9926896
230	0xbfc6f6b9	-1.5544044
231	0x4032247a	2.7834764
232	0x4011738a	2.272677
233	0x3f862f1f	1.048313
234	0x3d870a85	0.06593803
235	0xbf489a5f	-0.7836055
236	0x3fb57c8c	1.4178634
237	0xbc910762	-0.017703716
238	0x4017b5d5	2.3704731
239	0xbf07e187	-0.530785
240	0xbf26a3f6	-0.65093935
241	0xbf863323	-1.0484356
242	0xbdedef11	-0.11617864
243	0xbca2178a	-0.019786615
244	0x4011cfce	2.2783084
245	0x405b9a9d	3.4313118
246	0xbfb992a5	-1.4497877
247	0x3e74b944	0.23898798
248	0xbe7d0b82	-0.24711421
249	0xbf3738c8	-0.71571016
250	0x3d959dd4	0.07305494
251	0xbedddc89	-0.43332317
252	0xbd0e06eb	-0.034674566
253	0x400413ba	2.063704
254	0xbfec41c7	-1.8457574
255	0x3d5ff5fa	0.05467794

network.4.bias f4 [816]
0	0x3f313a7d	0.6922987
1	0x3fa36c6b	1.2767462
2	0x3f981183	1.1880344
3	0x3fbd0c52	1.4769385
4	0x3fe9ac53	1.8255714
5	0x3ff39b69	1.9031802
6	0x4014e9a6	2.3267608
7	0x3fe33c6d	1.7752815
8	0x3fdd0158	1.7266035
9	0x3fd275ef	1.644224
10	0x4005b284	2.0890207
11	0x40120778	2.2817059
12	0x400aab29	2.1666968
13	0x3ffb217d	1.9619595
14	0x400aad45	2.1668255
15	0x4017290b	2.36188
16	0x4005b035	2.0888798
17	0x4040a46c	3.0100355
18	0x406b80d6	3.6797385
19	0x40091701	2.142029
20	0x3f8ee506	1.1163642
21	0x3f925e95	1.1435114
22	0x3fda89fd	1.7073361
23	0x3f3ea71b	0.7447373
24	0x400504fc	2.0784292
25	0x400c1697	2.1888788
26	0x40262de7	2.5965517
27	0x4013ee3a	2.3114152
28	0x401c2e2c	2.440318
29	0x40067d66	2.1014037
30	0x400921c3	2.1426857
31	0x4004128c	2.063632
32	0x3ff44190	1.9082508
33	0x3fcd35ae	1.6032007
34	0x3fa6e4fe	1.3038633
35	0x3fdd94a0	1.7310982
36	0x4044a8cd	3.0728028
37	0x3f90a171	1.1299268
38	0x3f2e2be8	0.68035746
39	0xbce67238	-0.028130636
40	0xbd6e6d35	-0.058209617
41	0xbf4a972a	-0.7913691
42	0xbf9b41c0	-1.212944
43	0xbffc5652	-1.9713843
44	0xc0428de4	-3.0399103
45	0xc03b268f	-2.9242284
46	0xc02465fd	-2.5687249
47	0xbf0e81fc	-0.5566709
48	0x3fdb3bf7	1.7127675
49	0x4058b113	3.3858078
50	0xbfa02633	-1.2511657
51	0x3f811e33	1.0087341
52	0x3fa11308	1.2583933
53	0x3f1a2edc	0.6022775
54	0x400f5245	2.2393963
55	0x4003159c	2.048194
56	0x3fd3d3ec	1.6549048
57	0x3f99d62c	1.2018485
58	0x3ffa719c	1.9565921
59	0x3fd87dbb	1.691337
60	0x40004dc6	2.004747
61	0x3fec32fe	1.8453062
62	0x3fd55627	1.6666917
63	0x3f882b63	1.063824
64	0x3fbcee1b	1.4760164
65	0x3fe3ee1e	1.7807043
66	0x3fcc82cc	1.5977416
67	0x3f875560	1.0572929
68	0x3fe12e2b	1.7592214
69	0x3fef9a49	1.8718959
70	0x400420c3	2.0644996
71	0x3fec3bc9	1.8455745
72	0x3f85ceff	1.0453795
73	0x3fc89aa0	1.5672188
74	0x3fc50b68	1.5394106
75	0x3feb7402	1.8394778
76	0x401a8ff9	2.4150374
77	0x4013ae51	2.3075144
78	0x4017679c	2.3656988
79	0x3fec1141	1.8442765
80	0x40079e53	2.1190383
81	0x40135e74	2.30264
82	0x400976f6	2.1478858
83	0x40096fae	2.1474414
84	0x3fee1721	1.8600808
85	0x3ff665f2	1.9249861
86	0x3f9ced29	1.2259876
87	0x3fb517b1	1.4147855
88	0x402430b5	2.5654728
89	0x3ff3369b	1.9001039
90	0x40247f96	2.5702872
91	0x401d7a42	2.460587
92	0x3fe29760	1.7702446
93	0x3fc3dce1	1.5301782
94	0x3fa072f0	1.2535076
95	0x3f8a4ef0	1.080534
96	0x3f265ad6	0.64982355
97	0xbeb63a87	-0.35591528
98	0xbeb28aab	-0.3487142
99	0x3fd0a13d	1.6299206
100	0x4053ad31	3.3074458
101	0xbf88578f	-1.0651721
102	0x3f26fd76	0.652305
103	0x3f7dab0c	0.9908912
104	0x4028cc4a	2.6374688
105	0x3fb09b73	1.3797439
106	0x4018e69d	2.3890755
107	0x400e3778	2.2221355
108	0x401e5fb5	2.4745915
109	0x4002fae1	2.0465624
110	0x40200527	2.5003145
111	0x401296b9	2.2904494
112	0x3f2bbafc	0.6708219
113	0x40307abf	2.7574918
114	0x3fb7cc09	1.4359142
115	0x4003593d	2.0523217
116	0x4006f1d2	2.1085095
117	0x4004b1d5	2.073354
118	0x401c45fe	2.441772
119	0x401da3ed	2.4631302
120	0x402c16e4	2.6888971
121	0x4025cd18	2.590643
122	0x4012e7e1	2.2954028
123	0x3fa75916	1.3074062
124	0x3ffb9575	1.9654986
125	0x3fc0dc54	1.5067239
126	0x40150a12	2.3287396
127	0x40115974	2.2710848
128	0x40187720	2.3822708
129	0x400632b8	2.0968456
130	0x401632c9	2.3468497
131	0x40066204	2.0997324
132	0x401be46b	2.4358165
133	0x4007c337	2.12129
134	0x3ff0ac0b	1.8802503
135	0x4025272e	2.5805163
136	0x400fe994	2.2486315
137	0x3fff06ec	1.9923987
138	0x3fdd8de7	1.730893
139	0x3ffd8f0e	1.9809282
140	0x3fe45389	1.7837993
141	0x402b590b	2.6773098
142	0x403855ff	2.8802488
143	0x3fff34cf	1.9937991
144	0x4024c5dc	2.5745764
145	0x4000381f	2.0034254
146	0x3ffa11cf	1.9536685
147	0x3fec90a7	1.8481644
148	0x3f6d545c	0.9270685
149	0x3e95bcae	0.29245514
150	0x3ff6916e	1.9263132
151	0x4063e7ca	3.5610223
152	0xbf50b9d4	-0.8153355
153	0xbdbd3daa	-0.09240277
154	0x3f84e76b	1.0383123
155	0x3f75276e	0.9576329
156	0x3fbb0474	1.4610734
157	0x400182b7	2.0236032
158	0x3f971974	1.1804643
159	0x3ff09453	1.8795265
160	0x3fb1837a	1.3868248
161	0x3fae26f5	1.3605639
162	0x3f4df41c	0.80450606
163	0x3fa3e8f3	1.2805465
164	0x3fa4416e	1.2832468
165	0x3fa62ecc	1.2983031
166	0x3fd75ca9	1.6825153
167	0x3ff36e9f	1.9018134
168	0x3f01db5f	0.5072536
169	0x3f8378f8	1.0271292
170	0x3faeaaf3	1.364592
171	0x40320639	2.7816298
172	0x4011bc99	2.277136
173	0x3fd93bd7	1.6971387
174	0x3f05ae9c	0.5221956
175	0x3dda2e25	0.106533326
176	0x3f350947	0.7071728
177	0x40056e0f	2.0848424
178	0x40042514	2.064763
179	0x401f7fe7	2.4921815
180	0x40178827	2.367685
181	0x40191ee9	2.3925116
182	0x402af641	2.6712801
183	0x4011ba43	2.2769935
184	0x400b92a2	2.1808248
185	0x3fb01650	1.3756809
186	0x3ffb89c5	1.9651419
187	0x3ff9b9b7	1.9509801
188	0x3ff25f9c	1.8935428
189	0x40105b69	2.2555792
190	0x402fea22	2.7486653
191	0x40023605	2.034547
192	0x40094480	2.144806
193	0x40073e10	2.113163
194	0x401fea8f	2.4986913
195	0x4014e44b	2.326434
196	0x4022d90f	2.5444982
197	0x40284756	2.629354
198	0x401e57ca	2.4741082
199	0x3ff1c7f0	1.8889141
200	0x3fc8f9fd	1.570129
201	0x40296fbc	2.6474447
202	0x406c4ce5	3.6921933
203	0xbfa8d4a9	-1.3189899
204	0x3eb370c0	0.3504696
205	0x3f835314	1.0259728
206	0x3f12d826	0.57361066
207	0x3fb2feb5	1.398398
208	0x3f96073a	1.1720955
209	0x3fca4426	1.5802047
210	0x3fc0b2e0	1.5054588
211	0x3f8593e4	1.0435758
212	0x3f6da8d2	0.92835724
213	0x3f8348f5	1.025664
214	0x3f6715f9	0.902679
215	0x3f0e368f	0.55552
216	0x3f875470	1.0572643
217	0x3f5f0fd2	0.87133515
218	0x3fcd48fa	1.6037896
219	0x3fcb02a6	1.5860183
220	0x3f8983ca	1.0743344
221	0x3fad7dcd	1.3554016
222	0x3f9774c1	1.1832505
223	0x3f62ed6f	0.88643545
224	0x3feda2d8	1.8565321
225	0x3fa1afd5	1.2631785
226	0x3fa12c7d	1.2591702
227	0x3faa30ef	1.3296183
228	0x3f3fa172	0.7485572
229	0x3f51a967	0.8189911
230	0x3f3de5b1	0.74178606
231	0x3f36bc4d	0.71381074
232	0x3fbd972d	1.481176
233	0x3f16efbe	0.5895957
234	0x3fa04e9f	1.2523993
235	0x3f99a309	1.2002879
236	0x3f9d879c	1.230701
237	0x3f6cdf83	0.9252855
238	0x4049ac1e	3.1511302
239	0x4014b016	2.3232474
240	0x408d7699	4.4207273
241	0x40814827	4.0400577
242	0x40273f81	2.613251
243	0x409abbe9	4.8354383
244	0x4022efd4	2.545888
245	0x4084c27f	4.148742
246	0x408e15ef	4.4401774
247	0x40591e9b	3.392493
248	0x408b8bdb	4.360822
249	0x40a9f56e	5.3112097
250	0x4097bd41	4.7418523
251	0x409ab471	4.8345265
252	0x4056c510	3.3557777
253	0x408da495	4.4263406
254	0x3f7b0719	0.98057705
255	0x3f504ff4	0.81372
