models/DistributionalDQN/model.pth (torch, 499438 bytes, 7 tensors)

supports f4 [51]
-216.77837 -212.4428 -208.10724 -203.77167 -199.4361 -195.10052 -190.76495 -186.4294
-182.09383 -177.75826 -173.4227 -169.08713 -164.75156 -160.41599 -156.08041 -151.74486
-147.40929 -143.07372 -138.73816 -134.40259 -130.06702 -125.731445 -121.39588 -117.06032
-112.72475 -108.38919 -104.05362 -99.71805 -95.382484 -91.04692 -86.71135 -82.37578
-78.040215 -73.70465 -69.36908 -65.03351 -60.697945 -56.362377 -52.02681 -47.691242
-43.355675 -39.020107 -34.68454 -30.348972 -26.013405 -21.677837 -17.34227 -13.006702
-8.671135 -4.3355675 0.0
00000000: 43c7 58c3 5b71 54c3 741b 50c3 8cc5 4bc3
00000010: a46f 47c3 bc19 43c3 d4c3 3ec3 ed6d 3ac3
00000020: 0518 36c3 1dc2 31c3 366c 2dc3 4e16 29c3
00000030: 66c0 24c3 7e6a 20c3 9614 1cc3 afbe 17c3
00000040: c768 13c3 df12 0fc3 f8bc 0ac3 1067 06c3
00000050: 2811 02c3 8076 fbc2 b1ca f2c2 e21e eac2
00000060: 1273 e1c2 44c7 d8c2 741b d0c2 a46f c7c2
00000070: d5c3 bec2 0618 b6c2 366c adc2 66c0 a4c2
00000080: 9714 9cc2 c868 93c2 f8bc 8ac2 2811 82c2
00000090: b2ca 72c2 1373 61c2 741b 50c2 d5c3 3ec2
000000a0: 366c 2dc2 9714 1cc2 f8bc 0ac2 b2ca f2c1
000000b0: 741b d0c1 366c adc1 f8bc 8ac1 741b 50c1
000000c0: f8bc 0ac1 f8bc 8ac0 0000 0000

fc1.weight f4 [128, 18]
0.21042778 0.08371705 -0.05816767 -0.054123625 -0.07845311 0.13415954 -0.06633887 0.049714692
0.168225 -0.060629964 0.029559387 -0.11025496 0.13818033 -0.14261355 0.13993843 0.14244159
0.10547854 -0.1322796 -0.37763473 0.2536468 0.25356993 0.317378 0.09344453 0.0060314527
0.1157236 -0.38282448 0.1047886 -0.011925574 -0.38144326 0.08672324 0.0004174278 0.02738368
0.10116402 -0.03345449 -0.01958572 -0.14340618 -0.71352065 0.6075614 0.48457327 -2.3561387
0.27315375 -0.0773312 -0.047774345 -0.04104368 -0.038253102 0.14081256 -0.14405756 -0.39062995
0.030311119 0.003479196 0.033526804 0.0113204485 0.07014171 0.11216997 -0.22460032 -0.07074978
0.06927992 0.4279911 0.15168084 -0.018912548 0.14281765 -0.1565981 0.012192374 -0.118690275
4.6738224 -0.042829253 -0.056032535 -0.038149245 0.16698979 -0.070937246 0.062147547 0.080967784
-0.17744133 0.066883355 0.032768436 0.072493896 0.08166417 -1.0058963 0.3384056 -0.18270488
-0.1489046 0.08592819 0.12363163 -0.11443405 0.07027771 -0.049952433 0.13346581 -0.09583028
-0.0048911762 -0.057028003 0.37131217 -0.13044956 -0.20603831 0.28470254 0.4034638 -0.08539914
0.113312356 -0.37291703 0.0070421505 0.253422 0.10593657 0.124144234 -0.05329745 0.22704223
-0.44308835 -0.27684024 -0.01569594 -0.23450392 0.26314217 0.109924875 -0.5853389 0.2844295
0.3142844 -0.41445807 0.009637427 0.3581207 -0.011410688 -0.07316872 -0.40492782 0.017653728
-0.5063708 -0.013064243 0.02326573 0.07420989 -0.4965851 0.0080710035 -0.18858814 0.086330496
0.2133374 0.13219129 0.064197905 -0.13615611 -0.03507033 -0.020512834 -0.36374465 0.23400913
0.12791917 -0.014613645 0.028456708 -0.11664556 -0.06777574 0.009717231 0.10655836 0.004473232
0.8294235 -0.8677587 0.95545894 -0.21393509 0.26093757 -0.8720178 0.7575816 0.8826285
-0.5283336 0.38791865 -0.6405222 -0.10896692 -0.15228984 0.09742905 -0.24856114 0.038520385
-0.06496893 0.10887236 0.022896176 0.038641777 -0.024388006 0.11872489 -0.31037974 0.2004786
0.039733183 -0.09338619 -0.14294674 0.17205164 0.37716606 -0.18496415 0.041478842 0.00651379
-0.0121499235 0.023961507 -0.1211803 -0.020299375 -0.41431743 0.30446613 0.035383806 0.15484862
-0.2129754 0.011410276 -0.38213572 0.07810716 -1.6079677e-05 -0.25572598 -0.11640195 0.11899421
-0.090204425 0.06802232 0.25674936 -0.031276595 -0.003690682 0.03427109 -0.73220545 0.5750109
0.2993711 0.76342815 -0.08899844 0.08684726 -0.20741113 0.18707772 0.2907622 -0.08853598
-0.10534131 -0.23857072 -0.06992888 -0.010360586 0.33067006 0.060958043 0.038009565 0.20019583
-1.3816236 -0.28916118 1.8408301 0.7246196 1.0790524 -0.3824964 -1.3368456 1.2229856
-0.86129296 -0.87303007 -0.40526757 0.2626087 0.31950438 0.19620262 0.40378264 0.15916707
-0.06399198 0.016772667 0.17238669 -0.054973472 0.39881322 -0.39546037 -0.70630693 0.82812464
0.12910298 -1.0435841 0.5472739 0.5092127 0.056685757 0.2121088 -0.10859937 -0.034992263
-0.050012484 0.039570093 0.08775189 -0.11998203 0.046570603 -0.1476349 0.16584904 -0.13482153
00000000: 617a 573e d873 ab3d 3941 6ebd bcb0 5dbd
00000010: 06ac a0bd 1e61 093e acdc 87bd a2a1 4b3d
00000020: 2d43 2c3e 2057 78bd 8726 f23c 5acd e1bd
00000030: 257f 0d3e 4909 12be 054c 0f3e 35dc 113e
00000040: 2205 d83d 4e74 07be 5759 c1be fedd 813e
00000050: ebd3 813e 5f7f a23e d95f bf3d 7ea3 c53b
00000060: 7f00 ed3d 9201 c4be 689b d63d 7c63 43bc
00000070: 884c c3be f49b b13d 36da da39 bd53 e03c
00000080: 152f cf3d 9307 09bd 3b72 a0bc 12d9 12be
00000090: 4aa9 36bf 2589 1b3f fd19 f83e faca 16c0
000000a0: cfda 8b3e d25f 9ebd 08af 43bd 6b1d 28bd
000000b0: 49af 1cbd 2b31 103e d383 13be a600 c8be
000000c0: 064f f83c 3903 643b 6753 093d 6779 393c
000000d0: 75a6 8f3d 5fb9 e53d a0fd 65be 43e5 90bd
000000e0: a1e2 8d3d a621 db3e 3952 1b3e 7dee 9abc
000000f0: ca3e 123e 415b 20be 86c2 473c e313 f3bd
00000100: f48f 9540 ba6d 2fbd 5f82 65bd 6242 1cbd
00000110: 5fff 2a3e 8c47 91bd 6d8e 7e3d 70d2 a53d
00000120: 2eb3 35be 24fa 883d 3238 063d ae77 943d
00000130: 8b3f a73d 36c1 80bf 8043 ad3e fd16 3bbe
00000140: 737a 18be 1efb af3d 9432 fd3d 665c eabd
00000150: c3ed 8f3d ec9a 4cbd 43ab 083e aa42 c4bd
00000160: 2946 a0bb 3296 69bd a11c be3e 9294 05be
00000170: b5fb 52be 88c4 913e cf92 ce3e bfe5 aebd
00000180: 4f10 e83d fbee bebe d7c1 e63b 87c0 813e
00000190: 46f5 d83d 553f fe3d 6d4e 5abd c27d 683e
000001a0: 7adc e2be 01be 8dbe c694 80bc cc21 70be
000001b0: 92ba 863e 4b20 e13d c5d8 15bf bea0 913e
000001c0: e3e9 a03e d933 d4be 4ce6 1d3c 995b b73e
000001d0: e5f3 3abc 7bd9 95bd b352 cfbe 8d9e 903c
000001e0: 84a1 01bf 680b 56bc c697 be3c 5bfb 973d
000001f0: 6740 febe 3e3c 043c 401d 41be 0bce b03d
00000200: 1f75 5a3e 275d 073e 317a 833d 826c 0bbe
00000210: e8a5 0fbd 880a a8bc bd3c babe 17a0 6f3e
00000220: 3efd 023e 126e 6fbc 0b1e e93c dee3 eebd
00000230: 02ce 8abd 0535 1f3c 453b da3d 3194 923b
00000240: 1955 543f 6f25 5ebf f598 743f cd11 5bbe
00000250: 9c99 853e 8f3c 5fbf def0 413f f1f3 613f
00000260: df40 07bf 469d c63e 43f9 23bf 0c2a dfbd
00000270: def1 1bbe e288 c73d d086 7ebe 8dc7 1d3d
00000280: 6e0e 85bd 79f8 de3d c390 bb3c d746 1e3d
00000290: 5bc9 c7bc 0926 f33d 18ea 9ebe 434a 4d3e
000002a0: 43bf 223d 4241 bfbd a160 12be 4e2e 303e
000002b0: e91b c13e 3e67 3dbe b8e5 293d a271 d53b
000002c0: 7910 47bc ec4a c43c 612d f8bd e04a a6bc
000002d0: 6a21 d4be fce2 9b3e 9cee 103d a390 1e3e
000002e0: 3916 5abe 2bf2 3a3c 4ba7 c3be a6f6 9f3d
000002f0: d8e2 86b7 84ee 82be 2564 eebd 3db3 f33d
00000300: 19bd b8bd 494f 8b3d a774 833e e31b 00bd
00000310: 5edf 71bb d85f 0c3d d171 3bbf ea33 133f
00000320: 2b47 993e 0770 433f d044 b6bd fadc b13d
00000330: 9563 54be 4d91 3f3e c8de 943e 5a52 b5bd
00000340: 2fbd d7bd e24b 74be df36 8fbd 73bf 29bc
00000350: 964d a93e 24af 793d ebaf 1b3d 2300 4d3e
00000360: 0bd9 b0bf ef0c 94be 52a0 eb3f ac80 393f
00000370: 641e 8a3f 91d6 c3be c21d abbf cb8a 9c3f
00000380: b27d 5cbf e67e 5fbf 3b7f cfbe a674 863e
00000390: 1496 a33e 57e9 483e 99bc ce3e b1fc 223e
000003a0: 3a0e 83bd d566 893c 2386 303e dd2b 61bd
000003b0: 3f31 cc3e c879 cabe 88d0 34bf faff 533f
000003c0: 9233 043e 2a94 85bf 241a 0c3f c35b 023f
000003d0: 532f 683d 0d33 593e 5969 debd 0c54 0fbd
000003e0: e4d9 4cbd 4014 223d 43b7 b33d 23b9 f5bd
000003f0: d1c0 3e3d 9a2d 17be 55d4 293e a80e 0abe

fc1.bias f4 [128]
-2.2563703 -0.24601886 -1.1262777 -0.40639088 -0.3915974 -1.2556885 -0.7973852 -1.068023
0.2704393 -0.9157277 -0.99603814 -0.5676259 2.526285 -0.15133405 -0.21055274 -2.2029555
-0.17875277 -0.6863265 -2.6941946 -3.7702913 -0.9662656 -1.427987 -1.102992 -0.44776565
-2.064861 -0.9646039 -1.6588211 -0.6099857 -0.8826326 -1.3863136 -2.881842 -0.68636453
-0.5222198 -0.7523928 -0.6601562 -0.75323427 -1.2214243 -0.357355 -1.2122685 -1.4050381
-2.5641568 0.09258081 -1.8700328 1.0656422 -0.5973094 -1.0622422 -0.52947795 -0.73160994
-0.060612716 -0.8863362 -0.875194 -1.154146 -0.52729845 -0.2478874 -1.7609254 -1.5461553
-0.50364774 -0.5528862 -0.8887362 -0.49893546 -0.27266848 0.4695231 -0.3661873 0.43068433
-1.1538963 -0.30968925 -0.4163039 -0.6181855 -0.6057771 -1.5967124 -2.0468395 -0.91694677
-2.5395887 -0.058692683 -0.8128675 -0.37170327 -2.2236538 -1.5661665 -2.2225916 -0.5818089
-1.3942578 -0.6965721 -1.3069136 -0.13370797 -0.32549116 -1.0958655 -1.1688809 -0.7534123
-1.5466933 -2.0942922 -0.6955476 -0.5364974 -0.12312512 -0.8989475 -1.3186437 -3.1207757
-1.0287498 -0.4131107 -0.5724433 -1.0831999 -0.88110536 -2.7126098 -1.3970245 -0.7626428
-1.0508261 -1.2264233 1.3803818 0.5724879 -0.29049706 -0.79553604 -1.3567718 -0.2603663
-2.115491 -0.58476 -0.44145498 -2.0477839 -0.3349566 -0.77739304 2.5512328 -0.942476
-0.95578223 -0.08306292 -1.5115422 -0.87142634 -1.7038776 -0.68380207 -1.7340428 -2.9223137
00000000: 5f68 10c0 5eec 7bbe de29 90bf 7712 d0be
00000010: 747f c8be 67ba a0bf 7021 4cbf fab4 88bf
00000020: 0577 8a3e 216d 6abf 5bfc 7ebf ee4f 11bf
00000030: a7ae 2140 50f7 1abe 239b 57be 39fd 0cc0
00000040: f70a 37be 18b3 2fbf af6d 2cc0 744c 71c0
00000050: 2f5d 77bf 47c8 b6bf d82e 8dbf 8a41 e5be
00000060: af26 04c0 48f0 76bf 4054 d4bf 0628 1cbf
00000070: 36f4 61bf b972 b1bf 1970 38c0 96b5 2fbf
00000080: 32b0 05bf d19c 40bf ffff 28bf f6d3 40bf
00000090: a257 9cbf 3cf7 b6be 9d2b 9bbf 4ad8 b3bf
000000a0: 251b 24c0 029b bd3d 3c5d efbf f766 883f
000000b0: 45e9 18bf 8df7 87bf de8b 07bf ca4a 3bbf
000000c0: 0a45 78bd eee6 62bf b70c 60bf 0ebb 93bf
000000d0: 08fd 06bf 32d6 7dbe 0166 e1bf 6be8 c5bf
000000e0: 0fef 00bf f389 0dbf 3784 63bf 7874 ffbe
000000f0: 349b 8bbe 5565 f03e e77c bbbe a882 dc3e
00000100: e0b2 93bf 978f 9ebe c925 d5be 6841 1ebf
00000110: 3514 1bbf 1261 ccbf 6bff 02c0 06bd 6abf
00000120: 9f88 22c0 bd67 70bd 1618 50bf e44f bebe
00000130: 5850 0ec0 2578 c8bf f13e 0ec0 6ef1 14bf
00000140: 0a77 b2bf 8d52 32bf f248 a7bf beea 08be
00000150: c7a6 a6be 5245 8cbf e49d 95bf a1df 40bf
00000160: 0cfa c5bf e208 06c0 680f 32bf e557 09bf
00000170: 0629 fcbd 6c21 66bf 51c9 a8bf caba 47c0
00000180: 13ae 83bf 3f83 d3be a58b 12bf 4ba6 8abf
00000190: 1f90 61bf 669b 2dc0 b3d1 b2bf 8f3c 43bf
000001a0: 7881 86bf 70fb 9cbf 5ab0 b03f 918e 123f
000001b0: 08bc 94be 40a8 4bbf b3aa adbf bb4e 85be
000001c0: 3464 07c0 d5b2 15bf 6306 e2be e40e 03c0
000001d0: 6e7f abbe 3b03 47bf 6647 2340 1b46 71bf
000001e0: 25ae 74bf e41c aabd 377a c1bf cc15 5fbf
000001f0: a918 dabf a70d 2fbf 1df5 ddbf 3007 3bc0

fc2.weight f4 [128, 128]
1.3524879 -0.29495612 -0.034692585 0.10860164 -0.1690562 0.40357614 0.19006307 0.22280914
-0.020132711 0.55329347 -0.31165752 0.0026148164 0.1854237 -0.82760465 -1.4831595 0.57933074
-0.72982115 -2.993548 -3.5552237 0.07042046 0.37886885 -2.1315222 0.022208873 0.32448542
0.41360563 0.18405394 0.6092885 -0.16020517 -2.1019893 0.47330427 -0.89611644 0.38553458
0.798742 0.22031212 0.5570269 -0.75753355 -1.2683662 -0.082550816 0.3488355 -0.15405948
0.74059 0.2552619 0.9848848 -0.058959804 0.26544657 -4.6448417 0.73749554 -0.09027159
-0.09594923 1.139007 1.1707689 -3.1037877 0.3484184 0.28710344 -5.061136 -0.1678604
0.23385878 -0.27238667 0.9600147 -0.81600916 -0.53562564 0.14346099 -1.5582467 0.41684088
1.2698998 0.7618546 -0.066167 -0.6994916 0.721845 -0.05534412 1.5268793 -2.9395108
2.2064657 -0.05819829 -0.06606915 -2.2765334 -1.5754895 -1.9668711 1.1450063 -0.5892252
-3.17519 -1.2717354 1.3908153 0.38222227 -0.21769339 0.6394474 -0.082031995 0.17671506
1.2974459 -0.14716657 -0.12541196 -0.06830115 0.46051535 -0.38658774 0.48547348 -4.1562843
-1.1171944 -0.45954344 -2.7401645 0.58240247 -0.20573092 1.8731368 1.0182867 0.03405399
2.5947254 2.0541906 -0.21140799 -0.9835281 -1.1112052 -0.45678538 -2.990426 0.5337124
-0.67134124 -1.5562856 -0.14104553 -0.4564649 -0.3101521 -0.70964956 -0.008154711 -1.5707738
0.11748594 0.32344806 -1.3054483 1.2485578 -0.17871536 -0.4381802 -0.028436955 0.46625626
1.4355203 -0.3329931 -0.3435084 0.06481025 0.032734502 -0.26521713 -1.0546492 -0.35036516
-0.060105115 -1.6555992 -0.07654455 -0.057348356 0.1732134 0.062591285 0.48915532 0.06648806
0.13243456 0.1107845 -0.87125486 0.7639523 -0.38471246 0.661845 -0.13328613 0.1261768
-0.7627128 0.14822468 -0.14939496 0.3357423 -0.43399623 1.5681303 -0.488196 0.31763205
-1.0975592 -0.27828303 -0.07234437 -0.008990082 -1.1138082 0.8255801 -0.7839395 1.1418769
0.8624882 -0.2856321 1.5892475 -0.18907645 -1.8202807 0.81750757 -0.6270499 0.12113681
0.097379215 -0.07441619 -0.06837181 1.4129831 0.9274852 -0.07802601 1.1487415 -0.10551466
0.20937344 -0.06549654 0.62801045 -0.15986997 -0.14797303 -0.10291085 -0.06641303 -0.038046874
0.6989303 -0.24142265 -0.08222939 0.49760416 -0.15291154 -0.20140655 0.96100914 0.26498142
0.9040496 0.2666911 0.24650949 -0.17415863 -2.3124921 0.8221103 0.37832758 -1.9156127
0.061558686 0.27280483 0.7680192 0.582425 0.061584793 0.07646159 0.008514734 0.11125229
0.0753872 -0.04101209 0.3987081 -0.7345908 0.3730939 -1.4721249 1.3701594 0.049014676
0.29171357 -0.06003081 -0.7116207 -0.73245555 0.38271064 -0.25851187 -0.45842388 0.1731281
0.48280415 0.38306174 -0.013537231 0.057252213 0.16171333 -0.07535809 0.6665627 0.100638434
-1.0831234 -0.78353846 0.07085356 0.17158721 -0.4602866 1.3958786 -0.10413831 -1.1748123
0.49152845 -1.5453461 -2.33406 -2.109319 -2.2574 0.20607798 0.54666924 1.0660628
00000000: 531e ad3f 7d04 97be d019 0ebd 896a de3d
00000010: 121d 2dbe 88a1 ce3e e59f 423e 1428 643e
00000020: 5bed a4bc a4a4 0d3f 9391 9fbe 575d 2b3b
00000030: b6df 3d3e e6dd 53bf 2cd8 bdbf 054f 143f
00000040: 8fd5 3abf 4a96 3fc0 c988 63c0 9a38 903d
00000050: 19fb c13e dc6a 08c0 62ef b53c f422 a63e
00000060: 1ec4 d33e a378 3c3e 55fa 1b3f d30c 24be
00000070: fe86 06c0 f054 f23e e367 65bf ca64 c53e
00000080: 5b7a 4c3f 8099 613e 5199 0e3f b8ed 41bf
00000090: d359 a2bf 6710 a9bd 919a b23e c5c1 1dbe
000000a0: 4e97 3d3f b0b1 823e 6921 7c3f d67f 71bd
000000b0: 9de8 873e 8ba2 94c0 82cc 3c3f 50e0 b8bd
000000c0: 0881 c4bd fbca 913f c1db 953f 75a4 46c0
000000d0: e663 b23e 39ff 923e d3f4 a1c0 99e3 2bbe
000000e0: ad78 6f3e 4476 8bbe 86c3 753f fae5 50bf
000000f0: c31e 09bf 70e7 123e a174 c7bf 2b6c d53e
00000100: 148c a23f e708 433f 9082 87bd e211 33bf
00000110: d5ca 383f 84b0 62bd c870 c33f f220 3cc0
00000120: bc36 0d40 5561 6ebd 434f 87bd b9b2 11c0
00000130: a4a9 c9bf 6fc2 fbbf 918f 923f 76d7 16bf
00000140: 5036 4bc0 3ac8 a2bf 3c06 b23f a3b2 c33e
00000150: 04eb 5ebe d3b2 233f 6400 a8bd cbf4 343e
00000160: b512 a63f d5b2 16be fe6b 00be 79e1 8bbd
00000170: abc8 eb3e d4ee c5be fb8f f83e 4800 85c0
00000180: 3a00 8fbf 4749 ebbe db5e 2fc0 5418 153f
00000190: 20ab 52be f2c2 ef3f 3857 823f 327c 0b3d
000001a0: fb0f 2640 dc77 0340 567b 58be 7fc8 7bbf
000001b0: f93b 8ebf c6df e9be 2463 3fc0 60a1 083f
000001c0: 05dd 2bbf 5e34 c7bf 3d6e 10be c4b5 e9be
000001d0: 42cc 9ebe 98ab 35bf 569b 05bc 1e0f c9bf
000001e0: 789c f03d fc9a a53e ee18 a7bf bed0 9f3f
000001f0: 2901 37be 2859 e0be 9ef4 e8bc 24b9 ee3e
00000200: 21bf b73f 127e aabe 55e0 afbe 3dbb 843d
00000210: 9d14 063d 8aca 87be bffe 86bf 1063 b3be
00000220: c830 76bd adea d3bf 64c3 9cbd 1ce6 6abd
00000230: db5e 313e dc2f 803d 9172 fa3e e42a 883d
00000240: ed9c 073e fce2 e23d 8f0a 5fbf 6192 433f
00000250: 08f9 c4be ad6e 293f 297c 08be 7e34 013e
00000260: 2541 43bf 36c8 173e fefa 18be 6ae6 ab3e
00000270: c134 debe 7eb8 c83f d3f4 f9be aba0 a23e
00000280: d27c 8cbf 1d7b 8ebe 4929 94bd 234b 13bc
00000290: 4491 8ebf 3859 533f 42b0 48bf 0629 923f
000002a0: 07cc 5c3f 5f3e 92be 766c cb3f 429d 41be
000002b0: f5fe e8bf 2d48 513f 5886 20bf 9316 f83d
000002c0: c16e c73d 8467 98bd 8506 8cbd a1dc b43f
000002d0: ac6f 6d3f 1acc 9fbd f609 933f 1218 d8bd
000002e0: fe65 563e 0d23 86bd 4bc5 203f f4b4 23be
000002f0: 3e86 17be ecc2 d2bd 8e03 88bd 0ad7 1bbd
00000300: 19ed 323f 8037 77be e267 a8bd f9c5 fe3e
00000310: d894 1cbe 853d 4ebe b204 763f a5ab 873e
00000320: cb6f 673f bc8b 883e fc6c 7c3e a456 32be
00000330: dfff 13c0 d275 523f 27b4 c13e cc32 f5bf
00000340: f624 7c3d 13ad 8b3e e89c 443f ce19 153f
00000350: 5640 7c3d e597 9c3d 6281 0b3c 3ed8 e33d
00000360: 9b64 9a3d 4bfc 27bd 7823 cc3e 250e 3cbf
00000370: 2a06 bf3e 976e bcbf 6261 af3f 9dc3 483d
00000380: 7b5b 953e dee2 75bd c62c 36bf 3582 3bbf
00000390: a6f2 c33e ab5b 84be 89b6 eabe 7e48 313e
000003a0: 1b32 f73e ab20 c43e 43cb 5dbc 4c81 6a3d
000003b0: 2e98 253e 5855 9abd daa3 2a3f 861b ce3d
000003c0: caa3 8abf fa95 48bf ac1b 913d 8fb4 2f3e
000003d0: afaa ebbe 26ac b23f 7746 d5bd 4060 96bf
000003e0: 9ea9 fb3e e7cd c5bf 3d61 15c0 15ff 06c0
000003f0: 3e79 10c0 1b06 533e 84f2 0b3f bf74 883f

fc2.bias f4 [128]
-2.0014827 -1.4802058 -2.9454508 -3.77242 -1.3677706 -2.1619713 -1.6422019 -4.5164614
-1.0361814 -1.7436593 -2.3896692 -3.316996 -0.7207701 -1.0319809 -0.19534598 -1.4814923
-1.0551711 -0.1983219 -3.235347 -0.88530535 -0.48549703 -0.28014633 -2.9360132 0.4633237
-1.4436917 0.3859739 -0.84390444 -0.1372113 -2.4772193 -3.5440803 -1.1438872 -2.0280762
0.21689871 -0.13006224 14.442066 -3.1801624 -0.8348555 -2.5028222 -1.5398145 -0.35691923
-2.9020958 -0.88898015 -0.2349562 -1.0900023 -2.484253 -0.011281924 -1.599369 0.24117854
-2.5624704 -3.3947313 -1.5872117 -0.33132607 -0.82598263 -0.9319094 -0.6127326 -0.14978044
9.15243 -0.81654716 -1.844777 -1.0902708 0.08926182 -2.2413597 -1.4765538 -3.0177321
-2.7726965 -2.6244009 -1.6242139 -1.5943278 -0.6391333 -2.5952578 -2.9456897 -1.8099263
-1.4684538 -3.1336946 -2.8366535 -0.036007706 -2.1665604 -1.6757177 -4.6787863 -1.7988514
-0.81453073 -1.9673235 -6.3157125 -4.5391564 -1.6706573 -1.5312098 -0.9008149 -0.45430237
-0.9876805 -2.4180412 -3.9217863 -4.497121 -1.7236984 -3.6595662 -0.9667721 -1.0245767
-0.114918895 -1.2372998 -2.035211 -0.45660156 -4.123548 -1.4639493 -0.7707805 -2.4182038
-1.9807147 -2.1070898 -1.8818681 -0.8611072 -1.3429133 -0.47548345 -2.7003706 -3.9151592
-1.7044715 -3.537197 -0.75036305 -1.9873719 -1.6300493 -1.5748347 -3.823048 -2.9481518
-3.0770059 -1.8738495 -0.074308775 -3.7517629 -0.8821473 -1.2327706 -1.3705146 -1.2912575
00000000: 4b18 00c0 6277 bdbf 4482 3cc0 546f 71c0
00000010: 1b13 afbf bd5d 0ac0 ac33 d2bf da86 90c0
00000020: 98a1 84bf 3a30 dfbf 57f0 18c0 aa49 54c0
00000030: 6484 38bf f317 84bf c708 48be 8aa1 bdbf
00000040: d90f 87bf e514 4bbe ed0f 4fc0 5fa3 62bf
00000050: 1193 f8be 576f 8fbe a4e7 3bc0 c438 ed3e
00000060: e4ca b8bf 5f9e c53e 1f0a 58bf 1e81 0cbe
00000070: c38a 1ec0 36d2 62c0 e56a 92bf 00cc 01c0
00000080: b21a 5e3e 092f 05be b412 6741 c887 4bc0
00000090: 17b9 55bf 3d2e 20c0 a418 c5bf 1ebe b6be
000000a0: f0bb 39c0 3494 63bf 5c98 70be 3285 8bbf
000000b0: 00fe 1ec0 d2d7 38bc 20b8 ccbf 82f7 763e
000000c0: 84ff 23c0 4743 59c0 c129 cbbf 92a3 a9be
000000d0: 9973 53bf 9d91 6ebf 0bdc 1cbf 0b60 19be
000000e0: 5a70 1241 3c09 51bf a721 ecbf fe8d 8bbf
000000f0: e7ce b63d 7072 0fc0 b7ff bcbf 8622 41c0
00000100: dc73 31c0 2ff6 27c0 3ee6 cfbf ef12 ccbf
00000110: 3d9e 23bf b418 26c0 2e86 3cc0 aaab e7bf
00000120: 4bf6 bbbf 748e 48c0 bb8b 35c0 d17c 13bd
00000130: eda8 0ac0 eb7d d6bf 9eb8 95c0 c340 e6bf
00000140: 1685 50bf 42d1 fbbf 511a cac0 c540 91c0
00000150: 19d8 d5bf affe c3bf ce9b 66bf 529a e8be
00000160: a1d8 7cbf 30c1 1ac0 8cfe 7ac0 6ae8 8fc0
00000170: 26a2 dcbf 5536 6ac0 607e 77bf 5425 83bf
00000180: 995a ebbd d75f 9ebf e640 02c0 aec7 e9be
00000190: 1bf4 83c0 b162 bbbf df51 45bf dac3 1ac0
000001a0: 0f88 fdbf 8fda 06c0 0ee1 f0bf 8571 5cbf
000001b0: 95e4 abbf 9172 f3be dfd2 2cc0 f891 7ac0
000001c0: 1f2c dabf 7061 62c0 cb17 40bf 3462 febf
000001d0: 75a5 d0bf 2f94 c9bf d2ac 74c0 85ae 3cc0
000001e0: aaed 44c0 4dda efbf 332f 98bd e21c 70c0
000001f0: 68d4 61bf 6dcb 9dbf 066d afbf ed47 a5bf

fc3.weight f4 [816, 128]
0.2655923 2.7222898 1.7014263 -0.31651962 0.8487535 -1.6248673 2.574089 -0.3689112
2.3673103 0.5461958 -0.9734781 3.5844822 1.8440642 0.10637138 1.2083379 0.058211405
2.8363605 0.048330814 2.5157895 1.7472984 1.9786706 1.4437193 1.7184598 1.6715097
-0.18881658 0.35289133 2.4761908 1.5681463 2.021184 1.1381575 2.7453675 2.841842
3.448253 0.54379255 0.2367554 1.4143498 0.057380807 2.8046846 4.2059107 1.9538549
2.6551561 4.1826606 0.41557482 0.9770723 -0.66548765 3.8565516 1.8888109 0.6113684
0.64788085 1.7173772 -0.08747127 -0.5630343 1.0451924 -0.7735841 0.9281744 -0.047425162
0.72856116 2.43607 2.4701688 -0.40926364 1.2118846 1.5076138 3.0586922 0.8130888
1.9992996 0.22015972 -0.88324183 4.066981 2.534073 1.6272752 -1.1082172 1.5340145
1.2625214 1.5349635 0.05375643 1.244414 3.3514886 -0.787864 0.5526118 1.8121489
2.1544452 3.516213 0.13342409 -1.108278 -0.70742625 1.9922719 3.939296 0.58123356
3.2211957 -2.0678754 -3.2302382 1.8011473 0.32029778 3.372048 0.24939206 0.51835316
0.0048360955 1.3161376 2.96033 2.6136625 -0.43721247 1.5108936 2.0137742 2.3795013
3.224534 1.5641131 -0.4939544 3.7723737 3.327479 0.003973486 1.8786585 4.028442
1.4775792 -1.297145 -0.87767255 0.76358765 -0.86921614 -0.98678434 2.4895732 0.2167031
1.6881622 -1.9814445 2.1611907 0.1771545 -0.23667052 0.59971154 3.2896836 1.5628853
2.6718075 0.9158823 2.4149816 0.59953266 2.4378564 0.11486063 0.20960619 0.9787272
3.1849892 2.0868447 3.3409195 3.8821003 2.8158214 -1.4744904 -0.5639638 2.73301
1.3083699 0.040497232 1.2177182 0.5271963 1.0806186 1.425737 0.13409062 0.34665966
-0.52634525 2.5001771 1.6492635 1.9815496 3.4347923 1.3557254 0.9612917 2.2957978
1.1709886 2.6285777 1.1041133 1.8047489 1.8761063 3.2842307 2.4370658 3.538185
2.449605 2.844926 1.5030228 2.4765599 -0.5558785 1.568492 0.7258157 1.1640371
0.92030865 1.3846447 0.5368079 1.4036593 2.4185889 0.103179805 2.4267945 -0.022902178
1.1628859 0.27569038 2.5888882 0.11708379 1.6266923 0.9646953 2.1714292 1.1193248
0.28985843 1.1070974 1.6424063 3.1542578 1.3685184 2.9426308 1.9652159 1.1112283
-1.1823682 1.2416458 -0.63848925 -1.9230919 2.5127804 0.256176 1.088824 -1.5017352
1.9278057 0.7940637 1.4958102 -0.6406254 1.5229545 2.364525 3.667554 -0.036012363
1.8022563 0.23071778 1.247519 3.547232 2.9474382 1.9838501 -0.70536685 1.5918189
0.006665314 1.3845475 2.336257 2.7444568 1.7428629 1.2490935 4.7407265 2.2894897
2.1151528 1.8852379 2.205445 2.578569 2.1627626 -2.1358366 1.5662138 1.7783852
0.8019374 -2.8243418 -0.4777128 2.478281 0.94275707 1.349974 2.3929439 1.7410156
-0.9324733 -2.9746685 1.9702619 -0.7023684 0.95772433 0.7511084 3.913636 1.1336039
00000000: b7fb 873e ff39 2e40 56c8 d93f dc0e a2be
00000010: e947 593f a7fb cfbf e0bd 2440 eee1 bcbe
00000020: 0382 1740 7dd3 0b3f dc35 79bf 2868 6540
00000030: 4c0a ec3f 3dd9 d93d d1aa 9a3f 156f 6e3d
00000040: ee86 3540 88f6 453d b202 2140 79a7 df3f
00000050: 1445 fd3f cbcb b83f 7ef6 db3f 08f4 d53f
00000060: 2259 41be 2cae b43e e979 1e40 05b9 c83f
00000070: 145b 0140 25af 913f 1ab4 2f40 bde0 3540
00000080: 2db0 5c40 fd35 0b3f 0270 723e 6a09 b53f
00000090: 2308 6b3d f47f 3340 d296 8640 eb17 fa3f
000000a0: 14ee 2940 5bd8 8540 39c6 d43e 6921 7a3f
000000b0: 665d 2abf bed1 7640 8ec4 f13f a482 1c3f
000000c0: 85db 253f 04d3 db3f 2324 b3bd 0423 10bf
000000d0: ddc8 853f 9c09 46bf d69c 6d3f e340 42bd
000000e0: fc82 3a3f 92e8 1b40 3f17 1e40 018b d1be
000000f0: 091f 9b3f 7df9 c03f 9dc1 4340 9626 503f
00000100: 0de9 ff3f 8d71 613e 231c 62bf b524 8240
00000110: 412e 2240 8e4a d03f 10da 8dbf 965a c43f
00000120: 4d9a a13f af79 c43f b42f 5c3d f548 9f3f
00000130: ca7e 5640 75b1 49bf f877 0d3f 7ff4 e73f
00000140: 6ee2 0940 a209 6140 53a0 083e 0edc 8dbf
00000150: e319 35bf c402 ff3f 6d1d 7c40 b9cb 143f
00000160: 1228 4e40 1258 04c0 39bc 4ec0 ff8b e63f
00000170: 12fe a33e a2cf 5740 a260 7f3e cbb2 043f
00000180: 1c78 9e3b 3277 a83f 0c76 3d40 3f46 2740
00000190: 50da dfbe f664 c13f ade1 0040 c049 1840
000001a0: c45e 4e40 dc34 c83f 97e7 fcbe 926e 7140
000001b0: 6af5 5440 0434 823b e277 f03f ffe8 8040
000001c0: 5121 bd3f d908 a6bf 26af 60bf 7b7a 433f
000001d0: f384 5ebf e69d 7cbf 2b55 1f40 6be7 5d3e
000001e0: b315 d83f f99f fdbf f350 0a40 fd67 353e
000001f0: c259 72be b286 193f 2d8a 5240 a00c c83f
00000200: e5fe 2a40 4377 6a3f 0f8f 1a40 f97a 193f
00000210: d705 1c40 0d3c eb3d 01a3 563e de8d 7a3f
00000220: ddd6 4b40 dd8e 0540 a0d1 5540 5574 7840
00000230: 6b36 3440 1abc bcbf ee5f 10bf a3e9 2e40
00000240: aa78 a73f 6de0 253d 31de 9b3f 56f6 063f
00000250: b651 8a3f 8d7e b63f 0d4f 093e 607d b13e
00000260: 90be 06bf e702 2040 111b d33f 6ba3 fd3f
00000270: a3d3 5b40 6988 ad3f 3617 763f 5aee 1240
00000280: f4e2 953f 9e3a 2840 9653 8d3f 0302 e73f
00000290: 4024 f03f d630 5240 e3f8 1b40 9f71 6240
000002a0: 54c6 1c40 4513 3640 0d63 c03f f57f 1e40
000002b0: 0e4e 0ebf 59c4 c83f 0fcf 393f 2bff 943f
000002c0: 5999 6b3f 0a3c b13f 3e6c 093f 1cab b33f
000002d0: 29ca 1a40 ef4f d33d 9a50 1b40 599d bbbc
000002e0: 72d9 943f 4a27 8d3e 58b0 2540 a0c9 ef3d
000002f0: 7437 d03f 45f6 763f b2f8 0a40 0946 8f3f
00000300: 5368 943e 5eb5 8d3f 5f3a d23f 5cdf 4940
00000310: 9c2b af3f 1054 3c40 328c fb3f bb3c 8e3f
00000320: d757 97bf 40ee 9e3f 0874 23bf e027 f6bf
00000330: 65d1 2040 8029 833e 965e 8b3f dc38 c0bf
00000340: 56c2 f63f c247 4b3f b576 bf3f 0700 24bf
00000350: 2cf0 c23f 6154 1740 34b9 6a40 b381 13bd
00000360: 56b0 e63f 4841 6c3e b4ae 9f3f d905 6340
00000370: d4a2 3c40 cdee fd3f ec92 34bf b9c0 cb3f
00000380: b568 da3b da38 b13f 3c85 1540 2ea5 2f40
00000390: 2216 df3f 4ce2 9f3f 08b4 9740 0087 1240
000003a0: aa5e 0740 7a4f f13f 0326 0d40 4607 2540
000003b0: b46a 0a40 8cb1 08c0 b279 c83f 20a2 e33f
000003c0: c54b 4d3f 04c2 34c0 c696 f4be 289c 1e40
000003d0: 8758 713f f3cb ac3f fe25 1940 99d9 de3f
000003e0: 92b6 6ebf f860 3ec0 8b31 fc3f 6ace 33bf
000003f0: 6c2d 753f a448 403f 0379 7a40 ef19 913f

fc3.bias f4 [816]
0.5337518 1.4536449 2.707328 2.4339147 2.503991 2.0337543 1.6036594 3.635861
3.0121374 2.2640243 2.5832913 2.0294282 2.1106749 1.4190848 0.42493945 0.7658358
0.81458396 0.6632142 0.8033027 2.5227935 1.3048761 -0.5278678 -1.1151471 -1.135491
-0.9606171 0.65831006 -1.2156228 -0.23540932 0.8676635 -0.50243455 -0.32082438 2.3730578
1.1742561 -1.2664196 -2.1195586 -2.6394434 -3.1286912 -1.9610914 1.6077099 0.09521567
-1.4230703 -0.69677293 2.1420321 1.2295076 -0.9624009 -2.0009944 -1.791968 0.6138865
2.943684 4.502314 -0.07155852 3.5392442 1.217432 4.248978 3.8965318 2.8012176
2.9334013 3.6956978 1.7996621 4.1236663 3.144391 3.1696696 2.652089 3.606718
3.1851125 2.6840708 2.604089 3.0535598 3.2261944 2.181433 3.579991 1.3986248
3.5603585 1.9644306 1.5335686 2.4591777 3.702036 2.3066852 2.4132502 2.4722826
2.7375734 2.4919229 1.6085597 0.85002756 0.91111064 0.76761323 0.44170758 1.0191317
1.9654688 3.2057853 2.1416237 1.8345869 2.5852547 2.374097 3.2778666 3.1263757
2.734425 0.84414923 0.8858716 3.5444071 5.362359 0.9825225 0.8477629 5.175352
5.4704304 4.935342 4.1892347 3.2246444 2.5815687 5.3478336 5.387663 4.9755945
4.3903103 2.3551812 4.620067 4.8620276 5.2878036 4.298629 5.2615485 3.029687
2.9904783 2.7711856 1.3143524 4.786308 4.438355 4.859767 4.3540254 1.5055903
2.2909212 1.9760078 4.7131734 5.0736713 4.076294 0.8075965 1.6022699 1.4134482
2.7034507 1.2140028 2.374993 4.58021 5.259087 4.48856 5.0301332 5.394603
3.4845293 6.152952 5.559527 5.03957 2.5932786 1.2165365 3.3500876 5.2490897
0.9226239 0.9242625 1.374157 4.6223783 2.6647139 2.9169457 4.3953466 4.5920124
3.5696604 4.893015 5.08437 4.5143905 2.7132668 4.1372266 3.2028642 5.202175
5.3502383 2.41069 1.8524586 3.7371476 2.2501795 1.1025385 0.87651384 3.8785996
2.409261 0.99160373 1.3061535 0.8025384 1.169332 2.348114 0.9911857 0.67973006
2.0329597 1.3556688 1.9846712 1.5025272 3.2884526 2.006696 3.4664788 3.1616037
4.707908 3.9013407 3.968341 6.005719 5.4536223 4.910875 3.921183 2.6189995
1.9383976 4.1009274 5.69629 1.2535506 0.9836276 2.5451064 1.5417789 1.9807553
2.5302336 2.470663 2.5726464 2.5952601 2.567231 2.9047537 6.9320545 2.4876728
2.1712954 2.597782 3.0646644 2.2865798 2.0114987 2.1379452 2.1306288 1.567052
2.580671 1.9011027 2.047334 2.44215 1.1834031 2.039229 1.176284 2.3243108
2.8178816 3.1449716 2.2873375 3.6117697 4.075597 2.1607568 4.5987773 3.9275174
3.4417844 3.2783878 4.0544705 3.2354953 4.0755763 8.642305 7.487771 7.3495617
7.2265563 7.278822 8.033632 6.5775437 5.407739 5.4761086 0.714738 1.5231953
00000000: f5a3 083f 0911 ba3f dd44 2d40 42c5 1b40
00000010: 6341 2040 0829 0240 b644 cd3f f2b1 6840
00000020: dcc6 4040 c6e5 1040 a554 2540 27e2 0140
00000030: 4c15 0740 92a4 b53f aa91 d93e d10d 443f
00000040: 9388 503f 68c8 293f 3fa5 4d3f 7375 2140
00000050: 2e06 a73f 5822 07bf 24bd 8ebf c557 91bf
00000060: 01eb 75bf 0287 283f 8799 9bbf 240f 71be
00000070: 321f 5e3f 8d9f 00bf 1843 a4be 2ee0 1740
00000080: 064e 963f 0a1a a2bf d9a6 07c0 a4ec 28c0
00000090: 7a3c 48c0 0b05 fbbf 70c9 cd3f 6f00 c33d
000000a0: 2b27 b6bf b65f 32bf 0e17 0940 8160 9d3f
000000b0: e85f 76bf 4b10 00c0 355f e5bf aa27 1d3f
000000c0: 5265 3c40 f512 9040 468d 92bd fa82 6240
000000d0: d0d4 9b3f a1f7 8740 c760 7940 2647 3340
000000e0: d9bc 3b40 5086 6c40 545b e63f 13f5 8340
000000f0: b43d 4940 dedb 4a40 d4bb 2940 78d4 6640
00000100: e2d8 4b40 d1c7 2b40 65a9 2640 866d 4340
00000110: f879 4e40 999c 0b40 931e 6540 2306 b33f
00000120: eadc 6340 7672 fb3f fa4b c43f 2b63 1d40
00000130: 28ee 6c40 bba0 1340 b172 1a40 e139 1e40
00000140: 6734 2f40 aa7b 1f40 49e5 cd3f 689b 593f
00000150: 8c3e 693f 4d82 443f 7f27 e23e e872 823f
00000160: 7b94 fb3f 962b 4d40 5d10 0940 bed3 ea3f
00000170: d074 2540 35f1 1740 91c8 5140 8a16 4840
00000180: d200 2f40 2a1a 583f 7bc8 623f 91d7 6240
00000190: 7298 ab40 9886 7b3f fd06 593f 7c9c a540
000001a0: c40d af40 52ee 9d40 360e 8640 9360 4e40
000001b0: 6c38 2540 7421 ab40 bc67 ac40 1238 9f40
000001c0: 6c7d 8c40 4abb 1640 97d7 9340 bb95 9b40
000001d0: b035 a940 5e8e 8940 9b5e a840 64e6 4140
000001e0: ff63 3f40 1b5b 3140 b33c a83f 6f29 9940
000001f0: 0107 8e40 3683 9b40 2d54 8b40 2fb7 c03f
00000200: 749e 1240 d3ed fc3f 51d2 9640 845b a240
00000210: 0071 8240 a5be 4e3f 2e17 cd3f dfeb b43f
00000220: 5605 2d40 7264 9b3f e3ff 1740 1591 9240
00000230: 714a a840 49a2 8f40 daf6 a040 96a0 ac40
00000240: 8702 5f40 fce4 c440 a5e7 b140 2844 a140
00000250: 47f8 2540 78b7 9b3f d667 5640 8bf8 a740
00000260: 1431 6c3f 789c 6c3f 60e4 af3f 86ea 9340
00000270: ac8a 2a40 3daf 3a40 aea6 8c40 c4f1 9240
00000280: 5175 6440 9493 9c40 29b3 a240 e375 9040
00000290: 2aa6 2d40 2964 8440 bafb 4c40 3878 a640
000002a0: 2735 ab40 bf48 1a40 5d1d ed3f 6d2d 6f40
000002b0: f102 1040 fb1f 8d3f 3663 603f fa3a 7840
000002c0: 5531 1a40 bed9 7d3f 0a30 a73f 2873 4d3f
000002d0: acac 953f 8047 1640 59be 7d3f ca02 2e3f
000002e0: 031c 0240 8e86 ad3f b509 fe3f d052 c03f
000002f0: 0276 5240 b56d 0040 cada 5d40 b757 4a40
00000300: 2fa7 9640 91af 7940 4df9 7d40 da2e c040
00000310: 1384 ae40 e325 9d40 aaf4 7a40 b09d 2740
00000320: 6a1d f83f cc3a 8340 0248 b640 5974 a03f
00000330: 05cf 7b3f 06e3 2240 0359 c53f 6489 fd3f
00000340: 59ef 2140 581f 1e40 3da6 2440 be18 2640
00000350: 834d 2440 7ce7 3940 64d3 dd40 0836 1f40
00000360: 81f6 0a40 0f42 2640 7623 4440 5357 1240
00000370: 65bc 0040 18d4 0840 395c 0840 2995 c83f
00000380: b729 2540 5557 f33f 8507 0340 304c 1c40
00000390: c179 973f ba82 0240 7990 963f 82c1 1440
000003a0: 2c58 3440 3747 4940 bd63 1240 3c27 6740
000003b0: 4a6b 8240 d749 0a40 2f29 9340 725c 7b40
000003c0: 3246 5c40 1bd1 5140 39be 8140 5b12 4f40
000003d0: 1f6b 8240 e246 0a41 d29b ef40 9c2f eb40
000003e0: f33f e740 1cec e840 c289 0041 3d7b d240
000003f0: 330c ad40 483c af40 12f9 363f 10f8 c23f
