models/DiscreteCQL/models.pth (torch, 343514 bytes, 24 tensors)

fc1.weight f4 [128, 18]
000000 76 91 18 3e cb 92 8f be f8 9a 42 3e a3 01 68 be
       0.14899239 -0.28041682 0.19004428 -0.22656874
000010 d2 38 c9 be 3e be 4d bf 89 52 d0 3b bc 86 b5 3e
       -0.39301163 -0.8036841 0.006357495 0.35454357
000020 e9 cd 30 bf 4c 08 2d bf bc f2 eb be bc a6 d8 bc
       -0.69064194 -0.67590785 -0.4608363 -0.026446693
000030 2d f8 4d 3c e6 bd e5 bc b5 a3 dd bd c4 9c 1a bd
       0.012571377 -0.028044652 -0.1082224 -0.03774716
000040 f4 8c aa bc e3 d9 52 3b 9a 69 ff be 9e fb d5 3e
       -0.020819165 0.0032173328 -0.49885255 0.4179353
000050 40 9e 7a be 8a 2c 34 bf dc 2d 26 bf 3e 33 db 3e
       -0.2447443 -0.7038046 -0.64913726 0.42812532
000060 02 20 40 bf 22 09 0b bf 1e 4a 00 bf 70 98 d5 be
       -0.7504884 -0.5431081 -0.50113094 -0.41717863
000070 d8 2f d6 3e 22 05 de 3d 31 9b 10 bb 13 ed 58 3d
       0.41833377 0.10840823 -0.0022065158 0.052960467
000080 97 4c b0 be ef bc 9c 3d 5f 65 f0 3d a3 57 9c 3e
       -0.34433433 0.07653224 0.11738085 0.30535612
000090 b4 9a e9 be 72 98 01 3f db 88 2d 3e 57 80 e1 3e
       -0.45625842 0.5062324 0.16946737 0.44043228
0000a0 48 0b cd 3e e8 3d c8 be 54 b6 83 be a8 97 88 be
       0.4004767 -0.3910973 -0.25725043 -0.26678205
0000b0 97 d0 f1 3e b8 ae 3f bd 59 26 bf be 0d fb 3b bf
       0.47229454 -0.046797484 -0.37333944 -0.7342995
0000c0 6f e8 27 3e 69 b4 24 3e e5 80 63 bb 9b a3 65 3d
       0.1639726 0.16084446 -0.0034714278 0.05606423
0000d0 cc 10 b0 3c 62 13 2f be a7 f4 35 be ce 31 0c 3e
       0.021492384 -0.17097238 -0.17769109 0.13690874
0000e0 74 68 72 3e ad 56 44 be 00 c2 06 bf a2 c6 54 3d
       0.23672658 -0.19173689 -0.5263977 0.051947244
0000f0 3e 0a a8 be 03 ce 63 be 2f d1 03 3f f5 aa 86 3d
       -0.32820314 -0.22246556 0.51491064 0.06575576
000100 ac 69 59 3e 37 13 2a 3e 9b f1 5b bb 15 b5 cc 3c
       0.21231717 0.16608892 -0.0033560756 0.02498869
000110 b0 6f 82 3b 7a 8b 3d bd 46 42 97 bc 9f ad a3 bc
       0.0039805993 -0.046275593 -0.018464219 -0.01998025
000120 60 5e 80 3d 2a 4a cd bd 2a b6 dc bd 63 c1 98 3d
       0.062680006 -0.10023911 -0.107769325 0.074587606
000130 b2 16 3e 3f 8b 0e 9a 3e 8c bb 3c 3e 25 35 42 be
       0.7425338 0.3008922 0.18430918 -0.18965586
000140 7f ba 78 be 25 f4 8b bd f0 06 62 3f fe 79 a2 3d
       -0.24289893 -0.06833676 0.88291836 0.079334244
000150 3a 41 96 3d 79 11 e8 3e 07 84 9a bd 52 f9 42 3d
       0.0733666 0.4532583 -0.075447135 0.04760105
000160 2a ab 02 3c 53 50 57 3e b3 02 cc bc bc 37 93 3e
       0.007975379 0.21026735 -0.02490363 0.2875346
000170 d4 c7 5e bf 81 97 14 3e bb b1 98 3e 3e a1 35 3f
       -0.87023664 0.14510919 0.29823098 0.7094916
000180 da 9e e7 3e 8a cf 07 bf 3a ba dd be 5e f6 49 be
       0.45238382 -0.53051054 -0.43306142 -0.19722888
000190 6a 9d eb 3d 03 b5 7d be 44 44 a1 3e 30 6b a9 3e
       0.11504634 -0.24776082 0.31497395 0.3308959
0001a0 8d 24 84 be 5b f7 cf 3b 14 b9 86 3e 66 28 a5 3e
       -0.25809136 0.0063466257 0.26313078 0.32257384
0001b0 3d 0d 5a bd dd 4a ec 3c b9 e0 40 3e 6c 6c 8d bf
       -0.05323528 0.028844291 0.18835725 -1.1048713
0001c0 9e ca f0 be 2c 7b f7 3e 46 79 03 bf 23 66 57 3f
       -0.47029585 0.4833616 -0.51356924 0.84140223
0001d0 4e b8 31 3f e8 cf bf 3e a9 22 98 3e e6 8b 14 be
       0.6942185 0.37463307 0.29713944 -0.14506492
0001e0 e5 d6 75 bd 5c 83 46 bd fb 48 42 be d5 bb 15 bb
       -0.060019393 -0.048465118 -0.18973152 -0.0022847552
0001f0 df c8 64 3d 54 6a 10 3a 73 7f 2e 3f 27 93 a8 be
       0.055855628 0.0005509008 0.6816322 -0.32924768
000200 8b 63 81 be e8 58 92 be 3f 41 56 bf 53 35 ab 3e
       -0.25271258 -0.28583455 -0.8369331 0.3343912
000210 8b 23 ad be db 16 99 bd 2f 87 1b be c1 19 35 bc
       -0.3381618 -0.074750625 -0.15188287 -0.0110535035
000220 06 a3 dd 3d e8 00 2c 3e 16 b6 9b be 0b e6 c6 3d
       0.1082211 0.1679722 -0.30412358 0.09711846
000230 36 bd 2b be f5 5c bf be a1 ab 92 be 5c 7a 56 bd
       -0.16771397 -0.37375608 -0.28646567 -0.052362785
000240 9d 59 00 3e b5 09 31 be 8e 56 a0 3f 91 f1 ac 3e
       0.12534185 -0.17288859 1.2526414 0.3377805
000250 e2 39 86 be 44 3f 91 bf fd b4 61 3e eb 98 da 3e
       -0.26216036 -1.1347432 0.22041698 0.42694792
000260 16 61 07 3f a8 b2 26 3e 30 7f 12 3f 87 86 08 3e
       0.52882516 0.1627909 0.5722532 0.13332568
000270 81 ac 87 be a0 dc 38 3e a6 e0 b7 be 48 86 ee 3d
       -0.26498798 0.18052912 -0.3591358 0.11646706
000280 cb c2 19 3e 15 76 34 3e 15 e0 b9 be 31 fd d1 bd
       0.15015714 0.1762317 -0.36303774 -0.102533706
000290 4d c1 43 3f c1 40 9c be 8d c3 39 be ed 96 ae be
       0.7646683 -0.30518153 -0.18141003 -0.34099522
0002a0 bb 5e 07 bf 95 d4 39 3e ea 2b c4 3d ca 11 38 3f
       -0.5287892 0.181475 0.095786884 0.71902144
0002b0 e6 1c 48 3f 1a 72 bf be f0 d4 43 be f1 30 50 be
       0.78169096 -0.3739174 -0.19124198 -0.2033117
0002c0 28 09 fb 3d e7 b1 40 3e 23 9f 80 3d 6d e5 05 3f
       0.12257606 0.18817864 0.06280353 0.523032
0002d0 63 6d f2 be 5a e0 ab 3d 5c 1c 30 3e e0 a9 0d bf
       -0.4734908 0.08392401 0.17198318 -0.55337334
0002e0 ee 39 b9 3e 32 b3 ac 3c df 61 23 3e b2 2a 27 3e
       0.3617701 0.02108154 0.15955304 0.1632488
0002f0 30 5e 83 3d b6 d2 5d bf 1a 42 87 3d 13 d6 0b bf
       0.06414449 -0.86649644 0.06604405 -0.54623526
000300 b9 cc 52 3e cb 7d aa 3e b2 8c b8 3e ad 8d f6 bc
       0.20585908 0.33299097 0.36044842 -0.030096853
000310 f8 00 b4 3c 47 77 ba be 72 83 bb be 27 55 b1 3e
       0.021973118 -0.36419126 -0.36623722 0.3463528
000320 00 55 1d bd bb 7a 13 bc a1 5e 15 bf f9 e4 e5 be
       -0.03841114 -0.009001429 -0.5834752 -0.44901255
000330 89 46 a8 3e e5 4c de 3d 9d f8 96 3e 70 6c 1a 3f
       0.32866314 0.1085451 0.29486552 0.6032171
000340 6c 85 93 3d af 37 c4 3e 5a df 0d bc fa c5 04 3e
       0.072031826 0.38323733 -0.008659208 0.12966147
000350 3f d2 aa 3b d8 b3 17 bf 4d 2a c5 be af e9 7d 3e
       0.0052130516 -0.59258795 -0.38508835 0.24796174
000360 a0 1c 08 3f ec cf 11 bf dd c4 26 3f e0 75 c9 be
       0.5316868 -0.5695789 0.6514414 -0.39347744
000370 1f 10 ce bd 65 7b 01 3f df 99 0c bf 8f d9 1b 3f
       -0.100616686 0.5057891 -0.5492229 0.60878843
000380 37 90 a5 3e 55 15 0b 3d 0e cf fb be fd 95 6d be
       0.3233659 0.03395589 -0.49181408 -0.23201747
000390 2e 14 3c 3c 7d 65 e8 3e 64 25 49 3e b8 da 59 3c
       0.011479421 0.4538993 0.1964317 0.0132967755
0003a0 81 a5 48 3e a5 1e 69 3e 91 31 fe 39 3e 24 0d bf
       0.19594385 0.22765596 0.00048483585 -0.55133426
0003b0 fe 57 1a bd 47 4d 93 3e 51 e2 71 3e a1 fc 0f bf
       -0.037681572 0.28769895 0.23621489 -0.56244856
0003c0 fd 5f 32 bf 6c 3f bc 3e 76 0e 3e bf 82 6c 6d 3d
       -0.69677716 0.36767137 -0.74240816 0.05796481
0003d0 b4 90 47 3f 47 dc 26 3e 97 1c 15 3e f4 eb ce bd
       0.77955174 0.16294967 0.14561687 -0.10103598
0003e0 c3 b0 45 be c5 55 09 be 88 d6 1c be 4f 45 5d 3e
       -0.1930571 -0.13411625 -0.15316212 0.2160847
0003f0 5c 4b 58 3e f4 1a 8f bd c7 57 9d 3e 8d 9d 06 be
       0.21122497 -0.06987563 0.3073103 -0.13146038

fc1.bias f4 [128]
000000 15 55 e2 be ab f9 b1 be 38 cd 56 be e5 9c cb 3e
       -0.44205537 -0.34760794 -0.20976722 0.3976814
000010 6c 40 72 bd 17 1d 84 3e e1 d4 61 3e 12 98 c8 3c
       -0.05914347 0.25803444 0.22053863 0.024486575
000020 ed b4 dd bd 7c 6e 1c bc ff 92 55 3e 0f b2 0c 3f
       -0.108255245 -0.009547826 0.20856856 0.54959196
000030 a5 3e 37 3d e4 7f ba be d7 8b 9e 3e 0f e8 fd 3e
       0.044737477 -0.36425698 0.30966064 0.4959111
000040 16 f4 de 3e af 4c 83 be 0d 98 9a 3e 90 bd f5 3e
       0.43545598 -0.25644442 0.3019413 0.47996187
000050 f0 21 1e 3e 24 2e cb ba 34 34 01 3f 0f a1 2e bf
       0.15442634 -0.0015501422 0.5047028 -0.68214506
000060 c8 04 08 be 75 6f 52 3d b3 8e 8a 3d ee ab 8d be
       -0.13283074 0.051375825 0.06765499 -0.27670234
000070 72 1e c4 be ca c8 20 bd 95 19 63 be 9f 9f 52 3e
       -0.38304478 -0.039253987 -0.22177728 0.20568703
000080 4f 37 e8 bd 32 10 9e 3d 3b 8e 24 3f a3 c7 5a be
       -0.11338674 0.07717933 0.64279526 -0.21365218
000090 e4 c1 0c 3e 13 77 77 bd 1c 7f b3 be c4 27 c3 3e
       0.13745838 -0.060416292 -0.35057914 0.38116276
0000a0 f8 4f 14 3f 30 44 60 3e 18 bd a8 bd 5c 7b 16 3e
       0.5793452 0.21901011 -0.08239192 0.14695495
0000b0 c1 c8 db bd 24 93 c9 bd 35 42 8d be dd 24 14 3f
       -0.1073165 -0.09842518 -0.27589574 0.5786875
0000c0 32 45 84 be 61 e2 97 be ae 20 cb be 0e e5 14 3f
       -0.25834042 -0.296649 -0.3967337 0.5816201
0000d0 ab 16 2f bf dd 07 b8 be ec 6c 6b 3e 01 0e 0e be
       -0.68393964 -0.359435 0.22990769 -0.1387253
0000e0 0e 5d 38 be 52 55 84 3e d4 4b 4b 3e ab 0b 03 be
       -0.18004248 0.25846344 0.19853145 -0.1279742
0000f0 4f b3 d7 3e 28 f7 69 be f2 08 4f 3e 7a 32 18 bf
       0.4212899 -0.22848189 0.20218256 -0.5945202
000100 ea 27 53 3e 44 58 f3 3e ae 22 c7 3e 15 c3 11 3f
       0.20620695 0.4752828 0.38893646 0.56938297
000110 32 29 e6 3e f7 2e ce be a6 ec a6 3e de d8 50 3e
       0.44953305 -0.40270206 0.32602423 0.20395228
000120 ef e5 a0 be 54 fd 09 be 64 95 85 be 7c 2e 43 be
       -0.31425425 -0.13475543 -0.26090539 -0.19060701
000130 13 f1 98 3e 27 b5 b6 3e bb 96 e3 3d 25 66 57 3e
       0.29871425 0.35685083 0.11112734 0.21035059
000140 03 3a 2d 3d b7 58 a0 be 1b 1d fd be d8 f6 ae be
       0.042291652 -0.31317684 -0.49436268 -0.34172702
000150 d9 e1 42 3e a3 06 91 3e ce a3 3e be 81 54 9a bd
       0.19031467 0.28325376 -0.18617174 -0.07535649
000160 b6 4d 27 bf 0d f1 cb be f5 12 1a be 4e 89 d0 be
       -0.6535295 -0.39832345 -0.15046294 -0.40729755
000170 60 9e e5 3e b8 0f ca be 2b 2d 53 bd dc 98 85 be
       0.44847393 -0.39465117 -0.051556747 -0.26093185
000180 13 28 c3 3c f4 02 27 bc af 5f a1 3c 7b 17 b3 3e
       0.02382282 -0.010193575 0.019698946 0.34978852
000190 d2 e0 93 3e 93 00 26 bf 0e dc b7 3e b1 41 ea bc
       0.28882462 -0.64844626 0.35910076 -0.028595777
0001a0 5e e4 88 be b2 ad 48 be d8 2f 1a bf 80 2f ba 3e
       -0.2673673 -0.1959751 -0.60229254 0.36364365
0001b0 50 b2 b3 3e fc ef 55 3e 94 c5 9d be b3 86 07 3f
       0.3509698 0.20892328 -0.30814803 0.5293991
0001c0 2b e0 fb bd d8 c7 61 3e 7c 2e 21 3f 10 9a ea be
       -0.12298616 0.2204889 0.62961555 -0.45820665
0001d0 b8 4d 84 3e 3d 96 82 3d 11 7c 40 3e e1 f2 c3 3e
       0.25840545 0.06376312 0.18797328 0.3827124
0001e0 8a 4c cc 3e 55 bc 12 be 9e 50 d3 3e e5 fd 2f 3e
       0.39902145 -0.14329655 0.41272444 0.17186697
0001f0 36 0d 26 3e 0f 48 f6 3e 71 38 c9 3d 0b bc 2c be
       0.16215977 0.4810185 0.098252185 -0.16868608

fc2.weight f4 [128, 128]
000000 dd f1 4e be 38 fa 8c 3e f1 5a 23 3f 88 a1 46 be
       -0.20209451 0.27534652 0.6381064 -0.19397557
000010 5a c0 80 be 7d 92 8d be 67 5d 52 be 35 54 94 3e
       -0.25146753 -0.27650824 -0.20543443 0.28970495
000020 9c 7a 17 be 52 96 7c bf 8a bb fa 3e 88 e6 9c be
       -0.14792866 -0.9866687 0.48971206 -0.3064463
000030 8e 85 55 3e a7 a1 cd bb 32 cb 51 3e 3b 66 ae bc
       0.20851728 -0.006275374 0.20487669 -0.021288982
000040 7e 4f 29 3e 38 af 72 3d 68 78 53 be 53 ca c3 be
       0.1653423 0.059249133 -0.206514 -0.382403
000050 ab b8 19 be 92 3c 02 3e 33 bc 2e 3c ab 0a 0e bf
       -0.15011851 0.12718418 0.010664987 -0.5548503
000060 87 6b 6f be e6 5d d5 3d 73 21 f8 3d ba 57 15 be
       -0.23380862 0.104183 0.12115755 -0.14584246
000070 0c ff c3 3e 48 cc 53 3e e7 ad 44 bf 71 99 37 be
       0.38280523 0.20683396 -0.76827854 -0.17929627
000080 60 82 4f 3e df 69 6a 3e 6f 57 48 3e 4e 4f ad be
       0.20264578 0.22891949 0.19564603 -0.33849567
000090 38 dc 0d be 44 cf c5 be b2 d4 52 3e ea c0 da 3d
       -0.13853538 -0.38634694 0.2058895 0.10681327
0000a0 7b b6 0f 3d 15 d9 ab 3e 63 de e3 3c 06 e4 01 be
       0.035086136 0.33564058 0.027816003 -0.1268464
0000b0 0e e3 9c be 46 b6 a0 bd 2d 04 a4 3e 2b 0f aa be
       -0.3064198 -0.07847266 0.32034436 -0.33214697
0000c0 b0 b2 a4 3e f2 ae 04 bf 0f 84 d6 bd e7 b6 5d 3e
       0.32167578 -0.51829445 -0.10474407 0.21651803
0000d0 06 ee 23 be 26 10 32 3f 47 8b db 3d d6 4c d2 3d
       -0.16008767 0.6955589 0.107199244 0.102685615
0000e0 c6 e7 36 3d b4 ed 23 3e 13 b5 de 3c 7b 02 88 3d
       0.04465463 0.16008645 0.027185952 0.06641098
0000f0 2a 33 5e 3d fd 7f 07 3e a7 81 a0 bc 43 5d 10 be
       0.054248013 0.13232417 -0.019593073 -0.14098077
000100 f3 7d 8a 3e cf 6d 12 bc 5c c1 fc bd d1 2a 34 3e
       0.27049217 -0.008937313 -0.12341568 0.17594458
000110 93 03 c8 bc e2 55 13 3d 06 98 76 3d 8c 26 4a bd
       -0.024415767 0.035970576 0.060203575 -0.049353167
000120 3f 1b 3a be 3d c2 50 be 5a 08 bf bd ad 6b 32 3d
       -0.18174456 -0.20386596 -0.09327765 0.04355972
000130 a8 d8 ba 3e c3 27 03 be de 3b 54 be b9 f3 bb be
       0.3649342 -0.12808137 -0.20725963 -0.36709383
000140 28 30 9d 3e 70 5c 63 bc 6e d8 9d 3d e0 0e cd be
       0.30700803 -0.013877019 0.07707296 -0.4005041
000150 37 02 72 be dd 21 a3 3d 29 a0 55 3d e9 dd 91 3d
       -0.23633657 0.07965443 0.052154694 0.07122404
000160 6e ae 93 3e 9f 53 9d 3e b3 0c 65 be c3 ba fd bc
       0.28844017 0.3072786 -0.22368126 -0.030972844
000170 19 14 fb bd 33 50 8c 3e 27 b9 5f 3e 91 b9 d6 3e
       -0.12259693 0.27404937 0.21847974 0.4193845
000180 f2 c8 c2 3d ff 7f 03 be dc f2 c7 3d 37 8e a4 3e
       0.095109835 -0.12841795 0.097631186 0.3213975
000190 83 5a 7b be a5 58 34 be 40 8c 81 bd 3e ca 07 3e
       -0.24546246 -0.1761194 -0.06325579 0.13260743
0001a0 ea dd ca 3e bd 3a ee bd 01 25 37 3f 13 76 5c bd
       0.39622432 -0.11632297 0.7154084 -0.05382354
0001b0 a1 75 90 3e 61 2a a8 3e 96 d6 35 bd bf 3e e4 3d
       0.28214744 0.32844833 -0.0443941 0.1114478
0001c0 5f 42 96 3e cb a0 11 be fa 24 d8 bd 95 6a f0 be
       0.29347512 -0.14221494 -0.10553928 -0.46956316
0001d0 6e 64 ab bd 1c cc 22 3e a6 7f 6f be 85 47 55 3e
       -0.08368765 0.15898174 -0.23388538 0.20828064
0001e0 f5 70 98 be 8e 6e 73 3e 64 a2 0a be 7a d6 00 3f
       -0.2977368 0.23772642 -0.1353851 0.50327265
0001f0 f1 59 87 3e fe af e8 3d 5d 24 97 3d 58 1c c5 3e
       0.26435807 0.11361693 0.073799826 0.38498187
000200 07 b1 a9 3d a7 67 2d 3d 10 6d 0c bd 5e ee 3b 3c
       0.082857184 0.04233518 -0.034283698 0.011470405
000210 91 2f e9 be e2 dc 1b 3d 7d d2 ad be ec 94 34 be
       -0.45544103 0.038052447 -0.33949652 -0.17634934
000220 fd 51 45 bd cf 1c 30 3e 0e df d9 3d 24 20 a7 be
       -0.048173893 0.1719849 0.106382474 -0.3264171
000230 cb 61 17 bd 12 64 83 be 1a 93 c3 3e 29 43 8d bd
       -0.036958497 -0.25662285 0.38198167 -0.068975754
000240 02 e7 c8 bd 28 03 0d 3e c4 a2 f0 be da ed 1d 3e
       -0.09809686 0.13770735 -0.4699918 0.15422764
000250 55 13 a8 3e eb ec 03 bd c4 c9 cb 3d 48 86 8d 3e
       0.3282725 -0.032208364 0.09950593 0.2764151
000260 1b fd c8 bc 2b 56 f7 3e de 66 d2 be 18 28 9b 3e
       -0.024534753 0.48307928 -0.41094106 0.30304027
000270 04 2d 44 3e 3e e1 77 be 32 36 43 be db 3b d0 3e
       0.19157797 -0.24207017 -0.19063643 0.40670666
000280 5f 12 3b be 65 d8 d3 be 78 1d 32 3e 4e 9f 67 bc
       -0.18268727 -0.41376033 0.17394054 -0.014137102
000290 3f 51 c7 be b2 fa 1a 3e 02 37 03 3f f6 4d 97 3d
       -0.38929173 0.15134695 0.5125581 0.07387917
0002a0 94 51 f0 bd b9 30 f0 be 2f d7 8c 3b 6f c8 a7 bc
       -0.1173431 -0.46912172 0.004298113 -0.020481316
0002b0 9c 28 8a be 19 24 57 be f7 19 83 3e fe 87 13 be
       -0.26984107 -0.21009864 0.25605747 -0.14407346
0002c0 16 5d f2 be 02 2d 9f bd 5c d5 6c 3e d2 cc 16 3f
       -0.47336644 -0.077722564 0.23128265 0.5890628
0002d0 36 57 78 3f df c6 9a 3d 33 c4 6a be 0a 12 e9 3e
       0.97008073 0.07557463 -0.22926407 0.45521575
0002e0 54 3c 11 3f c1 8e dc be c1 d4 0d 3c 6b f1 a8 bd
       0.5673268 -0.43077663 0.0086566815 -0.08249172
0002f0 99 79 7a bd 7f f4 04 be 1b 22 1c bf a9 35 81 3c
       -0.06115112 -0.12983893 -0.6098954 0.015772657
000300 f2 fa a9 3e 3c 2b 54 be 77 1f 5a bc 9e ff 5b 3e
       0.3319927 -0.20719618 -0.013313166 0.21484229
000310 9f b2 75 bd 1e e0 37 bd 94 ab dd bd e5 f7 18 3e
       -0.0599848 -0.04489147 -0.108237416 0.14938314
000320 95 d7 08 be 89 ce b9 be d3 4e 58 be 22 51 63 be
       -0.13363488 -0.36290386 -0.21123819 -0.22198918
000330 c9 40 50 3e 02 ee b4 3e 61 8f 09 be b8 b0 d3 3d
       0.20337214 0.35337836 -0.13433601 0.10336441
000340 8e e9 0f 3d 3e fc 01 be ed af b0 bc 17 44 1b bf
       0.035134844 -0.12693879 -0.021568263 -0.6065077
000350 e9 43 1f 3e 51 2c ab 3e 78 6d 26 3e c6 ce 69 3e
       0.1555325 0.33432248 0.16252697 0.22832784
000360 70 2b 93 be b4 24 d7 3e 4f 07 b7 be 39 90 79 bd
       -0.28744078 0.4202019 -0.35747764 -0.060928557
000370 fe 71 2c be 3c 6f ec bd b7 48 c5 bd e7 7e 06 3e
       -0.1684036 -0.11544654 -0.0963301 0.13134347
000380 7a 17 46 3d f3 de 5b bd a1 76 1c 3f 60 37 ed be
       0.048362233 -0.053679418 0.61118513 -0.4633131
000390 6d ef 36 3e 13 4c 15 3f af 69 a2 bd e0 58 7a be
       0.17864771 0.58319205 -0.07930314 -0.24447966
0003a0 99 20 79 be fc e6 46 3e 57 61 3e bf e2 a3 a3 3e
       -0.24328841 0.19424051 -0.7436728 0.3196097
0003b0 fd 0a 5a 3c 55 e3 fe bc 1a 46 66 be 4c a1 70 be
       0.013308284 -0.03111426 -0.22487679 -0.2349903
0003c0 eb ec c6 be ec b8 7b 3e d6 74 3f be 8d 66 7f 3e
       -0.3885263 0.24582261 -0.18696913 0.24941464
0003d0 e5 85 43 3e ae e8 00 3e 34 a6 a0 3d 87 74 a5 be
       0.19094045 0.1258876 0.07844201 -0.32315466
0003e0 49 0e 81 3e a6 1e 35 3d 6f 26 52 be 8b 9c cb be
       0.2520621 0.04421868 -0.20522474 -0.3976787
0003f0 7b 7d 42 3f 97 d5 4d 3e aa f1 e1 3e 14 34 27 3e
       0.7597272 0.2010101 0.44129688 0.1632846

fc2.bias f4 [128]
000000 a8 d1 91 bd 4c c9 33 3e 96 fe 39 be e5 91 97 3d
       -0.07120067 0.17557257 -0.18163523 0.07400874
000010 77 d9 83 be f9 ec 24 3d 61 fb d6 be 1a 7c 74 3e
       -0.2575185 0.040265057 -0.41988662 0.23875466
000020 ae a5 9f bd 24 a3 b7 3d 49 d9 dc bd aa 22 b8 3d
       -0.07795273 0.089666635 -0.10783631 0.08990987
000030 ed 17 11 bd 11 71 3b be 5f fd f9 3c 8c b6 c0 bc
       -0.035423208 -0.1830485 0.030516325 -0.023524545
000040 16 94 27 3e 3b 0a c1 bd c1 14 96 be 8d 24 9b be
       0.16365084 -0.094257794 -0.2931271 -0.30301324
000050 de c2 c9 3d e1 f6 c4 3d 0a 79 8b 3d 28 f8 6d 3e
       0.09851621 0.09617401 0.06810196 0.23239195
000060 c9 1c 91 be cd 54 dd 3a 86 a5 aa bd 60 b2 be 3e
       -0.28342274 0.0016886235 -0.08332352 0.37245464
000070 bb 6e e2 bd 79 73 84 3d 3e 08 b8 3c ab ba 61 be
       -0.110562764 0.06467337 0.022464868 -0.22043864
000080 6f bb 39 3e 5e e3 c2 3c 48 ac 98 3d b2 cd 1e 3e
       0.18137906 0.023790058 0.07454735 0.15508154
000090 dc 90 ea 3b e4 45 12 be f1 31 85 be dd 2e 69 bd
       0.007158382 -0.14284474 -0.26014665 -0.056929458
0000a0 2e e8 07 3e 8e 35 6d bd 46 bb 00 3e f5 12 cf 3d
       0.13272163 -0.0579124 0.12571439 0.10111038
0000b0 cb 2b 3c 3f ae de 07 3e fe 3a 13 bd 4a de 6a 3c
       0.7350432 0.1326854 -0.03594493 0.014335224
0000c0 97 bc 2d be 56 17 23 3e 45 9e 25 be aa 27 59 be
       -0.16966473 0.1592687 -0.16173656 -0.21206537
0000d0 0e cd 38 be a7 94 4e be 09 79 33 be a5 46 a2 3e
       -0.18046972 -0.20173894 -0.1752664 0.31694523
0000e0 f6 1c 3f be 0f fe a4 bd 3a ac 1d be 9f b8 b8 3e
       -0.18663391 -0.0805627 -0.1539773 0.36078355
0000f0 25 7b db bd ea dd 37 be 52 32 8e 3d 55 86 0a be
       -0.10716847 -0.17955747 0.069431916 -0.13527806
000100 c0 2b b7 bd c3 c4 76 3d 98 ce be bd 08 24 b3 be
       -0.089438915 0.06024624 -0.093167484 -0.34988427
000110 68 2d c0 3d d9 ec 05 3c c2 19 29 bd ed 35 e0 bd
       0.093836606 0.008174145 -0.04128433 -0.109477855
000120 88 b3 92 bb e0 92 42 3d 59 b8 c6 3d 3b c0 12 be
       -0.004476968 0.047503352 0.0970313 -0.14331143
000130 34 81 59 3e 2c f3 a7 bd 38 26 d7 be 88 de 90 bd
       0.21240693 -0.08200678 -0.42021346 -0.070736945
000140 96 a7 74 3e 8b 78 cf ba 01 e1 9d bd d9 4c d8 3d
       0.23892054 -0.0015828771 -0.07708932 0.105615325
000150 dd d6 b3 3d b2 8d 25 3e 6e 07 ba 3d 0d 69 ce 3d
       0.08781216 0.16167334 0.09083448 0.100786306
000160 3a 98 72 3e 30 61 a9 bd 26 a1 d7 bd 99 0a d5 bd
       0.23690882 -0.0827049 -0.105287835 -0.10402412
000170 14 b8 d0 bc ae be 6d be 6e 0e 9d 3d ef 9e a1 bd
       -0.0254784 -0.2321727 0.07668768 -0.07891642
000180 1a e3 e2 3d 22 8a 39 be 2b fd b2 3d 8b 57 54 be
       0.110784724 -0.181191 0.08739694 -0.2073652
000190 ba 0c a5 bd da 45 ba 3c 93 f7 ab bc 45 2e a0 be
       -0.08059068 0.022738386 -0.020992076 -0.312853
0001a0 87 7f 45 be b0 de 18 bd 95 75 38 3e b1 59 ec 3d
       -0.19286929 -0.037321746 0.18013604 0.11540545
0001b0 c9 20 d9 3d f1 50 1d be 8a dc 5b be 07 f2 2d 3d
       0.106019564 -0.15362908 -0.21470848 0.042467143
0001c0 5c 2d fe 3d 1e 88 b8 be f8 ed e0 b9 ea 38 29 3e
       0.12410995 -0.3604135 -0.0004290191 0.16525617
0001d0 b4 2b fd bd 1d b6 00 bd dc d1 94 3d 0c 31 d8 3e
       -0.12361851 -0.031423677 0.0726659 0.4222492
0001e0 6c 49 93 be 8b 74 9a be 4f 89 3d be 0d ff 37 be
       -0.28766954 -0.3016704 -0.1850941 -0.17968388
0001f0 a5 54 a4 bd 78 1d 54 be 36 ac e9 bd 7f 88 a1 3e
       -0.08023957 -0.20714366 -0.114098 0.3154945

fc3.weight f4 [16, 128]
000000 2f 2a 98 3a fd e7 1c 3c 97 69 a3 3b d3 c0 a3 3b
       0.0011609251 0.009576795 0.0049869525 0.0049973517
000010 92 b0 23 bb 75 7b df bb 7b d7 21 3b 30 c8 c3 bb
       -0.002497707 -0.006820137 0.0024695087 -0.005974792
000020 20 9e 21 3c 7b 02 23 3b 6f 2c a0 bb c0 08 ce 39
       0.00986436 0.0024873305 -0.0048881094 0.000392979
000030 e8 16 18 3c 40 0b 9e bb 0e 77 67 3c 97 e5 98 3b
       0.009282805 -0.0048231184 0.014127506 0.004666041
000040 c4 9c 02 3c 5c 5b 4d 3c ad 37 02 3b ed d0 42 3c
       0.007971946 0.012533989 0.001986961 0.011890632
000050 e7 a7 36 3a ff 3b d7 3b b2 f1 86 3b dc b9 b2 bb
       0.00069677684 0.0065684314 0.004118168 -0.005454285
000060 cd 19 95 bb d1 05 14 3c 05 03 56 ba 43 73 c7 3a
       -0.004550195 0.00903459 -0.0008163902 0.0015216846
000070 a4 27 33 3c 22 e5 24 3c 9a 92 48 3c 40 a3 e6 3b
       0.010934744 0.010064395 0.012241984 0.007038504
000080 67 f2 87 3b 7f 97 9c bb 9a a0 04 bc 35 2d ca 3b
       0.0041487697 -0.004778802 -0.008094931 0.00616994
000090 1f c1 0e 3b a2 c5 e2 3b be a6 26 3c 18 a4 c8 3b
       0.002178259 0.0069205323 0.01017159 0.006123077
0000a0 1b 29 7b b9 bb 30 d4 ba 1d 69 b4 bb ab 28 26 3a
       -0.00023952538 -0.0016188839 -0.0055056945 0.00063384575
0000b0 20 fc f1 3a f1 2f a7 3a 16 86 c4 3b ad e1 b6 b9
       0.001846198 0.0012755377 0.0059974296 -0.00034881887
0000c0 b9 d0 d4 3b ed 94 88 bb 6b f4 b8 3b 5b 3d 27 3c
       0.0064946082 -0.004168144 0.0056443713 0.010207499
0000d0 e6 92 11 3b 0b 43 c7 3a 41 5d d7 3b 6a 85 93 3b
       0.0022212802 0.0015202475 0.006572396 0.004501988
0000e0 69 64 73 3b 5e d6 f3 3b 17 88 cf ba 28 c6 7d ba
       0.0037138707 0.007441326 -0.0015833405 -0.00096807117
0000f0 8e 16 3d 3c 9d b9 a5 3b 70 e5 c3 3b 29 6f 16 3c
       0.011541022 0.005057527 0.005978279 0.009181776
000100 e9 a3 c1 3b d7 a1 80 bb 2c 0d ca 3b 26 42 c3 3b
       0.005909432 -0.003925543 0.006166121 0.0059588132
000110 7b 5b 8d bb 7b 0c 1b bb aa e3 f9 3b d2 b3 5f 3c
       -0.004313884 -0.0023658562 0.0076260166 0.013653712
000120 d8 00 88 39 0f f5 06 bc e0 6a e4 3b a1 e7 06 3c
       0.0002594057 -0.008237137 0.0069707483 0.008233936
000130 9f 21 d7 3b 44 80 ac 3a ff e4 e5 3b 9d a7 1a 3c
       0.0065652872 0.0013160785 0.007015824 0.009439376
000140 fb d3 a6 ba 35 4f 18 ba 72 23 98 bb a8 a9 dc 3b
       -0.001272797 -0.00058101426 -0.0046428973 0.006734092
000150 df 4b 6f bb 1b 01 f0 3b e4 e6 dd ba bb 05 12 3c
       -0.0036513729 0.0073243505 -0.0016929773 0.008912499
000160 44 58 80 ba ff 5b 45 3c cc 8f 49 3c 12 af f8 bb
       -0.000979193 0.012045859 0.01230235 -0.0075892294
000170 e6 60 99 bb 33 59 2b bb 06 01 f5 3b 99 a0 af 3b
       -0.0046807406 -0.0026145696 0.0074769286 0.005359721
000180 17 f9 5f 3c bd d5 2b bb 0e 8c 3a 3c 00 c1 fa 3b
       0.0136702275 -0.0026219927 0.011385931 0.007652402
000190 04 7f 75 3b c9 f9 a0 3a a4 46 fa ba fe 1b c3 3b
       0.003745974 0.0012281473 -0.0019094539 0.0059542647
0001a0 0a 10 25 3b f0 6a 9f bb ad 83 81 bb c3 c7 d6 ba
       0.0025186562 -0.004865043 -0.0039524646 -0.0016386438
0001b0 88 9f 7c b9 93 a3 77 b8 aa fd ad 3b 67 6a 43 3c
       -0.00024092023 -5.904173e-05 0.00530978 0.011927224
0001c0 94 2e 8c bb 3c 14 c3 bb de 94 91 bb b8 b3 2b bb
       -0.0042780135 -0.00595334 -0.004442795 -0.002619965
0001d0 8a e8 3c 3c 47 49 db 3a 5a 3a 87 3a 36 56 ad bb
       0.011530051 0.0016730212 0.0010317073 -0.005289818
0001e0 f4 14 2d 3c ee 24 ae bb ae 85 77 3b db 71 5d b9
       0.010564078 -0.005314461 0.0037768888 -0.00021118617
0001f0 73 2c ae bb 1a 32 98 39 4e 2b 34 3b a8 d2 64 3c
       -0.0053153574 0.00029029028 0.0027491632 0.01396624
000200 51 a0 43 3e 13 18 b8 bf c8 e3 ca bf 98 f0 2d 3f
       0.19104125 -1.4382347 -1.5850763 0.6794524
000210 f4 0f 96 be 50 76 67 bc 62 f4 25 3f 4a 7a 8c 3f
       -0.29309046 -0.014127329 0.64826024 1.097482
000220 6a f0 69 bf e1 10 10 3f b4 2d 34 3f a1 65 87 bd
       -0.9138247 0.56275755 0.7038224 -0.06611181
000230 73 6b 3d bd 44 22 29 bf 18 fe 46 3f 0e 5d 67 be
       -0.04624505 -0.6606791 0.77731466 -0.22594091
000240 69 63 49 3f 98 6f f8 be 03 29 03 3f ba d4 15 3e
       0.7866731 -0.4852264 0.51234454 0.1463193
000250 10 79 1c bf 1c d9 1a 3e 4c 22 90 3e 0c c4 dc 3d
       -0.61122227 0.15121883 0.28151166 0.107795805
000260 5b 39 31 bf df 09 13 bf 54 e4 ec bf 59 0f cf be
       -0.6922814 -0.5743694 -1.850718 -0.40441397
000270 fb a5 53 3e 8d 73 7a 3e 5e 71 b2 3e 84 a9 79 be
       0.20668785 0.24458142 0.34852117 -0.24381071
000280 a1 bf 59 bf 1e 89 0a 3f 3b ab cf bd fa d4 bb 3e
       -0.8505803 0.54115474 -0.101400815 0.36685926
000290 38 da 12 bd af 4b 06 3f 6b 16 8c bf 19 71 17 bf
       -0.03585264 0.52459234 -1.0944341 -0.5915695
0002a0 72 89 77 bf ec 0e 12 bf 67 2b 03 3f 5e f4 8b be
       -0.966941 -0.5705402 0.512381 -0.27334875
0002b0 bf 83 10 3e 20 37 ef bb 6e b4 06 bf b9 bb 2b 3f
       0.14112757 -0.0073002726 -0.52619064 0.6708332
0002c0 c9 44 03 bf ac 47 38 3f 9c ce 70 bf fa 8e 62 3e
       -0.5127683 0.7198436 -0.9406526 0.22124854
0002d0 1c c8 b1 bf 48 6e 03 3f a2 5f e5 3e e6 86 1a 3f
       -1.3889194 0.5134015 0.44799525 0.6036209
0002e0 04 40 8f 3d ef e5 3c 3e c0 e3 0c be 9e 01 a9 bf
       0.06994632 0.18447088 -0.13758755 -1.3203619
0002f0 e7 97 7c be 2c dc a1 bf 98 22 3e 3f ec 26 c9 be
       -0.24667321 -1.2645316 0.74271536 -0.39287508
000300 46 17 5b bf 37 f9 3a bd cf af f1 bf 5e 1b 94 be
       -0.8558239 -0.045647826 -1.8881778 -0.2892713
000310 1b f4 61 bf a2 4c de be cd ce 2e be 89 58 0a bf
       -0.882631 -0.4341784 -0.17071076 -0.54041344
000320 34 6b 78 be 33 12 b1 3f 83 63 24 3e 54 6d 11 3f
       -0.24259645 1.3833679 0.16053586 0.56807446
000330 3b 54 ca bf 77 6a a6 bf f3 95 62 b9 05 13 18 3e
       -1.5806955 -1.300124 -0.000216089 0.14851005
000340 ac bb 09 3e 58 55 a8 3c ae 11 dc 3e d8 e2 82 bf
       0.13450497 0.020548508 0.4298224 -1.0225477
000350 25 2d 13 3e 8b 46 c3 be f6 70 86 3e 45 1d 24 3e
       0.1437269 -0.38139758 0.26258057 0.1602679
000360 9c 58 06 3f fe 6c c4 3e b8 bc 59 bf a9 2f 79 bf
       0.5247896 0.38364404 -0.85053587 -0.9733835
000370 c4 ce 2d 3f b0 63 eb be 31 ba 1b 3f 37 ce c1 3e
       0.67893624 -0.45974493 0.6083098 0.37852642
000380 3d 48 bc 3d 3e 18 a2 be e0 e5 9d be 35 10 13 bf
       0.09193466 -0.3165912 -0.30839443 -0.57446605
000390 14 a8 d9 3d d7 b4 c7 3e f9 13 7a be 0f a7 f1 be
       0.106277615 0.39005157 -0.24421681 -0.47197768
0003a0 4d a9 e1 3e b0 76 10 bf 5b 7e 06 3f 33 0f 09 3f
       0.4407448 -0.564311 0.52536553 0.5353882
0003b0 d9 28 13 bf cc 38 34 3e 3e 23 23 3f 46 cc cc 3e
       -0.57484204 0.17599791 0.6372565 0.39999598
0003c0 7b 22 3a 3f 06 b3 09 bf a4 50 ab bf 40 d4 a1 be
       0.72708863 -0.53788793 -1.3383985 -0.31607246
0003d0 c9 c7 8e 3e 61 b0 14 bf ab fd db be 44 29 24 3f
       0.278868 -0.5808163 -0.4296697 0.64125466
0003e0 4c 98 0d bf 3d 6f 90 be 75 68 13 3f 17 c9 a4 ba
       -0.5531051 -0.28209868 0.57581264 -0.0012572136
0003f0 f8 ff 3d 3e c3 34 a3 be 6b 70 6e 3f 66 94 f7 3e
       0.18554676 -0.31876191 0.93140286 0.48355407

fc3.bias f4 [16]
000000 94 aa b1 bb 68 8e c9 bc 2e ed 05 3e ef d2 84 3e
       -0.005421946 -0.024604037 0.13078758 0.2594218
000010 d9 89 af 3e 92 36 8b 3f 79 74 64 3f 3e 73 6a 3f
       0.34284857 1.0876029 0.89240223 0.91582096
000020 c6 05 22 bb f9 79 d5 3e d7 72 94 3e 61 10 a1 3f
       -0.002472268 0.4169462 0.28993866 1.2583123
000030 44 84 12 3e 77 d9 09 3f 31 43 8e 3e 24 32 44 3f
       0.14308268 0.5384745 0.27785638 0.7663901

fc1.weight f4 [128, 18]
000000 60 c3 19 3e 12 b9 8d be 81 37 43 3e 78 13 68 be
       0.15015936 -0.2768026 0.19064142 -0.22663677
000010 0d 64 c9 be 53 dd 4d bf 99 cb f6 3b 53 4c b6 3e
       -0.39334145 -0.8041584 0.007531595 0.35605106
000020 87 9b 30 bf 25 3b 2d bf 53 00 ed be 57 74 de bc
       -0.68987316 -0.6766837 -0.4628931 -0.027155085
000030 87 9e 45 3c 27 f3 ec bc d1 a8 e3 bd 72 8d 16 bd
       0.012061722 -0.028924538 -0.111161835 -0.036755987
000040 0c c4 a7 bc 12 b5 7a 3b 2e 0a fe be b8 70 d7 3e
       -0.020479225 0.00382549 -0.4961714 0.42078185
000050 84 e3 7a be e7 b5 34 bf 53 5c 26 bf 98 0a db 3e
       -0.24500853 -0.7059006 -0.64984626 0.4278152
000060 85 50 40 bf c4 17 0b bf ed ee 00 bf 57 e4 d4 be
       -0.75122863 -0.5433314 -0.5036457 -0.4158046
000070 7b 96 d6 3e ba 65 e2 3d 78 94 97 ba 08 11 5a 3d
       0.41911682 0.11054559 -0.0011564633 0.0532389
000080 b3 ed af be 88 d3 a1 3d 7f ff f5 3d d5 bd 9c 3e
       -0.34361038 0.079016745 0.12011623 0.3061358
000090 6e a1 e8 be 18 c5 00 3f 44 39 30 3e 84 ec e0 3e
       -0.4543566 0.5030074 0.17209345 0.43930447
0000a0 0b 63 cd 3e ba 90 c7 be b7 f6 82 be a5 92 88 be
       0.40114626 -0.38977605 -0.25578853 -0.2667438
0000b0 d1 5a f2 3e a9 69 48 bd 56 46 bf be 96 6d 3c bf
       0.47334912 -0.04892889 -0.3735835 -0.73604715
0000c0 be 70 28 3e 6f a1 1f 3e cf 2c dd ba 3f 4b 74 3d
       0.16449258 0.15588926 -0.0016874316 0.059642073
0000d0 48 bd ca 3c 5f e0 2c be 33 0f 36 be 97 5d 0a 3e
       0.02474846 -0.16882466 -0.17779236 0.13512264
0000e0 bb 5c 72 3e 20 5b 46 be 3c 7e 06 bf 7e 05 56 3d
       0.23668186 -0.19370699 -0.5253637 0.05225133
0000f0 74 23 a7 be 3c b0 62 be d2 50 04 3f 77 90 89 3d
       -0.32644236 -0.2213754 0.5168582 0.067170076
000100 75 04 59 3e ca 6f 28 3e c1 fd a2 bb a8 22 c7 3c
       0.21193106 0.16448894 -0.0049740975 0.024308518
000110 60 8b 65 3b 92 7a 3b bd f1 fe 63 bc 84 c6 a3 bc
       0.00350257 -0.04577119 -0.013915763 -0.01999212
000120 04 39 78 3d ff 82 d2 bd c6 ef db bd 7a 5b 9e 3d
       0.06060125 -0.10278892 -0.107390925 0.077322915
000130 fc c7 3d 3f e0 aa 99 3e 18 c1 3d 3e be b0 44 be
       0.74133277 0.3001318 0.1853069 -0.19208047
000140 c3 c5 75 be 43 9c 87 bd 5c 90 61 3f aa 4b a1 3d
       -0.24001221 -0.066216014 0.881109 0.0787576
000150 e6 bd 95 3d 7a 6e e8 3e ea f6 95 bd 6c 0d 4b 3d
       0.07311611 0.45396787 -0.07322486 0.049573347
000160 5d f7 38 3c 26 8d 55 3e da 39 c3 bc 72 c1 92 3e
       0.011289445 0.20854625 -0.023831297 0.28663212
000170 02 92 5e bf 42 01 13 3e 24 31 98 3e c6 6b 35 3f
       -0.8694154 0.14355949 0.2972499 0.70867574
000180 d8 90 e7 3e ca 11 08 bf b4 de dd be a0 02 4d be
       0.45227695 -0.53152144 -0.43333972 -0.20020533
000190 9c ed ec 3d 93 a9 80 be 91 ca a1 3e 71 cd a8 3e
       0.11568758 -0.25129375 0.31599858 0.3296924
0001a0 b6 30 85 be db 64 26 3b 26 e9 86 3e 89 8a a4 3e
       -0.26013726 0.0025389704 0.26349753 0.32136944
0001b0 29 04 55 bd f6 4a 03 3d a4 5c 44 3e 76 75 8d bf
       -0.05200592 0.03205391 0.19175965 -1.1051471
0001c0 2a 6b f2 be 3b 38 f5 3e 40 c3 03 bf 2f 96 57 3f
       -0.47347385 0.47894463 -0.514698 0.84213537
0001d0 35 67 31 3f cc 44 c0 3e c6 49 9a 3e 85 e7 13 be
       0.69298106 0.37552488 0.3013441 -0.14443786
0001e0 5c e1 6f bd 19 6f 4c bd b9 41 42 be 4d 9b 4d bb
       -0.05856453 -0.04991064 -0.18970384 -0.0031373084
0001f0 07 1a 61 3d 59 4a 81 3a fc f5 2d 3f b2 46 a9 be
       0.054956462 0.0009864076 0.6795347 -0.3306175
000200 7e 55 81 be c2 b7 93 be 73 75 57 bf f7 7f a7 3e
       -0.25260538 -0.28851134 -0.8416359 0.32714817
000210 e0 39 ac be e3 59 99 bd 8d 3e 1b be 80 7a 8d bc
       -0.33637905 -0.07487848 -0.1516058 -0.017270327
000220 88 48 e5 3d 92 17 2d 3e a1 19 9d be 1a 18 bf 3d
       0.11195475 0.16903523 -0.30683616 0.09330769
000230 6e 8d 2d be c0 b7 c0 be 5c 93 93 be 7f 8c 56 bd
       -0.16948482 -0.3764019 -0.28823364 -0.05238008
000240 31 27 ff 3d 7a a1 32 be 39 e9 9f 3f 2e dd ad 3e
       0.12458647 -0.17444411 1.2493049 0.3395781
000250 0e 18 86 be e1 3e 91 bf a9 7f 61 3e c4 a9 da 3e
       -0.26190227 -1.1347314 0.22021355 0.42707646
000260 63 15 08 3f f0 aa 24 3e fe 68 13 3f 50 3e 05 3e
       0.53157634 0.16080832 0.5758208 0.13012052
000270 69 0c 88 be e7 c4 37 3e a9 10 b9 be 47 f5 ee 3d
       -0.26571968 0.17946206 -0.36145523 0.11667877
000280 61 96 1c 3e 7f e8 35 3e 5e 87 ba be 81 c9 d8 bd
       0.1529174 0.17764471 -0.36431402 -0.10585309
000290 e0 99 43 3f 57 37 9c be 7f 54 3c be 19 df b0 be
       0.7640667 -0.3051097 -0.18391608 -0.3454521
0002a0 2d 52 07 bf 2a 31 36 3e 46 92 c0 3d 39 0e 37 3f
       -0.52859765 0.17792192 0.094028994 0.7150608
0002b0 08 16 49 3f a2 17 bf be 2c a0 43 be 87 0c 57 be
       0.7854924 -0.37322718 -0.1910407 -0.21000873
0002c0 cb dc fc 3d 25 49 3b 3e da 25 70 3d 9f d8 05 3f
       0.123468004 0.18289621 0.058629848 0.5228366
0002d0 ee d5 f1 be b8 88 b0 3d 1a 31 30 3e b8 5f 0d bf
       -0.47233528 0.08619827 0.17206231 -0.5522418
0002e0 76 24 b9 3e f4 c1 b7 3c b2 2b 1f 3e 22 1f 25 3e
       0.3616063 0.022431351 0.15544012 0.16125157
0002f0 27 36 86 3d fa 8c 5d bf 6d 71 86 3d a7 14 0c bf
       0.065532975 -0.8654324 0.06564603 -0.5471901
000300 52 54 52 3e 9e 90 ab 3e 6d ad b8 3e be a6 ea bc
       0.20539978 0.33508772 0.36069813 -0.028643962
000310 90 81 c3 3c 0c 5a bb be 32 91 bb be 52 75 b1 3e
       0.023865491 -0.36592138 -0.36634213 0.3465982
000320 58 e1 19 bd 67 7f a9 bb 96 16 14 bf f2 b9 e3 be
       -0.03756842 -0.0051726582 -0.57846963 -0.44477803
000330 71 24 a9 3e b3 80 e1 3d 1e 0a 98 3e ad 47 1c 3f
       0.33035615 0.110108756 0.2969522 0.6104687
000340 a8 59 88 3d 94 26 c4 3e 42 bd 07 bc 56 20 07 3e
       0.066577256 0.38310683 -0.008284869 0.13195929
000350 e0 1c c1 3b eb e9 16 bf b0 05 c5 be f3 8c 7b 3e
       0.0058933347 -0.5895068 -0.38480902 0.24565487
000360 58 35 08 3f 6c 02 12 bf 05 33 28 3f d2 b3 cb be
       0.53206396 -0.57034945 0.6570285 -0.3978563
000370 02 ce d0 bd e0 f2 00 3f c8 dc 0c bf 81 60 1b 3f
       -0.10195543 0.503706 -0.55024385 0.6069413
000380 6a db a5 3e 92 0e 05 3d 95 18 fa be a7 82 6b be
       0.32393962 0.0324846 -0.4884688 -0.22999059
000390 3b 05 39 3c 89 01 e8 3e 1a 67 49 3e 32 04 76 3c
       0.011292751 0.4531367 0.19668236 0.015015649
0003a0 7b ca 49 3e 95 cc 69 3e ec 14 8e ba 14 f0 0c bf
       0.19706146 0.22831948 -0.0010839975 -0.5505383
0003b0 5d 5c 15 bd 93 b3 94 3e 60 b4 73 3e 9f c3 0e bf
       -0.036465038 0.29043254 0.23799276 -0.55767244
0003c0 e2 cd 31 bf c8 20 be 3e 0c 95 3d bf 5d 41 7c 3d
       -0.6945478 0.37134385 -0.7405555 0.061585773
0003d0 09 fd 46 3f 66 88 23 3e 1a 9b 14 3e 3f 36 cf bd
       0.7772985 0.1597 0.14512292 -0.101177685
0003e0 69 31 46 be 85 36 09 be f7 95 1a be c3 d4 5d 3e
       -0.19354786 -0.13399704 -0.1509627 0.21663193
0003f0 f0 0b 56 3e 64 5f 92 bd a7 db 9d 3e 41 b5 09 be
       0.20902991 -0.071471006 0.30831644 -0.13448049

fc1.bias f4 [128]
000000 ff 85 e2 be 1f fa b0 be 7c 8f 56 be 4f a1 cb 3e
       -0.44242856 -0.34565827 -0.20953172 0.39771506
000010 76 a9 6d bd 4f 89 84 3e cc 6f 62 3e b4 d1 de 3c
       -0.05802294 0.25886008 0.2211296 0.027199604
000020 24 ce de bd 9a 71 24 bc 1d cd 54 3e 33 e1 0b 3f
       -0.10879162 -0.01003685 0.2078137 0.546405
000030 06 44 46 3d 11 37 bb be 7e 9e 9e 3e 53 ca fe 3e
       0.048404716 -0.3656545 0.30980295 0.49763736
000040 a7 df dd 3e 52 20 83 be e3 e6 98 3e 00 a7 f4 3e
       0.43334696 -0.25610596 0.29863653 0.4778366
000050 43 94 1f 3e bc 3a 40 bb 49 09 01 3f 79 a3 2e bf
       0.15583901 -0.0029331883 0.50404793 -0.6821819
000060 06 0a 07 be 34 0f 4f 3d 41 dc 8e 3d 2a 43 8c be
       -0.13187417 0.05055161 0.06975604 -0.27394992
000070 18 55 c4 be fb c5 18 bd 30 53 63 be 13 ad 51 3e
       -0.3834617 -0.037298184 -0.22199702 0.20476179
000080 91 bc f0 bd 35 7e 9a 3d 18 b6 24 3f 2c ec 58 be
       -0.11754716 0.07543603 0.64340353 -0.21183842
000090 ab 26 0a 3e b1 f8 76 bd 30 fa b2 be ba 4f c1 3e
       0.13491313 -0.060295764 -0.34956503 0.3775614
0000a0 a0 7d 14 3f 97 8c 61 3e ec a8 a8 bd c5 4e 16 3e
       0.5800419 0.22026287 -0.08235344 0.14678486
0000b0 fe cf d8 bd 52 80 ca bd 5a 36 8c be 4e 83 14 3f
       -0.10586546 -0.098877564 -0.27385217 0.58012855
0000c0 dc 85 83 be 13 2c 96 be 38 e3 c9 be 7d 28 15 3f
       -0.25688064 -0.293305 -0.39431167 0.58264905
0000d0 97 85 2e bf 59 cd b6 be 3a 57 6d 3e 72 9d 0c be
       -0.6817259 -0.35703543 0.23177806 -0.13731936
0000e0 2f 15 34 be fb a2 85 3e f7 81 4c 3e d2 2f 04 be
       -0.17586206 0.26100907 0.19971453 -0.12908867
0000f0 90 6f d7 3e 5c 6a 68 be fb 3e 4e 3e 00 85 18 bf
       0.42077303 -0.22696823 0.20141213 -0.5957794
000100 54 1c 57 3e ea ef f2 3e 38 2a c7 3e 00 ca 11 3f
       0.210069 0.47448665 0.38899398 0.5694885
000110 40 99 e4 3e 29 2f cf be ca 18 a6 3e 84 b6 50 3e
       0.4464817 -0.40465668 0.32440788 0.20382124
000120 5f 36 a0 be ab 06 07 be aa a4 85 be 99 8a 42 be
       -0.31291482 -0.13186137 -0.2610219 -0.18998183
000130 b8 93 98 3e f4 7c b6 3e 6b 1d e0 3d 01 8e 56 3e
       0.298002 0.35642207 0.10943111 0.20952608
000140 91 55 29 3d 29 e4 9f be a1 57 fe be d6 56 ae be
       0.041341368 -0.3122876 -0.4967623 -0.34050626
000150 60 b6 43 3e fb e1 91 3e 02 c1 3f be ee 87 98 bd
       0.1911254 0.28492722 -0.1872597 -0.074478015
000160 50 c2 27 bf ff 67 cc be 0d 64 1c be de 2f d0 be
       -0.6553087 -0.39923093 -0.15272541 -0.4066152
000170 ad a0 e5 3e c0 e7 c7 be e6 df 58 bd 78 bb 86 be
       0.44849148 -0.39044 -0.0529479 -0.26314902
000180 27 a7 98 3c e4 90 04 bc 22 54 8a 3c 37 23 b3 3e
       0.018634392 -0.008091185 0.01688582 0.34987804
000190 82 3c 94 3e b5 d0 25 bf 78 10 b7 3e a4 a1 e7 bc
       0.28952414 -0.64771587 0.35754752 -0.028275318
0001a0 06 66 89 be 1b 82 48 be 69 1a 1a bf d1 1e bb 3e
       -0.2683565 -0.19580881 -0.6019655 0.3654695
0001b0 0b 96 b3 3e 31 b1 56 3e af 4b 9d be 01 48 07 3f
       0.3507541 0.2096603 -0.30721804 0.52844244
0001c0 b0 b6 ff bd 4e ff 5f 3e 47 59 21 3f 2f 12 e9 be
       -0.12486017 0.21874735 0.6302685 -0.45521685
0001d0 22 5b 85 3e b4 95 83 3d 9b 21 3f 3e a1 d8 c4 3e
       0.2604609 0.06425038 0.18665163 0.38446525
0001e0 d0 dd cc 3e 1c ad 12 be 27 92 d3 3e 29 e2 2f 3e
       0.4001298 -0.14323848 0.41322443 0.17176117
0001f0 80 14 2b 3e 2a 03 f4 3e 89 ac ca 3d ee 46 2c be
       0.16707039 0.47658664 0.0989619 -0.16823933

fc2.weight f4 [128, 128]
000000 de bc 4c be 97 23 8c 3e 42 24 23 3f 38 d8 47 be
       -0.19993922 0.27370903 0.637272 -0.19516075
000010 af 82 80 be c2 cf 8d be 04 3c 51 be 4a 94 94 3e
       -0.25099704 -0.2769757 -0.2043305 0.29019386
000020 04 73 16 be 5e 6e 7c bf 9d de fb 3e 23 f4 9c be
       -0.14692312 -0.98605907 0.49193278 -0.30655012
000030 40 da 57 3e 49 60 0b bc 03 dd 52 3e 62 12 bb bc
       0.2107935 -0.008506843 0.20592122 -0.022835914
000040 65 36 28 3e e4 98 6f 3d 5b ae 53 be e1 e8 c3 be
       0.16427 0.058495417 -0.2067198 -0.3826361
000050 f8 c3 16 be 0c 2e 04 3e e3 2a 2c 3c 1c af 0d bf
       -0.14723194 0.1290819 0.010508272 -0.5534532
000060 7a 26 6f be d4 63 cf 3d 3d 11 f8 3d b9 49 17 be
       -0.23354521 0.101264626 0.12112663 -0.14774217
000070 e7 ee c2 3e 96 77 52 3e 03 06 44 bf a1 22 38 be
       0.38072893 0.20553431 -0.76571673 -0.1798196
000080 1d 70 50 3e c4 78 68 3e 2e c7 46 3e 8d e2 ae be
       0.20355268 0.22702318 0.19411919 -0.3415722
000090 90 48 0c be e9 1f c6 be 03 ac 52 3e cd 4b d7 3d
       -0.13699555 -0.3869622 0.2057343 0.10512505
0000a0 bc d8 16 3d 30 71 ad 3e 7f 5a ea 3c 72 4f 01 be
       0.036827788 0.33875418 0.028607605 -0.12627962
0000b0 18 79 9d be e9 cb 9b bd e3 16 a5 3e bf b8 a9 be
       -0.3075645 -0.07607252 0.32244024 -0.33148763
0000c0 c7 ea a4 3e af 55 05 bf 0a 30 d3 bd 34 3c 5f 3e
       0.3221037 -0.5208387 -0.10311897 0.2180031
0000d0 1f b9 24 be 2f 0a 32 3f 3a 55 dc 3d 9b b8 d5 3d
       -0.16086243 0.6954679 0.10758443 0.10435601
0000e0 4b f9 30 3d 9e 5d 23 3e bf 16 da 3c 1b 23 8a 3d
       0.043206494 0.15953681 0.026622174 0.06744977
0000f0 ed 66 67 3d 49 8b 08 3e 90 b9 94 bc da 7c 16 be
       0.056494642 0.13334383 -0.01815489 -0.14696065
000100 cf da 89 3e 13 ee c6 bb 8b f8 ff bd cb a7 36 3e
       0.2692475 -0.006070861 -0.12498578 0.17837445
000110 6e 29 c8 bc 95 bc 18 3d 67 ac 77 3d b6 48 3f bd
       -0.024433818 0.03728922 0.06046715 -0.046700202
000120 1b b0 39 be db 24 52 be 0b 54 c1 bd 87 d0 2d 3d
       -0.18133585 -0.20521872 -0.09439858 0.042435195
000130 02 c2 ba 3e e5 26 02 be d5 e8 52 be 80 b7 bb be
       0.3647614 -0.1271015 -0.20596631 -0.36663437
000140 1b f9 9d 3e 8b 84 7a bc 3b dc a2 3d e3 6f cc be
       0.30854115 -0.01529039 0.07952162 -0.39929113
000150 cf 86 71 be 8e 62 9f 3d 86 8b 59 3d 47 82 8a 3d
       -0.23586582 0.0778247 0.053111576 0.0676313
000160 97 76 94 3e 0e 9f 9d 3e 21 7f 65 be d1 76 f7 bc
       0.28996727 0.30785412 -0.22411777 -0.030208023
000170 ea 01 f6 bd 1a 12 8a 3e 92 e1 5c 3e 3b af d5 3e
       -0.12012084 0.26966935 0.21570423 0.41735253
000180 41 7e be 3d e4 25 04 be 1a b7 c7 3d e2 77 a5 3e
       0.09301425 -0.12905079 0.09751721 0.32318026
000190 8f ab 7b be da ff 31 be bc 27 7b bd 73 8b 08 3e
       -0.24577163 -0.17382756 -0.06131719 0.13334446
0001a0 9f 7d cc 3e 14 25 ed bd 04 b1 36 3f 32 3d 5f bd
       0.3993959 -0.11579338 0.71363854 -0.05450172
0001b0 d1 bd 90 3e 68 e6 a8 3e 1f e7 35 bd 8b a1 e4 3d
       0.28269818 0.32988286 -0.044409867 0.111636244
0001c0 71 b2 96 3e 23 05 13 be 12 4f db bd 80 45 f0 be
       0.29433015 -0.14357428 -0.10708441 -0.46928024
0001d0 8d 1b ad bd 6e 14 24 3e 46 a5 71 be ac a6 57 3e
       -0.084525205 0.16023418 -0.23598203 0.21059674
0001e0 ad bb 99 be ef 93 76 3e 09 55 09 be 1d ce 00 3f
       -0.30025998 0.2407987 -0.13411345 0.50314504
0001f0 55 54 87 3e 45 71 e7 3d fa 6d 97 3d 72 f2 c4 3e
       0.26431528 0.11300901 0.07394023 0.3846622
000200 d0 90 ad 3d a3 55 38 3d c0 49 0d bd d2 47 2b 3c
       0.084748864 0.045003545 -0.03449416 0.010454135
000210 fc 97 e8 be e6 cb 26 3d 9f 3b ad be 36 4c 33 be
       -0.45428455 0.040721796 -0.3383455 -0.17509541
000220 05 80 4f bd ed 38 2e 3e 21 a5 d7 3d 9f 5a a8 be
       -0.0506592 0.17013903 0.10529543 -0.32881638
000230 e7 33 14 bd 71 f6 81 be 14 69 c4 3e b6 d0 8a bd
       -0.03618231 -0.25383332 0.38361418 -0.0677809
000240 ef 20 c6 bd 66 f5 0e 3e 48 48 ef be fa b7 1e 3e
       -0.0967425 0.139608 -0.46734834 0.15499869
000250 69 1e a9 3e ac b4 f5 bc f2 2f d1 3d 8a 62 8e 3e
       0.33031014 -0.029993378 0.10214223 0.27809554
000260 43 db cd bc 3b 52 f9 3e 0c 8a d0 be c7 9c 9b 3e
       -0.025128966 0.4869555 -0.4073032 0.3039305
000270 56 e5 47 3e 6f 02 77 be 0c 52 41 be 37 24 ce 3e
       0.19521078 -0.24122022 -0.18878955 0.40262005
000280 ce ef 3c be 1c 0c d2 be 69 7b 34 3e 87 e9 15 bc
       -0.18450853 -0.41024864 0.17625202 -0.009149916
000290 1f e2 c7 be 56 76 1d 3e c3 c3 03 3f 94 49 98 3d
       -0.39039704 0.15377173 0.51470584 0.07435909
0002a0 87 f2 f0 bd 9b a0 ef be fc 48 a2 3b 57 45 a7 bc
       -0.117650084 -0.4680222 0.004952548 -0.020418806
0002b0 dc 76 89 be 65 c0 50 be 75 05 83 3e c0 4f 0f be
       -0.26848495 -0.20385893 0.255901 -0.13995266
0002c0 54 33 f1 be 1e 28 9a bd 50 2e 6e 3e 8a 6f 17 3f
       -0.47109473 -0.07527183 0.23259854 0.5915457
0002d0 c0 61 79 3f 22 1f a0 3d 54 e7 69 be 7b 83 e9 3e
       0.9741478 0.07818438 -0.22842151 0.45608124
0002e0 ab f2 11 3f a4 33 dc be 54 99 2f 3c 1d 70 af bd
       0.57010907 -0.4300815 0.010717709 -0.08566306
0002f0 b4 67 6b bd ed e5 06 be 2a 29 1c bf 54 12 58 3c
       -0.057471946 -0.13173647 -0.6100031 0.0131879635
000300 54 95 a9 3e 1d fe 52 be bb 05 37 bc eb f1 5a 3e
       0.3312174 -0.20604749 -0.0111708 0.21381347
000310 7f 5a 6b bd 8c 8b 2e bd f7 63 d4 bd be 67 17 3e
       -0.05745935 -0.04261355 -0.10370629 0.14785668
000320 c6 a9 07 be 2b 45 b9 be b2 d8 52 be 01 d9 63 be
       -0.13248357 -0.36185583 -0.20590475 -0.22250749
000330 37 87 51 3e 06 9a b4 3e 4b ad 09 be c7 2f cd 3d
       0.20461737 0.3527376 -0.13445012 0.100188784
000340 9d aa 0e 3d 6f e4 ff bd b2 08 a5 bc 34 64 1a bf
       0.03483068 -0.12494742 -0.020145748 -0.6030915
000350 ca 33 1f 3e db 4d ab 3e 15 f3 24 3e a0 63 6d 3e
       0.155471 0.33457837 0.16108353 0.23182535
000360 17 2d 92 be f2 d2 d7 3e 1a 4b b9 be 04 c9 80 bd
       -0.28550026 0.42153126 -0.3619011 -0.06288341
000370 fb e1 29 be a7 30 e9 bd 0f d2 bc bd 04 a0 05 3e
       -0.16590111 -0.11386233 -0.09219753 0.13049322
000380 e8 83 42 3d 04 d0 5f bd 5f 5c 1c 3f 11 bc ed be
       0.047489077 -0.05464174 0.6107845 -0.46432546
000390 fc 9b 39 3e fb 2c 15 3f 6f 6d a8 bd 8d 54 78 be
       0.1812591 0.5827176 -0.08223998 -0.24251004
0003a0 d6 95 7a be 97 d5 46 3e e2 f9 3d bf 21 08 a4 3e
       -0.2447122 0.19417416 -0.74209416 0.32037452
0003b0 ab 8d 51 3c 47 37 db bc ab 15 66 be eb f5 6e be
       0.012790124 -0.026759757 -0.22469203 -0.23335998
0003c0 c2 64 c8 be 32 ff 7a 3e 13 0a 3f be 49 56 81 3e
       -0.39139372 0.24511412 -0.18656187 0.25261143
0003d0 05 9e 45 3e b2 ad 05 3e ab 6a a1 3d fa 70 a4 be
       0.19298561 0.13054541 0.078816734 -0.32117444
0003e0 4d 66 81 3e 63 23 3d 3d 41 33 53 be 5a 8a cb be
       0.25273362 0.046176326 -0.2062502 -0.3975399
0003f0 9b 9d 42 3f ef 90 4d 3e 81 32 e2 3e 4d 64 28 3e
       0.76021737 0.20074819 0.44179156 0.16444512

fc2.bias f4 [128]
000000 9e 95 91 bd db ba 34 3e e6 73 39 be 6c 7b 98 3d
       -0.07108615 0.17649405 -0.18110618 0.07445416
000010 28 c3 83 be a6 f3 1e 3d 88 7e d6 be ea 47 73 3e
       -0.2573483 0.03880658 -0.4189341 0.23757902
000020 84 74 a0 bd bd 23 b9 3d a9 c6 dc bd 58 28 b9 3d
       -0.078347236 0.0904002 -0.10780079 0.09040898
000030 5f 0b 15 bd d5 84 3a be 94 bb 02 3d 08 28 cb bc
       -0.036387797 -0.18214734 0.03191717 -0.024799362
000040 df b8 25 3e aa bf bc bd 83 cb 95 be 67 6c 9b be
       0.16183804 -0.092162445 -0.2925683 -0.30356142
000050 62 28 c8 3d b8 76 c6 3d 63 af 8a 3d 41 75 6e 3e
       0.097733274 0.096906126 0.067717336 0.23286916
000060 3f b5 90 be 3b b7 99 3a 30 bd aa bd 77 7c bd 3e
       -0.2826328 0.001172758 -0.08336866 0.37009022
000070 8b 93 e2 bd de ee 85 3d 18 5a c0 3c 05 a1 5f be
       -0.11063298 0.06539701 0.02348046 -0.21838768
000080 23 51 38 3e c6 79 d0 3c d5 18 95 3d 0a b4 1d 3e
       0.17999701 0.025448691 0.07280127 0.1540071
000090 3b 46 06 3c 15 90 10 be ee b6 84 be c4 84 65 bd
       0.008195455 -0.14117463 -0.25920814 -0.05603482
0000a0 04 d4 08 3e 1b 14 72 bd cb f4 00 3e 03 45 cd 3d
       0.13362128 -0.059101205 0.12593381 0.100229286
0000b0 9e ea 3b 3f 4c 87 08 3e a8 3f 15 bd 0a f8 77 3c
       0.7340487 0.13332862 -0.03643766 0.015134821
0000c0 ee 96 2b be 82 46 23 3e 8a 45 25 be ab c2 59 be
       -0.16756794 0.15944865 -0.16139808 -0.21265666
0000d0 4f 03 38 be 74 ac 4e be 60 2a 33 be c5 00 a2 3e
       -0.17970012 -0.20182973 -0.17496634 0.31641212
0000e0 76 dd 3d be 56 ea a6 bd 55 37 1e be 80 d7 b8 3e
       -0.18541512 -0.08150165 -0.15450795 0.36101913
0000f0 66 4e db bd e4 30 38 be 94 9b 91 3d 6b 34 0c be
       -0.10708313 -0.179874 0.07109752 -0.13691871
000100 9c 23 b5 bd d1 53 76 3d 40 e9 bc bd 35 91 b2 be
       -0.088446826 0.060138527 -0.092241764 -0.3487641
000110 4e ae bc 3d 69 85 ff 3b 6d d3 20 bd f0 7f de bd
       0.092129335 0.007797886 -0.03926413 -0.10864246
000120 a2 a9 8a bb bf ea 3f 3d 6c f5 c6 3d 3c 65 12 be
       -0.0042316476 0.04685473 0.09714779 -0.1429643
000130 6e 76 5a 3e ba 5a ab bd 28 5c d7 be cf ca 92 bd
       0.2133424 -0.08366914 -0.42062497 -0.07167589
000140 ab d2 73 3e 56 94 21 bb 31 1b 9a bd 25 cb d9 3d
       0.23810832 -0.0024655065 -0.075247176 0.1063445
000150 e7 46 b3 3d 85 20 26 3e 2d 9a b9 3d 50 d9 ce 3d
       0.08753758 0.16223343 0.0906261 0.10100043
000160 4f 51 72 3e f6 e8 a6 bd 8b 69 d4 bd 92 b5 d5 bd
       0.2366383 -0.081499025 -0.10371693 -0.104350224
000170 f9 72 c4 bc 19 2e 6d be d7 7b 98 3d b8 30 a3 bd
       -0.023980604 -0.23162116 0.074454956 -0.07968277
000180 e2 fa e1 3d f8 52 38 be cb cb b3 3d 47 6d 54 be
       0.1103418 -0.180004 0.08779105 -0.20744811
000190 9a 86 a3 bd f8 d0 b0 3c 8b 31 a5 bc b5 fd 9f be
       -0.079846576 0.021584019 -0.020165225 -0.3124825
0001a0 d1 08 45 be 94 13 17 bd 1e 62 36 3e b2 4a e8 3d
       -0.19241644 -0.036883906 0.17810866 0.11342372
0001b0 d0 bc d4 3d fb e1 1d be 2e 98 5c be 8b b4 28 3d
       0.103875756 -0.15418236 -0.21542427 0.041187804
0001c0 9b d9 fc 3d 9f c1 b8 be e6 2d 72 ba 08 e6 27 3e
       0.123461924 -0.3608522 -0.0009238407 0.16396344
0001d0 b3 99 fd bd 6a 36 ee bc 52 42 93 3d b5 a9 d8 3e
       -0.123828314 -0.029078681 0.07190384 0.42316976
0001e0 32 3d 94 be a6 6c 99 be c0 2b 3f be d2 78 35 be
       -0.28952938 -0.29965705 -0.18669033 -0.1772187
0001f0 2e cd a5 bd ca 82 53 be 33 ca e7 bd 27 8e a2 3e
       -0.080957755 -0.20655361 -0.11317863 0.3174908
