models/DiscreteCQL/models.pth (torch, 343578 bytes, 24 tensors)

fc1.weight f4 [128, 18]
0	0x3caa820b	0.020813962
1	0x3cd38a9f	0.025822936
2	0xbe3d6af9	-0.18497838
3	0xbd81ea7c	-0.063435525
4	0xbe94bd96	-0.29050893
5	0x3e0b8ccc	0.13627928
6	0xbe898b6d	-0.26864186
7	0x3d9e3147	0.07724243
8	0xbe25889e	-0.16165397
9	0x3e3778f7	0.17917238
10	0x3f0d5c0d	0.55218583
11	0x3c382473	0.011239159
12	0x3c65f324	0.01403502
13	0xbe85276a	-0.26006633
14	0x3c0e704e	0.008693768
15	0xbd4cd2ee	-0.050005846
16	0x3d7ffa06	0.0624943
17	0x3e43706d	0.19085856
18	0x3d3dd4e6	0.046345614
19	0x3ddbabcf	0.10726129
20	0xbe07dd33	-0.13267975
21	0x3d408a5f	0.04700696
22	0x3e99f2c3	0.30068025
23	0xbe407148	-0.18793213
24	0xbdd7fc7b	-0.10546204
25	0xbe73b5a2	-0.23799756
26	0x3e87a0f6	0.2648999
27	0x3db64825	0.08900479
28	0x3edc7f23	0.43065748
29	0x3d193707	0.037405994
30	0x3d31dc2e	0.04342287
31	0xbd07be62	-0.033140548
32	0x3e2b19a2	0.16708997
33	0x3d6fe69e	0.058569543
34	0xbdcdd4d9	-0.10050363
35	0x3d200df3	0.039075803
36	0x3d0c3d5f	0.034238216
37	0xbe683bab	-0.22679012
38	0x3daf4e52	0.0855986
39	0xbde24cc5	-0.11049799
40	0x3d9a9e06	0.07549672
41	0xbe22ce30	-0.15898967
42	0x3e55d95f	0.20883702
43	0x3d779ed1	0.060454194
44	0x3e3577d6	0.17721495
45	0x3d4b3fab	0.049621265
46	0x3d802715	0.06257454
47	0xbe7d5987	-0.24741183
48	0xbe2484ee	-0.16066334
49	0xbe79d151	-0.24396254
50	0x3e0ee5bc	0.13954824
51	0xbe48e6c7	-0.19619285
52	0x3ba39176	0.0049917055
53	0xbe4db333	-0.2008789
54	0x3dd0bbb3	0.10192051
55	0xbd8d0e80	-0.06887531
56	0x3d092815	0.03348549
57	0xbef6ee88	-0.4822886
58	0xbe997705	-0.29973617
59	0xbdfa2596	-0.122142
60	0x3e1b7647	0.15181838
61	0x3dc7fe30	0.09765279
62	0xbeef9970	-0.4679675
63	0xbb28aff1	-0.0025739635
64	0x3ea99cb2	0.33127362
65	0x3d5190da	0.05116353
66	0x3d426817	0.04746255
67	0xbd1b5aac	-0.03792827
68	0xbe0d1065	-0.13775785
69	0x3e2a444d	0.16627617
70	0xbe37d773	-0.17953281
71	0x3d27a1fb	0.04092596
72	0xbe113aca	-0.14182582
73	0xbc3ee194	-0.011650462
74	0xbd35a156	-0.044343315
75	0xbe9b4c0a	-0.3033145
76	0x3d5bd734	0.05367203
77	0xbeb53345	-0.35390678
78	0x3de0c42b	0.10974916
79	0x3e34ccd6	0.17656264
80	0x3e63d9fa	0.2225112
81	0x3e26d63e	0.16292664
82	0xbdd829a2	-0.10554816
83	0xbe84861e	-0.25883573
84	0x3da7f60a	0.08201225
85	0x3d38dec2	0.045134313
86	0xbd237aac	-0.03991191
87	0x3c44a7ab	0.012002866
88	0xbc20fa1b	-0.009825255
89	0xbe519227	-0.20465909
90	0xbd90f2d2	-0.07077564
91	0xbd11ec87	-0.03562596
92	0xbd2a63b3	-0.041598987
93	0x3da4e51b	0.08051511
94	0xbeb1abb5	-0.34701315
95	0xbe983b47	-0.29732725
96	0x3cdb5e93	0.026778495
97	0x3e0d6a24	0.1381002
98	0xbc57b770	-0.0131662935
99	0x3e2ae532	0.16688994
100	0x3e87b002	0.2650147
101	0x3d1de0c5	0.038544435
102	0xbd89e290	-0.067326665
103	0x3d8bb22c	0.06821093
104	0x3da271e7	0.079318814
105	0xbbf3c3bf	-0.0074391062
106	0xbc8bfae5	-0.01708741
107	0x3cae6ee8	0.021293119
108	0xbe2522cf	-0.1612656
109	0x3d996cbf	0.07491445
110	0xbe0de14d	-0.13855477
111	0x3e7cec1f	0.24699448
112	0xbdb72c74	-0.08944026
113	0x3e3c2d54	0.18376666
114	0x3dea7b88	0.11449343
115	0x3e97502f	0.29553363
116	0xbe2c8026	-0.1684576
117	0x3d3de027	0.046356346
118	0x3e63f6ee	0.22262165
119	0x3d84e29a	0.06488533
120	0x3d963c0e	0.07335673
121	0x3df7a97e	0.12092875
122	0xbe9938ee	-0.29926246
123	0x3c90d948	0.017681733
124	0xbe0d8db0	-0.1382358
125	0x3e38a2c4	0.1803084
126	0x3d378c5c	0.04481159
127	0x3c6cdce0	0.014456958
128	0x3e45bbbe	0.19309899
129	0x3bd25779	0.006419119
130	0xbdafc3f1	-0.08582295
131	0xbd056856	-0.032570206
132	0x3e2d9202	0.16950229
133	0xbeaca6d2	-0.33721024
134	0xbe066317	-0.13123737
135	0x3cb48e64	0.022040553
136	0x3d8486e4	0.06471041
137	0xbe03803a	-0.12841883
138	0x3cc80be5	0.024419734
139	0x3df401ea	0.119144276
140	0x3e42441c	0.18971294
141	0x3dd64dbb	0.10464045
142	0x3ccf6340	0.02531588
143	0x3d849924	0.06474522
144	0x3d423476	0.047413312
145	0xbdbfd772	-0.09367265
146	0xbc70b032	-0.014690446
147	0xbd6ec22f	-0.058290657
148	0xbdde292e	-0.10847698
149	0xbe104193	-0.14087515
150	0xbe44d147	-0.19220458
151	0x3e6b33ef	0.2296903
152	0x3dcf7b82	0.10130979
153	0xbe993cc0	-0.2992916
154	0x3eb622c8	0.3557341
155	0xbce164e5	-0.02751393
156	0xbe8242a1	-0.2544146
157	0x3c6c4e1f	0.014422922
158	0xbd5a6966	-0.053323172
159	0x3ba7b69a	0.0051182033
160	0xbc819024	-0.015815802
161	0xbe92acab	-0.2864736
162	0x3d8da787	0.06916719
163	0x3e4ea062	0.20178369
164	0x3e3e76ef	0.18600057
165	0xbe9f98bd	-0.31171218
166	0x3d87e89c	0.066361636
167	0xbdb0c07d	-0.08630464
168	0xbdea97b5	-0.11454717
169	0x3e165ebe	0.14684579
170	0x3e6b41f6	0.22974381
171	0xbcaefa1c	-0.021359496
172	0xbcb0e4ce	-0.021593478
173	0xba8f7b5c	-0.0010946798
174	0xbcb95d6a	-0.022627551
175	0x3e156d71	0.1459253
176	0x3e3a8b13	0.18217115
177	0xbdafd068	-0.08584672
178	0xbcc797c2	-0.024364356
179	0xbd7947c9	-0.060859475
180	0x3da83b09	0.08214385
181	0x3c9e6b21	0.019338192
182	0xbeade248	-0.339617
183	0xbd275a56	-0.040857635
184	0x3e8ad72f	0.27117297
185	0xbf22477d	-0.6339033
186	0xbe4abfa3	-0.19799666
187	0x3ca14e14	0.01969055
188	0xbd2eda08	-0.0426884
189	0x3daf419c	0.08557436
190	0x3e719200	0.23590851
191	0xbde02d68	-0.109461606
192	0x3c048cd4	0.008090217
193	0xbe0a30db	-0.134952
194	0xbdcc8e32	-0.09988059
195	0x3e2409e8	0.16019404
196	0x3c95fb59	0.018308328
197	0xbd17a0c9	-0.03701857
198	0xbe96f3ae	-0.29482788
199	0xbe7036ca	-0.234584
200	0xbeb77d34	-0.3583771
201	0xbe55fac0	-0.20896435
202	0xbd4af018	-0.049545377
203	0xbc01e468	-0.007927991
204	0xbd19d93e	-0.037560694
205	0xbe92fd74	-0.28708994
206	0x3e34d230	0.17658305
207	0x3dcb979a	0.09941025
208	0x3e36a219	0.17835273
209	0xbdcd604c	-0.10028133
210	0xbd976c8e	-0.07393752
211	0xbe21c1e7	-0.15796624
212	0x3e61908d	0.22027798
213	0x3e2a65e2	0.16640428
214	0xbca6a10f	-0.02034047
215	0x3e82592f	0.25458667
216	0x3d819d8d	0.063288786
217	0xbd949233	-0.07254448
218	0x3e91e609	0.28495815
219	0xbf1ba7aa	-0.6080271
220	0x3dfdfb99	0.12401504
221	0x3d8de88c	0.069291204
222	0x3e1b2ded	0.15154238
223	0x3c359d92	0.011084931
224	0x3ea613e1	0.3243704
225	0x3cab6af0	0.020925015
226	0xbd95e03a	-0.073181584
227	0x3d3a48fd	0.045479763
228	0x3e3a82d2	0.18213966
229	0xbd25395c	-0.040337905
230	0xbd8c4a8f	-0.068501584
231	0xbd0a26bf	-0.033728357
232	0x3e0aad1e	0.13542601
233	0xbc855b1f	-0.016278801
234	0x3dede25f	0.116154425
235	0x3dd89df0	0.10576999
236	0x3e86cb26	0.26326865
237	0xbe81cbd5	-0.25350824
238	0x3db9ca8d	0.090718366
239	0xbddbec1e	-0.10738395
240	0xbd2acad4	-0.04169734
241	0xbea1f7ac	-0.3163427
242	0x3e2a00ad	0.1660182
243	0xbd1a8f94	-0.037734583
244	0x3ddade39	0.10686917
245	0xbe1ced01	-0.15324785
246	0xbe0d48c9	-0.13797297
247	0xbe0c8450	-0.13722348
248	0x3e51de9d	0.20495076
249	0x3d9001dd	0.070316054
250	0xbe49ed0c	-0.19719332
251	0xbcc42463	-0.023943132
252	0x3e061daf	0.13097261
253	0xbe204d99	-0.15654601
254	0x3ecceb56	0.40023297
255	0x3e530f6d	0.20611353

fc1.bias f4 [128]
0	0x3e00a36e	0.12562343
1	0x3d0bc962	0.0341276
2	0x3e82009f	0.253911
3	0xbe3ee4ad	-0.1864192
4	0x3e28dd15	0.16490586
5	0xbe6ed214	-0.23322326
6	0x3e83f954	0.2577616
7	0xbdff6ea2	-0.124722734
8	0x3dcf9029	0.10134918
9	0x3e0f1f0d	0.13976689
10	0x3db67254	0.08908525
11	0x3e963fb3	0.29345474
12	0xbd95c05a	-0.07312079
13	0xbca64659	-0.020297216
14	0xbd1e0427	-0.03857818
15	0x3eb31b9b	0.34982
16	0x3e4677ac	0.19381589
17	0xbe542e64	-0.20720822
18	0x3b5bed0a	0.0033558034
19	0x3dd9080a	0.105972365
20	0x3e263695	0.16231759
21	0x3e0ce8d5	0.13760693
22	0x3e53239d	0.20619054
23	0x3e8e7e48	0.2783072
24	0xbdd326d6	-0.10310142
25	0x3cf6bb5d	0.030118639
26	0x3d93a330	0.0720886
27	0x3d6a7410	0.057239592
28	0xbcf8f6b4	-0.030391075
29	0x3e3a58f6	0.18197998
30	0x3d0c66be	0.03427767
31	0x3e56b3b7	0.20966993
32	0x3d9d8ca1	0.076928385
33	0xbdc847b7	-0.097793035
34	0xbe1e7537	-0.15474401
35	0xbce7f492	-0.028314862
36	0x3e8f25d4	0.27958548
37	0x3cb11c31	0.021619888
38	0x3e2fdb0c	0.17173404
39	0x3cfcbf04	0.030852802
40	0x3d03d0a2	0.03218139
41	0x3db8c5be	0.09022091
42	0x3df3ba35	0.119007505
43	0xbbd74c2d	-0.00657036
44	0x3e81b8a1	0.25336173
45	0x3dc7d443	0.097572826
46	0x3d83a1ae	0.06427322
47	0xbe01a8ff	-0.12662123
48	0x3e61ce5c	0.22051376
49	0x3e39629e	0.18104026
50	0xbe29646b	-0.16542213
51	0xbceefe5b	-0.02917402
52	0x3e6e65ec	0.23281068
53	0x3e7e1b2c	0.24815053
54	0xbe3f509f	-0.18683098
55	0xba9fa2db	-0.0012179272
56	0x3e511ae8	0.2042042
57	0x3e7dabee	0.24772617
58	0x3cc9de1d	0.024642045
59	0xbc62eebf	-0.013850867
60	0xbd30e499	-0.043186758
61	0xbe22ccee	-0.15898487
62	0xbce00d8f	-0.027350215
63	0x3e24bb35	0.16087039
64	0x3e8572c2	0.26064116
65	0x3dcc22c5	0.09967569
66	0x3e0c3ee0	0.1369586
67	0x3e8a2a7f	0.26985547
68	0x3e7dcf48	0.24786103
69	0xbe430a5e	-0.19046924
70	0x3e60dfe3	0.21960406
71	0x3daca9d4	0.0843083
72	0x3e0fa3a8	0.14027274
73	0x3e694613	0.22780637
74	0x3e4637ab	0.19357173
75	0x3d3a7428	0.04552093
76	0x3bf1b8e8	0.007376779
77	0x3da099b4	0.078418165
78	0x3d0017ac	0.031272575
79	0x3dfbf17f	0.12301921
80	0x3e7a96c8	0.24471581
81	0x3e6f76cc	0.23385161
82	0x3e35521a	0.177071
83	0x3d8d93d3	0.06912961
84	0xbc3c6786	-0.011499291
85	0x3d0b3d36	0.033993922
86	0xbe43c0f3	-0.19116573
87	0xbcaef92c	-0.021359049
88	0xbd8a9c02	-0.067680374
89	0x3db60294	0.088872105
90	0x3e00aeca	0.12566677
91	0x3dba3d03	0.09093668
92	0xbe322b7c	-0.173994
93	0x3e5b004d	0.21386833
94	0x3e4fe889	0.20303549
95	0x3e5464af	0.20741533
96	0xbe6377cc	-0.22213668
97	0x3e1c4e9e	0.15264365
98	0xbcc19b7d	-0.023633713
99	0xbd1696f5	-0.036765058
100	0x3e9b7893	0.30365428
101	0xbcbdae8f	-0.023154525
102	0xbd028272	-0.031862684
103	0x3d95eaca	0.07320173
104	0x3e09d991	0.13461901
105	0x3e6cf951	0.23141982
106	0xbbd855b6	-0.0066020144
107	0x3e4f07b3	0.20217781
108	0xbe01d373	-0.12678318
109	0x3ea6d7d3	0.32586536
110	0x3e3e6f4a	0.18597141
111	0x3d97c0dc	0.07409832
112	0x3e37eaac	0.17960614
113	0xbe9e201b	-0.3088387
114	0x3e8e9d8e	0.2785458
115	0x3e409a1e	0.18808791
116	0xbe57f9f3	-0.21091442
117	0x3e3d2389	0.18470587
118	0xbea55e3a	-0.32298452
119	0x3c83d903	0.01609469
120	0x3e94aca9	0.2903798
121	0xbe94c329	-0.29055145
122	0x3e90a22b	0.28248724
123	0xbe12093b	-0.14261334
124	0x3bf82c56	0.0075736446
125	0x3e372fb7	0.17889296
126	0x3d8e6053	0.06951966
127	0x3dcda0cc	0.10040435

fc2.weight f4 [128, 128]
0	0xbe605d43	-0.21910577
1	0xbce248ee	-0.027622666
2	0xbc89c0ac	-0.016815506
3	0xbe4f0b9f	-0.20219277
4	0xbd1a5be7	-0.0376853
5	0x3e18fc44	0.14939982
6	0x3db4c8be	0.08827351
7	0xbd53a632	-0.051672168
8	0xbd5ae0ca	-0.05343703
9	0x3d908646	0.070568606
10	0x3e5647c5	0.20925815
11	0xbdd6c1e1	-0.10486198
12	0x3e0931fc	0.13397974
13	0x3d8e0843	0.069351695
14	0xbda80732	-0.082044974
15	0x3e3a7c05	0.18211372
16	0x3cafa9a1	0.02144319
17	0x3c35f720	0.0111062825
18	0xbdfb8df3	-0.12282934
19	0x3de26419	0.11054248
20	0xbe64a88c	-0.2232992
21	0xbd8a04d2	-0.06739201
22	0xbd36264b	-0.044470113
23	0x3da704f4	0.081552416
24	0x3e1d8bc7	0.15385352
25	0xbc5279bc	-0.012846407
26	0x3de99703	0.11405756
27	0xbdec63ef	-0.11542498
28	0x3e270187	0.16309176
29	0x3d1bb18b	0.038011115
30	0x3d2b04dc	0.04175268
31	0x3e1cd0f7	0.15314089
32	0xbe0fdb01	-0.14048387
33	0xbabb9807	-0.0014312275
34	0xbba9bb71	-0.0051798155
35	0x3d588865	0.05286445
36	0x3cf40980	0.029789686
37	0x3e7dee96	0.24798045
38	0x3e452ac2	0.19254592
39	0xbe447701	-0.19186021
40	0xbe02e71d	-0.12783475
41	0x3dacc6c9	0.08436353
42	0x3d9502c6	0.072759196
43	0x3cc1fa04	0.023678787
44	0x3cc8d351	0.024514826
45	0x3dd95afa	0.106130555
46	0x3e43bf26	0.19115886
47	0xbe44bbb8	-0.19212234
48	0xbe14e753	-0.14541368
49	0xbdc615c9	-0.09672124
50	0x3e01c07d	0.12671085
51	0x3d24fb6d	0.04027884
52	0x3e997dda	0.2997883
53	0x3d8cef4f	0.06881582
54	0x3d9f8d7a	0.077906564
55	0x3e032649	0.12807573
56	0x3cef43d3	0.029207146
57	0xbe0ee8a3	-0.13955931
58	0x3e1abd88	0.15111363
59	0xbd9b48e9	-0.07582266
60	0xbcc68f55	-0.024238268
61	0xbdba0316	-0.0908262
62	0x3eaeade2	0.34117037
63	0xbe19d346	-0.15022
64	0x3ccb5d16	0.02482466
65	0xbd25fd8f	-0.040525015
66	0xbe0690f0	-0.13141227
67	0x3dab150e	0.08353625
68	0xbdca3396	-0.098731205
69	0x3e06bcbd	0.13157935
70	0x3e52e9fe	0.20597073
71	0x3d843464	0.06455305
72	0xbdfb9105	-0.1228352
73	0xbe755852	-0.23959473
74	0x3e6ceec8	0.23137963
75	0xbd7c4792	-0.061591692
76	0x3d6ff951	0.058587376
77	0x3daa59a8	0.08317882
78	0x3dd80501	0.105478294
79	0x3cfa9efc	0.030593388
80	0xbc8d4546	-0.017244946
81	0x3d0215ea	0.03175918
82	0xbc146f53	-0.009059745
83	0xbda6f6d1	-0.08152545
84	0xb9fb5532	-0.00047937926
85	0xbdd9784e	-0.106186494
86	0xbd63f03a	-0.05564902
87	0x3dbef367	0.09323769
88	0xbdada124	-0.08478001
89	0x3e0b4ff0	0.13604712
90	0xbd9c09cf	-0.07619058
91	0x3e662b92	0.22477558
92	0x3e1925b2	0.14955786
93	0xbc5d97c1	-0.0135249505
94	0xbdc4c469	-0.09607775
95	0xbe86ea8d	-0.26350823
96	0xbd58cf16	-0.052931868
97	0xbe32bfbc	-0.17455953
98	0xbd42ebb2	-0.047588058
99	0x3df99e78	0.12188429
100	0xbd622aef	-0.055216726
101	0x3ddcf020	0.10787988
102	0x3d2295fa	0.03969381
103	0x3cb13305	0.021630773
104	0x3dc2652f	0.094919555
105	0x3d085642	0.033285387
106	0x3b89a93a	0.0042010816
107	0xbd2b30e5	-0.041794676
108	0x3e55a0c5	0.2086211
109	0xbe4422e3	-0.19153933
110	0xbd7c0a3a	-0.06153319
111	0xbd9061fc	-0.07049939
112	0x3dc2317f	0.09482097
113	0x3c09e48b	0.008416305
114	0x3e1131ce	0.14179155
115	0x3d4e0a4e	0.050302796
116	0xbcda676e	-0.026660647
117	0x3e1bf0fd	0.15228648
118	0x3e52a028	0.20568907
119	0x3dc1cef2	0.094633
120	0x3e1dc387	0.15406619
121	0xbc481ebb	-0.012214358
122	0x3e43a10e	0.19104406
123	0x3d462548	0.048375398
124	0x3dd4e090	0.103943944
125	0xbd15833c	-0.036502108
126	0x3d421b26	0.047389172
127	0x3d0f4ba5	0.03498425
128	0x3e21b3c0	0.15791225
129	0xbe371aa4	-0.17881256
130	0x3dc43a07	0.0958138
131	0xbe17054c	-0.14748114
132	0x3a886658	0.0010406477
133	0x3d75e2d1	0.060030762
134	0x3e324f45	0.17413051
135	0x3ddafd0c	0.10692796
136	0xbd1857fa	-0.037193276
137	0x3de23dc5	0.11046938
138	0xbe257a1a	-0.1615986
139	0xbe68f479	-0.22749509
140	0xbb884352	-0.004158416
141	0x3dfe45f1	0.12415684
142	0xbe37dc9e	-0.17955253
143	0x3cd53ddf	0.026030479
144	0x3e559599	0.20857848
145	0x3e572e2a	0.21013704
146	0x3c4822c9	0.012215325
147	0xbd408b67	-0.047007944
148	0x3ce5b520	0.028040469
149	0xbe2d5211	-0.16925837
150	0x3e2675e3	0.16255908
151	0xbe038490	-0.12843537
152	0x3be79d68	0.007068325
153	0xbde4dd1d	-0.111749865
154	0xbd9e4340	-0.07727671
155	0x3ddafb79	0.10692496
156	0x3e2694de	0.16267726
157	0x3db587ce	0.08863793
158	0x3e337f81	0.17529108
159	0xbd4d23c6	-0.050082944
160	0x3ce876c8	0.028376952
161	0xbe263f89	-0.16235174
162	0xbe0b5727	-0.13607465
163	0x3ddb9552	0.1072184
164	0x3c735022	0.014850648
165	0xbe342084	-0.17590529
166	0x3d094d2c	0.033520862
167	0x3dae0980	0.08497906
168	0x3d83871c	0.064222544
169	0xbdecb732	-0.11558379
170	0x3d9ab640	0.07554293
171	0xbd1284f2	-0.035771318
172	0x3c85348e	0.016260412
173	0x3e06703b	0.1312875
174	0xbdcbb8ec	-0.099473804
175	0xbe3169ca	-0.17325512
176	0x3de389de	0.111102805
177	0x3dcf654c	0.10126743
178	0x3e496d9e	0.19670722
179	0xbd5391b4	-0.051652625
180	0xbbd5009f	-0.006500318
181	0x3e7507b2	0.23928717
182	0x3e378a4a	0.17923847
183	0xbd5bcbcd	-0.053661156
184	0x3c734154	0.014847118
185	0xbe374abc	-0.17899603
186	0xbdda18a2	-0.106492296
187	0xbc0f49a7	-0.008745587
188	0x3c9131fb	0.017724028
189	0xbc15ba73	-0.009138691
190	0xbd5b5104	-0.05354406
191	0x3e6fca3e	0.23416993
192	0xbd8577e0	-0.06517005
193	0xbd8cd873	-0.06877222
194	0x3d6502f3	0.055911016
195	0xbc06d4d2	-0.008229451
196	0x3c8616d8	0.016368315
197	0xbe2413d9	-0.16023196
198	0xbc08afed	-0.008342725
199	0xbe5d906b	-0.21637122
200	0x3d9aa12a	0.07550271
201	0x3df27d8a	0.11840351
202	0x3e277fca	0.16357341
203	0x3d2ab875	0.04167982
204	0x3dd5a59e	0.104319796
205	0x3e4273f3	0.18989544
206	0xbdd0a323	-0.10187366
207	0x3e2a9d28	0.16661513
208	0x3d1a1b09	0.03762344
209	0x3c661eaa	0.014045397
210	0xbc8897d1	-0.016673954
211	0xbd95a599	-0.07306976
212	0x3d15164b	0.036398213
213	0xbe5363f7	-0.20643602
214	0xbb95f5a8	-0.0045764036
215	0x3dfb42a1	0.12268568
216	0x3d45f680	0.048330784
217	0xbcb53717	-0.022120995
218	0x3dd97fd6	0.10620086
219	0xbc86a487	-0.016435875
220	0xbdb72f8e	-0.08944617
221	0xbbc24992	-0.0059291804
222	0xbdc8e4ef	-0.098092906
223	0x3baf4439	0.005348709
224	0x3c9192f0	0.01777026
225	0xbe03536d	-0.12824793
226	0xbe7b2b6c	-0.24528283
227	0xbcd953b5	-0.026529172
228	0xbe2937f6	-0.16525254
229	0x3e168cb9	0.14702119
230	0x3d3d9971	0.04628891
231	0x3d38be6d	0.04510348
232	0xbe07fd47	-0.13280211
233	0x3dbf59cc	0.09343299
234	0xbe3088ce	-0.17239687
235	0x3c832b27	0.016011788
236	0xbe177b70	-0.14793181
237	0x3b8661ce	0.0041010147
238	0xbd0e71ce	-0.0347765
239	0xbced92dd	-0.029000694
240	0x3dd8042e	0.10547672
241	0xbe241bf0	-0.16026282
242	0x3e1e2fbd	0.15447898
243	0x3c7359b0	0.014852926
244	0xbeb63e56	-0.35594434
245	0x3e1dbdef	0.15404485
246	0xbd526dbb	-0.05137418
247	0x3e576581	0.21034814
248	0x3e353952	0.17697647
249	0x3c8c8e93	0.017157828
250	0x3ec28aa7	0.37996408
251	0xbe5ab0c7	-0.21356498
252	0xbdff40b7	-0.12463515
253	0x3d613477	0.054981675
254	0x3d68232f	0.05667418
255	0xbd915471	-0.07096184

fc2.bias f4 [128]
0	0x3cf25907	0.029583467
1	0x3e3fcca6	0.18730411
2	0xbd0abc33	-0.033870887
3	0xbd8baeae	-0.06820427
4	0x3e4ad9f8	0.19809711
5	0x3d54d333	0.051959228
6	0x3d294b1c	0.041331396
7	0xbdb22c0e	-0.08699809
8	0xbdbf2137	-0.09332507
9	0x3c87f3ae	0.016595688
10	0xbd973f49	-0.073851176
11	0x3d32a22a	0.043611683
12	0xbca22b6f	-0.019796101
13	0xbd0e748f	-0.034779128
14	0xbda78260	-0.08179164
15	0xbd3bf515	-0.045888025
16	0x3d8cf262	0.06882168
17	0x3d794eb1	0.06086606
18	0xbd675196	-0.05647429
19	0xbc7f8054	-0.015594561
20	0x3d0dd6b7	0.034628596
21	0x3e011f92	0.126097
22	0xbd861201	-0.06546403
23	0x3da9abea	0.08284743
24	0xbd7532bf	-0.05986285
25	0xbd8fda01	-0.07024003
26	0xbdf3bd8f	-0.1190139
27	0x3d256c03	0.04038621
28	0xbdbc09cd	-0.09181557
29	0x3dd26814	0.102737576
30	0x3de5f9c1	0.112292774
31	0xbd4fed61	-0.05076349
32	0x3d935d19	0.07195491
33	0x3cb1e906	0.02171756
34	0x3e0fc240	0.14038944
35	0x3caf1a51	0.021374853
36	0x3d218f48	0.039443284
37	0x3e109606	0.1411973
38	0xbd08df4e	-0.033416085
39	0x3ce9748b	0.028497955
40	0x3dabbd6e	0.0838574
41	0x3cba61d8	0.022751734
42	0x3dbe325d	0.0928695
43	0x3df87715	0.12132088
44	0xbbdf5243	-0.0068152263
45	0xbda3a2bc	-0.079900235
46	0xbd12aebc	-0.03581117
47	0xbd7b3640	-0.061331034
48	0xbce564c4	-0.02800215
49	0x3d8706de	0.06593107
50	0xbd546979	-0.0518584
51	0x3d7fe909	0.0624781
52	0xbd85618c	-0.06512746
53	0xbc7e000b	-0.01550294
54	0x3c68a202	0.014198782
55	0xbd32f38e	-0.043689303
56	0x3daa4052	0.083130494
57	0x3bcb8d54	0.006211916
58	0xbdc0965e	-0.0940368
59	0x3d26507c	0.0406041
60	0xbc8ccfdc	-0.017188959
61	0x3df5ac0e	0.119957075
62	0xbcf0d30b	-0.029397508
63	0xbdd3c211	-0.103397496
64	0xbd3c1d42	-0.04592634
65	0x3d630ae5	0.05543031
66	0xbd4bdfd1	-0.049773995
67	0xbda2e973	-0.07954683
68	0x3c68b529	0.014203348
69	0x3dba2de3	0.090907834
70	0x3da1e765	0.07905463
71	0x3e6630a7	0.22479497
72	0x3d95b246	0.073093936
73	0xbdd57a59	-0.104237266
74	0xbd89b8f7	-0.06724732
75	0xbdbeb5ec	-0.093120426
76	0xbc9590f0	-0.018257588
77	0x3d3df47d	0.04637574
78	0x3db4f29f	0.08835339
79	0xbc4d80b3	-0.012542891
80	0x3def0293	0.11670413
81	0x3b068f01	0.0020532014
82	0x3d2995c6	0.0414026
83	0xbd534156	-0.05157598
84	0xbbe203a5	-0.006897407
85	0xbe0efab6	-0.13962826
86	0x3caee246	0.02134813
87	0x3e1bed01	0.15227129
88	0x3d86ea95	0.06587712
89	0xbd886156	-0.0665919
90	0x3df15184	0.11783126
91	0xbd33fef6	-0.04394432
92	0xbd515346	-0.051104806
93	0x3db46b83	0.08809569
94	0x3e05cc9c	0.13066334
95	0x3dc59418	0.09647387
96	0xbda721fc	-0.08160779
97	0x3c746e49	0.014918872
98	0xbd8a872e	-0.06764065
99	0x3d7cbfc5	0.061706323
100	0xbd59d224	-0.05317892
101	0xbc8db469	-0.01729794
102	0x3aeb5e19	0.001795712
103	0xbca5cadb	-0.02023833
104	0xbd9be1f8	-0.076114595
105	0x3cec87db	0.028873375
106	0xbd66aad6	-0.056315266
107	0xbddd51eb	-0.1080664
108	0xbbabbff7	-0.00524139
109	0x3bd6fc43	0.0065608337
110	0xbdd325ae	-0.10309921
111	0xbd679cd6	-0.056546055
112	0xbd56ea32	-0.05246944
113	0xbd57b0ec	-0.05265896
114	0x3ce8dee6	0.028426599
115	0xbd07fd40	-0.033200502
116	0xbd3f5fbe	-0.046722166
117	0x3a0441d4	0.00050452095
118	0x3d7e4a3c	0.062082514
119	0xbd66f725	-0.05638804
120	0x3cdd8664	0.027041622
121	0x3d9a0168	0.075197995
122	0xbd5b18f0	-0.05349058
123	0x3cd9e101	0.026596548
124	0x3d7404e7	0.059574988
125	0x3d14665f	0.03623044
126	0x3e1fd7d6	0.15609679
127	0xbca89f45	-0.020583758

fc3.weight f4 [16, 128]
0	0x3a9ba48c	0.00118746
1	0xb9dee8e2	-0.0004251665
2	0xbb9e8674	-0.0048378054
3	0x3b122600	0.0022300482
4	0x3c28a827	0.010293997
5	0x3c31de44	0.010856215
6	0xbba5e879	-0.0050631133
7	0xbba7c867	-0.0051203254
8	0xbbbb4cb9	-0.005715933
9	0x3c06728e	0.008206023
10	0xbb23e077	-0.0025005618
11	0x3b9092dd	0.0044120387
12	0x398f0f2e	0.00027286395
13	0xbb50db6c	-0.0031869067
14	0x3c29d699	0.0103661055
15	0x3b168eb4	0.0022973241
16	0xbb7aeafc	-0.0038287034
17	0x3c27e3b8	0.0102471635
18	0xbbcd368c	-0.006262606
19	0x3c055ee4	0.0081402995
20	0x3b3e3ce6	0.0029027998
21	0x3b96673c	0.004589943
22	0x3bdbcd59	0.006707829
23	0xbc007c05	-0.007842069
24	0xbbd14db7	-0.006387438
25	0x3c0d91c5	0.008640711
26	0xbb38ce4d	-0.0028199137
27	0x39c84f67	0.00038206132
28	0x3c134fad	0.008991164
29	0x3bef2418	0.007298004
30	0x3bd556c3	0.006510587
31	0xbb8e9c4c	-0.004352128
32	0xbba33319	-0.0049804565
33	0xbb048a6e	-0.0020224112
34	0x3a08ef8c	0.00052236835
35	0xbb9dab4a	-0.004811679
36	0xbb817a01	-0.0039513116
37	0xbbe461e9	-0.0069696796
38	0xbc124f3a	-0.008930022
39	0xbbf01fc9	-0.007328008
40	0xbbf09682	-0.0073421607
41	0xba7b8134	-0.0009594143
42	0x3ba454f3	0.0050150095
43	0xbb42b27f	-0.0029708443
44	0x3bce6037	0.006298091
45	0x3bc812be	0.00610575
46	0x3adc5dc6	0.0016812615
47	0xbaf4c36c	-0.0018673963
48	0xb92ade80	-0.00016295351
49	0x3b97db11	0.004634269
50	0x3c0476aa	0.008084932
51	0xba687b22	-0.0008868446
52	0xbb97e806	-0.0046358136
53	0x3b823c1f	0.003974452
54	0x3b69df5a	0.0035686106
55	0xb946fc68	-0.0001897678
56	0x3bc9d8d8	0.006159883
57	0x3c031ee1	0.008002968
58	0x3bfe0070	0.007751517
59	0x3c11946d	0.008885485
60	0x3be940c6	0.0071183173
61	0x3a59a443	0.000830237
62	0xbbd3c364	-0.0064625014
63	0x3a65e503	0.0008769782
64	0xba6f304f	-0.0009124325
65	0xbb0eaebf	-0.0021771637
66	0xbc04201e	-0.008064298
67	0x3ab697b1	0.0013930706
68	0x3bd4161b	0.0064723617
69	0xbbd98977	-0.0066387015
70	0xbb82a0c1	-0.0039864485
71	0x3b676553	0.0035308197
72	0xba702b07	-0.0009161685
73	0xbbb21c6c	-0.005435517
74	0xbc0aded7	-0.008475981
75	0x3c016aa4	0.00789896
76	0xbbe8d5b9	-0.007105556
77	0x3c09836d	0.008393151
78	0xbb8abef0	-0.0042341873
79	0x3c00e61a	0.0078673605
80	0x3c17a3fb	0.009255405
81	0xbc0cce87	-0.008594162
82	0x3bde5fb9	0.0067863134
83	0xb7c618ad	-2.361493e-05
84	0xbb978c1d	-0.004624857
85	0x3c38eea5	0.011287366
86	0x3b53d78b	0.0032324519
87	0xbac36a59	-0.0014909013
88	0x3b560a98	0.0032660123
89	0xb9e26de7	-0.00043187963
90	0x3c159d3c	0.009131726
91	0x3bb7d22a	0.0056097703
92	0xbba1671e	-0.0049256226
93	0xbb702d2f	-0.0036648025
94	0x3bd83dd0	0.0065991655
95	0x3c2da9b4	0.010599542
96	0x3b55bd67	0.0032614113
97	0xbb92c24b	-0.004478728
98	0x3bf5e9f3	0.0075046956
99	0x38828a3e	6.224633e-05
100	0xbb470006	-0.0030365004
101	0xbc04751b	-0.008084561
102	0x3c2a4747	0.01039297
103	0x3bee75c3	0.007277222
104	0x3c001d6a	0.007819513
105	0x390c8fa7	0.00013404955
106	0xbb27b031	-0.0025587196
107	0xbacca3f2	-0.0015612824
108	0xbb1170d9	-0.0022192507
109	0x3bba820a	0.0056917714
110	0xbbfb93e3	-0.0076775416
111	0xbbabab17	-0.0052389014
112	0x3b7eda35	0.0038887386
113	0x3bf44aaf	0.007455192
114	0xbb399cea	-0.0028322288
115	0x3a61a913	0.0008608263
116	0x3bfca213	0.0077097504
117	0x3b48f223	0.0030661903
118	0xbbf1093a	-0.007355836
119	0xbc083d6c	-0.008315425
120	0xbb4eac83	-0.003153593
121	0x37317e37	1.0579409e-05
122	0x3b64c594	0.0034907805
123	0x3c0e2812	0.008676546
124	0x3c15bf1f	0.009139805
125	0xbb54344c	-0.0032379804
126	0x398cb20c	0.00026835536
127	0x3c2a4608	0.010392673
128	0x3d4d3b51	0.050105397
129	0x3d836b9a	0.06417008
130	0xbd365e42	-0.044523485
131	0xbd9c148a	-0.07621105
132	0x3d8c4040	0.06848192
133	0xbd1f30a7	-0.038864758
134	0xbd5dd035	-0.05415364
135	0xbd6e185d	-0.058128703
136	0xbe26be07	-0.16283427
137	0xbc7629e5	-0.015024637
138	0xbb53ad3d	-0.0032299303
139	0xbd09c3c4	-0.033633962
140	0xbd28eab0	-0.04123944
141	0xbd7ac572	-0.061223455
142	0xbc8e4eab	-0.017371496
143	0x3cbf89e4	0.023381181
144	0xbd18193d	-0.037133444
145	0x3d239d56	0.03994497
146	0xbd54572e	-0.051840954
147	0xbdacd63c	-0.084392995
148	0x3baaad7c	0.005208669
149	0x3d90794d	0.07054386
150	0xbdd0ce25	-0.10195569
151	0xbe208e62	-0.15679315
152	0xbe4a9faf	-0.19787477
153	0xbe67f4f1	-0.22652031
154	0xbdb542cc	-0.08850631
155	0xbd5f3b86	-0.054500125
156	0xbe01069f	-0.12600182
157	0xbe05dee8	-0.13073313
158	0xbd311151	-0.043229405
159	0xbe393090	-0.18084931
160	0x3dc0e9ae	0.09419571
161	0x3d04edd6	0.03245338
162	0x3dcab981	0.09898663
163	0x3dbcc221	0.09216715
164	0x3b2fec58	0.0026843753
165	0x3b69fc34	0.0035703303
166	0xbe4bbf4d	-0.19897194
167	0x3b877008	0.004133228
168	0x3d0d72a5	0.03453316
169	0x3cbda241	0.023148658
170	0x3dc44b33	0.095846556
171	0x3de0ae74	0.10970774
172	0x3e102703	0.14077382
173	0x3a9d7d0b	0.0012015415
174	0xbd4df27c	-0.05028008
175	0xbe2f1219	-0.17096747
176	0xbb18c434	-0.0023310306
177	0xbe056e01	-0.13030244
178	0x3d870ccc	0.06594238
179	0xbe2d185d	-0.16903825
180	0xbdefb3f9	-0.11704249
181	0x3da92eca	0.082608774
182	0xbd051cc0	-0.03249812
183	0x3b5b05bb	0.0033420164
184	0x3c584c65	0.013201808
185	0x3d654cf6	0.0559816
186	0xbd42f514	-0.047597006
187	0xbec4fa14	-0.38472044
188	0xbd9e7691	-0.077374585
189	0x3de840eb	0.11340507
190	0xbd732414	-0.05936058
191	0x3ca8d05d	0.020607168
192	0xbcd3dd1f	-0.025862275
193	0xbe1bcbae	-0.15214416
194	0xbdbd2b40	-0.09236765
195	0x3cde2128	0.02711542
196	0x3d8e9a5a	0.06963034
197	0xbca56f2b	-0.02019461
198	0x3c2aeace	0.010431958
199	0x3e31cb88	0.17362797
200	0x3de6bfa0	0.11267018
201	0xbcef580c	-0.029216789
202	0xbec2a2f9	-0.38014963
203	0xbe176a9a	-0.14786759
204	0xbdaec722	-0.08534075
205	0x3dc8524d	0.09781323
206	0xbdb8326e	-0.08993994
207	0x3d83dea2	0.06438948
208	0x3d3d7e0a	0.04626278
209	0xbe66ba58	-0.22532022
210	0xbcb71130	-0.022347063
211	0xbdbd534c	-0.09244403
212	0x3d88e0f1	0.06683529
213	0xbd4e0467	-0.050297167
214	0x3dae75c5	0.085185565
215	0x3dc282c5	0.094975986
216	0xbd57e87c	-0.05271195
217	0x3d275d74	0.04086061
218	0x3db6b4d5	0.0892121
219	0xbd57e331	-0.0527069
220	0xbca75ac0	-0.020429015
221	0x3dd4dd4c	0.103937715
222	0x3dc062bd	0.09393833
223	0xbd9eb08e	-0.07748519
224	0xbdfe3717	-0.12412851
225	0x3d2d3126	0.0422832
226	0x3dd7a44a	0.105293825
227	0xbe110f2c	-0.14165944
228	0xbe8579af	-0.260694
229	0x3bd5c26b	0.0065234206
230	0x3d55a0f4	0.05215545
231	0xbe368bc8	-0.1782676
232	0x3d1aaa1d	0.03775989
233	0xbd29d56a	-0.041463293
234	0x3cc0145a	0.023447204
235	0xbe202d3d	-0.15642257
236	0xbd9d384e	-0.07676755
237	0x3b990063	0.0046692356
238	0x3e878698	0.26469874
239	0xbdb4e1a4	-0.088321
240	0xbe3f0492	-0.18654087
241	0xbd223041	-0.0395968
242	0x3d5f4270	0.05450672
243	0xbd21ab2b	-0.03946988
244	0xbdda0ad2	-0.10646595
245	0x3c01fd3e	0.007933913
246	0xbc17bc0d	-0.009261143
247	0x3d453a6d	0.048151422
248	0x3dc24ec7	0.09487682
249	0xbd325a01	-0.043542866
250	0xbe3191e2	-0.17340806
251	0x3da1b74e	0.07896291
252	0x3dc48c26	0.09597044
253	0xbf0aaa21	-0.54165846
254	0x3c58d6bc	0.01323479
255	0x3d919e79	0.071103044

fc3.bias f4 [16]
0	0x3c308681	0.010774256
1	0x3d73d80a	0.059532203
2	0x3d72207a	0.059113003
3	0x3d4d164a	0.050070085
4	0x3d88d544	0.06681302
5	0xbb8f7311	-0.0043777307
6	0x3c56a4d5	0.013100822
7	0xbd11706e	-0.035507612
8	0xbc8313b5	-0.016000608
9	0xbbc7e2e4	-0.0061000455
10	0xbd17c624	-0.037054196
11	0x3d2a8b93	0.041637015
12	0x3b9763b4	0.00462004
13	0x3c4004c9	0.011719891
14	0x3d8ef9bd	0.069812275
15	0x3ce1595f	0.027508436

fc1.weight f4 [128, 18]
0	0x3ca7fef6	0.020507317
1	0x3cd23366	0.025659274
2	0xbe3de36a	-0.18543783
3	0xbd8305fc	-0.06397626
4	0xbe94c28a	-0.29054672
5	0x3e0c0413	0.13673429
6	0xbe89b09b	-0.26892552
7	0x3d9f3de7	0.07775479
8	0xbe25423b	-0.16138546
9	0x3e37a7e6	0.17935142
10	0x3f0d4aee	0.5519246
11	0x3c390d05	0.011294608
12	0x3c6332b1	0.013867066
13	0xbe850672	-0.2598148
14	0x3c08c8a2	0.008348616
15	0xbd4c81b9	-0.0499284
16	0x3d7ecbc6	0.062206052
17	0x3e434238	0.19068229
18	0x3d3b36be	0.045706503
19	0x3dda92f4	0.1067256
20	0xbe082e13	-0.13298826
21	0x3d40f089	0.047104392
22	0x3e99d782	0.30047232
23	0xbe40786f	-0.18795942
24	0xbdd90e53	-0.10598435
25	0xbe73eec7	-0.23821555
26	0x3e87be3c	0.26512325
27	0x3db6fd2c	0.089350075
28	0x3edc2cb4	0.43002856
29	0x3d1a0ea5	0.037611622
30	0x3d33c9ba	0.043893553
31	0xbd06208e	-0.03274589
32	0x3e2b9577	0.16756235
33	0x3d71ced5	0.05903514
34	0xbdccfc51	-0.10009063
35	0x3d208f32	0.03919906
36	0x3d0d55b2	0.034505554
37	0xbe68368a	-0.22677055
38	0x3daf16bb	0.08549257
39	0xbde3a415	-0.111152805
40	0x3d9a87e3	0.075454496
41	0xbe22c4d9	-0.15895404
42	0x3e561868	0.20907748
43	0x3d78c8c8	0.060738355
44	0x3e35cf3f	0.1775484
45	0x3d4aa5a2	0.049474366
46	0x3d7d4f12	0.061842985
47	0xbe7d4c93	-0.24736242
48	0xbe24e8b8	-0.161044
49	0xbe796742	-0.24355796
50	0x3e0eeb60	0.13956976
51	0xbe4935b1	-0.19649388
52	0x3b8e42d9	0.004341465
53	0xbe4d9826	-0.20077571
54	0x3dcf36b1	0.101178534
55	0xbd8ddb52	-0.06926598
56	0x3d07f390	0.033191264
57	0xbef6c4cb	-0.48197016
58	0xbe9973e7	-0.2997124
59	0xbdf9cec0	-0.121976376
60	0x3e1abf95	0.15112145
61	0x3dc82a8d	0.09773741
62	0xbeefb2e2	-0.46816164
63	0xbb23d15a	-0.002499661
64	0x3ea9ada7	0.331403
65	0x3d504675	0.050848443
66	0x3d42bc0f	0.047542628
67	0xbd197b2c	-0.03747098
68	0xbe0cf9ed	-0.13767214
69	0x3e2a8326	0.16651592
70	0xbe37cd1b	-0.17949335
71	0x3d27307c	0.040817723
72	0xbe114f00	-0.14190292
73	0xbc4342ce	-0.011917783
74	0xbd34762e	-0.044058017
75	0xbe9b59e6	-0.30342025
76	0x3d5e8ffa	0.054336525
77	0xbeb4d715	-0.35320345
78	0x3de0b86f	0.10972678
79	0x3e34cc9f	0.17656182
80	0x3e63f727	0.2226225
81	0x3e277a71	0.16355301
82	0xbdd94bd9	-0.1061017
83	0xbe84796a	-0.25873882
84	0x3da7b17b	0.081881486
85	0x3d374ac6	0.044749044
86	0xbd218d41	-0.03944135
87	0x3c459691	0.012059824
88	0xbc1ff9d2	-0.009764152
89	0xbe5179f9	-0.20456685
90	0xbd90e296	-0.07074468
91	0xbd12f145	-0.035874624
92	0xbd2a9042	-0.04164148
93	0x3da4d03e	0.080475315
94	0xbeb1a360	-0.34694958
95	0xbe9814b3	-0.29703292
96	0x3cd86d3e	0.026419278
97	0x3e0d695e	0.13809726
98	0xbc52b77a	-0.012861127
99	0x3e2adafc	0.16685098
100	0x3e87aad0	0.26497507
101	0x3d1d995f	0.038476344
102	0xbd8a1676	-0.06742565
103	0x3d8c37e7	0.068466
104	0x3da36f7a	0.07980247
105	0xbbf566a8	-0.007489044
106	0xbc8ba53d	-0.017046565
107	0x3cb08420	0.021547377
108	0xbe249977	-0.16074167
109	0x3d99d854	0.075119644
110	0xbe0dd8c9	-0.13852228
111	0x3e7c8cfb	0.24663155
112	0xbdb7e53d	-0.089792706
113	0x3e3bbfc0	0.18334866
114	0x3deb0f71	0.114775546
115	0x3e97488a	0.2954753
116	0xbe2c9f83	-0.16857724
117	0x3d3d2287	0.046175506
118	0x3e642636	0.22280201
119	0x3d84c625	0.064831056
120	0x3d950933	0.07277145
121	0x3df7e19f	0.12103581
122	0xbe998421	-0.2998362
123	0x3c8ead43	0.017416602
124	0xbe0eb040	-0.13934422
125	0x3e384112	0.17993572
126	0x3d39a321	0.045321587
127	0x3c74e38f	0.014946832
128	0x3e465a88	0.19370472
129	0x3bc12759	0.005894583
130	0xbdb0f177	-0.08639806
131	0xbd058c1b	-0.032604318
132	0x3e2de10f	0.16980384
133	0xbeac8148	-0.33692384
134	0xbe05d17b	-0.13068192
135	0x3cb64909	0.022251623
136	0x3d8277d0	0.06370509
137	0xbe03390a	-0.12814727
138	0x3cc5bef6	0.024138909
139	0x3df53238	0.11972469
140	0x3e423f29	0.18969406
141	0x3dd6af4a	0.104826525
142	0x3ccf276a	0.025287349
143	0x3d8487fb	0.06471249
144	0x3d4126a8	0.047156006
145	0xbdc07297	-0.09396856
146	0xbc74ea1e	-0.014948396
147	0xbd6faad4	-0.058512524
148	0xbddd98ba	-0.10820146
149	0xbe0ffbc9	-0.14060892
150	0xbe44f9a9	-0.19235863
151	0x3e6b92e7	0.23005258
152	0x3dcffca3	0.101556085
153	0xbe993d09	-0.2992938
154	0x3eb5ff48	0.35546327
155	0xbcdfbeaa	-0.027312595
156	0xbe8224d4	-0.25418723
157	0x3c71b144	0.014751736
158	0xbd590bdb	-0.052989822
159	0x3ba9a794	0.0051774476
160	0xbc80906a	-0.015693862
161	0xbe9293e8	-0.2862847
162	0x3d8eeb4e	0.069784746
163	0x3e4f144d	0.20222588
164	0x3e3f3380	0.1867199
165	0xbe9faaa8	-0.31184888
166	0x3d896f73	0.067107104
167	0xbdb075fe	-0.08616255
168	0xbde9e612	-0.114208356
169	0x3e169c39	0.14708032
170	0x3e6af974	0.22946721
171	0xbcb28cf7	-0.021795733
172	0xbcb50f18	-0.022101924
173	0xba81b699	-0.0009896337
174	0xbcbc7df5	-0.02300928
175	0x3e14fce9	0.14549603
176	0x3e3a9d45	0.18224056
177	0xbdb10160	-0.086428404
178	0xbcccb5ee	-0.024989095
179	0xbd79dd9a	-0.06100235
180	0x3da7f14d	0.08200321
181	0x3c9c83ff	0.01910591
182	0xbeadfe3e	-0.33983034
183	0xbd27d9bf	-0.040979143
184	0x3e8ae238	0.27125716
185	0xbf2243b7	-0.63384575
186	0xbe4ab457	-0.19795357
187	0x3c9de895	0.019275943
188	0xbd2f371a	-0.04277716
189	0x3daf31fd	0.085544564
190	0x3e7177ed	0.23580904
191	0xbddf1da4	-0.108943254
192	0x3c0b03a7	0.0084847575
193	0xbe0af678	-0.13570583
194	0xbdcb0713	-0.09913459
195	0x3e24166c	0.16024178
196	0x3c99d165	0.018776605
197	0xbd167f42	-0.036742456
198	0xbe97138e	-0.29507107
199	0xbe705888	-0.23471272
200	0xbeb77d4a	-0.35837775
201	0xbe55fe49	-0.20897783
202	0xbd4a4f58	-0.049392074
203	0xbbff7de3	-0.0077969893
204	0xbd19f90d	-0.03759103
205	0xbe9305d4	-0.28715384
206	0x3e34e620	0.1766591
207	0x3dcbe372	0.09955491
208	0x3e373b1b	0.1789364
209	0xbdcd850c	-0.10035142
210	0xbd96c253	-0.07361283
211	0xbe21a414	-0.15785247
212	0x3e624429	0.22096314
213	0x3e2a8452	0.16652039
214	0xbca34438	-0.01992999
215	0x3e825eba	0.25462896
216	0x3d813c3a	0.063103154
217	0xbd94b03b	-0.07260176
218	0x3e91ece9	0.2850106
219	0xbf1b80a3	-0.6074316
220	0x3dfe5cbe	0.12420033
221	0x3d8e26be	0.06940983
222	0x3e1b0b1b	0.15140955
223	0x3c3e5597	0.011617086
224	0x3ea603ee	0.32424873
225	0x3cacb03e	0.021080133
226	0xbd95baf0	-0.07311046
227	0x3d3b197a	0.045678593
228	0x3e3a21fe	0.1817703
229	0xbd2561f1	-0.040376607
230	0xbd8d4e09	-0.0689965
231	0xbd0aa675	-0.033850152
232	0x3e0a78ca	0.1352264
233	0xbc8578e7	-0.016293002
234	0x3dee7e96	0.11645238
235	0x3dd8cbb5	0.10585729
236	0x3e86d531	0.26334527
237	0xbe81eca0	-0.25375843
238	0x3db915d4	0.090373665
239	0xbddc3081	-0.10751439
240	0xbd289c77	-0.04116484
241	0xbea20827	-0.31646845
242	0x3e29c7ee	0.16580173
243	0xbd1ba2f6	-0.03799721
244	0x3dda0dd3	0.10647168
245	0xbe1cd950	-0.15317273
246	0xbe0d52a7	-0.1380106
247	0xbe0c2b06	-0.13688287
248	0x3e51da69	0.20493473
249	0x3d90bca1	0.07067228
250	0xbe499e5f	-0.1968932
251	0xbcc5f2e6	-0.024163675
252	0x3e05e90c	0.13077182
253	0xbe2037ca	-0.15646282
254	0x3eccd135	0.40003362
255	0x3e535348	0.20637238

fc1.bias f4 [128]
0	0x3e00d149	0.12579836
1	0x3d0be482	0.03415347
2	0x3e822917	0.25421974
3	0xbe3f015e	-0.18652865
4	0x3e2914a1	0.16511776
5	0xbe6ed897	-0.2332481
6	0x3e843349	0.25820377
7	0xbdfefbbf	-0.124503605
8	0x3dcf18c0	0.101121426
9	0x3e0f8db6	0.14018902
10	0x3db6844a	0.08911951
11	0x3e9627f2	0.2932735
12	0xbd959f16	-0.07305734
13	0xbca68f14	-0.020331897
14	0xbd1f1706	-0.038840316
15	0x3eb31318	0.34975505
16	0x3e46d200	0.19416046
17	0xbe53c0c3	-0.20679002
18	0x3b70d884	0.0036750147
19	0x3dd9a96e	0.10628019
20	0x3e25e219	0.1619953
21	0x3e0c71ea	0.1371533
22	0x3e533110	0.20624185
23	0x3e8e74e0	0.27823544
24	0xbdd3a1cc	-0.10333595
25	0x3cf70c1b	0.03015714
26	0x3d92d78b	0.07170018
27	0x3d6a8cf2	0.057263322
28	0xbcf86623	-0.03032214
29	0x3e3ad0e8	0.18243754
30	0x3d0c105e	0.034195296
31	0x3e56bf0c	0.20971316
32	0x3d9dfacb	0.077138506
33	0xbdc923e0	-0.09821296
34	0xbe1e6698	-0.15468824
35	0xbce85a94	-0.028363504
36	0x3e8f6094	0.2800337
37	0x3cacb7ad	0.021083677
38	0x3e2fa379	0.17152204
39	0x3d0002b4	0.031252578
40	0x3d041de7	0.03225508
41	0x3db99457	0.09061497
42	0x3df3d6bf	0.11906194
43	0xbbda3753	-0.006659427
44	0x3e81badd	0.25337878
45	0x3dc7e29b	0.097600184
46	0x3d827860	0.06370616
47	0xbe019e7d	-0.12658115
48	0x3e61ab03	0.22037892
49	0x3e398f5a	0.1812109
50	0xbe292566	-0.16518173
51	0xbcf242bc	-0.029572837
52	0x3e6ec746	0.23318204
53	0x3e7e96cf	0.24862216
54	0xbe3fed64	-0.18742901
55	0xba9fe6f1	-0.0012199563
56	0x3e5113fe	0.20417783
57	0x3e7d90cc	0.24762267
58	0x3cc5db3e	0.024152394
59	0xbc62690f	-0.013818993
60	0xbd305fe2	-0.04306019
61	0xbe227ebc	-0.15868658
62	0xbce27faf	-0.027648775
63	0x3e2500e5	0.16113622
64	0x3e85596f	0.26044795
65	0x3dcbd415	0.09952561
66	0x3e0c9452	0.13728455
67	0x3e8a3c37	0.26999065
68	0x3e7e599b	0.2483887
69	0xbe42ae35	-0.19011767
70	0x3e610fcf	0.21978687
71	0x3dac79d7	0.084216766
72	0x3e0fea9d	0.14054342
73	0x3e691410	0.2276156
74	0x3e467836	0.19381794
75	0x3d395f88	0.04525712
76	0x3beb0ca6	0.0071731387
77	0x3da07dab	0.07836469
78	0x3d00b0f5	0.03141876
79	0x3dfc9c47	0.12334495
80	0x3e7af5eb	0.24507873
81	0x3e6fd7e0	0.23422194
82	0x3e359060	0.17730856
83	0x3d8e5e30	0.069515586
84	0xbc3b0664	-0.011415098
85	0x3d0a08ff	0.033699986
86	0xbe43b29f	-0.19111107
87	0xbcad5369	-0.021157937
88	0xbd8a34f1	-0.06748379
89	0x3db55e74	0.08855906
90	0x3e00b571	0.12569214
91	0x3dba9e0a	0.09112175
92	0xbe31e3cc	-0.17372054
93	0x3e5b57f4	0.2142027
94	0x3e4feedd	0.20305963
95	0x3e543029	0.20721497
96	0xbe63587d	-0.22201724
97	0x3e1c3309	0.15253843
98	0xbcc65e90	-0.024215013
99	0xbd17a07e	-0.03701829
100	0x3e9b794e	0.30365986
101	0xbcc18e67	-0.023627473
102	0xbd010128	-0.031495243
103	0x3d9581f8	0.0730018
104	0x3e09c16a	0.13452688
105	0x3e6cc55d	0.23122163
106	0xbbdc41ad	-0.0067216964
107	0x3e4f04e0	0.20216703
108	0xbe022fe4	-0.12713581
109	0x3ea6f6ac	0.3261007
110	0x3e3e9b77	0.18613993
111	0x3d988bab	0.074485146
112	0x3e37bafe	0.17942426
113	0xbe9e2730	-0.30889273
114	0x3e8ecfad	0.2789282
115	0x3e40da54	0.18833286
116	0xbe586254	-0.21131259
117	0x3e3d40a8	0.18481696
118	0xbea59a37	-0.3234422
119	0x3c829df4	0.015944459
120	0x3e94da39	0.2907274
121	0xbe94a310	-0.29030657
122	0x3e90ce63	0.2828246
123	0xbe12918d	-0.14313336
124	0x3c02230c	0.007942926
125	0x3e375821	0.17904712
126	0x3d8e5efc	0.069517106
127	0x3dcd7414	0.10031906

fc2.weight f4 [128, 128]
0	0xbe60ad08	-0.21941006
1	0xbce2c886	-0.027683508
2	0xbc8cefc1	-0.017204167
3	0xbe4ec645	-0.20192821
4	0xbd1c7176	-0.038194142
5	0x3e18eece	0.14934847
6	0x3db41a40	0.08794069
7	0xbd54394e	-0.051812463
8	0xbd5b604f	-0.053558644
9	0x3d90c77e	0.070693
10	0x3e55e9f4	0.20890027
11	0xbdd7c339	-0.10535283
12	0x3e0904a4	0.13380677
13	0x3d8df150	0.06930792
14	0xbda7be9b	-0.08190652
15	0x3e3a219e	0.18176886
16	0x3cb0200f	0.021499662
17	0x3c38a5d1	0.011270002
18	0xbdfc1dee	-0.12310396
19	0x3de29008	0.11062628
20	0xbe64d6aa	-0.22347513
21	0xbd8b055e	-0.06788133
22	0xbd372436	-0.044712268
23	0x3da6a012	0.08136
24	0x3e1d858c	0.15382975
25	0xbc564086	-0.013076907
26	0x3de907f4	0.1137847
27	0xbdeb7b37	-0.11498111
28	0x3e274f1d	0.16338773
29	0x3d1ac561	0.03778589
30	0x3d2af5d1	0.041738335
31	0x3e1cbe0a	0.15306869
32	0xbe1048c3	-0.14090256
33	0xbabcd3c4	-0.0014406373
34	0xbba8290a	-0.0051318454
35	0x3d55709a	0.05210934
36	0x3cf280d2	0.029602442
37	0x3e7ddca5	0.247912
38	0x3e44d8e7	0.19223367
39	0xbe442978	-0.19156444
40	0xbe030f70	-0.12798858
41	0x3dabca05	0.083881415
42	0x3d952bca	0.07283743
43	0x3cc0f2d8	0.023553297
44	0x3cc2d5cc	0.023783587
45	0x3dd932a5	0.10605363
46	0x3e43edba	0.19133654
47	0xbe44dd66	-0.19225082
48	0xbe156c16	-0.14592013
49	0xbdc65502	-0.09684183
50	0x3e018940	0.12650013
51	0x3d245ad8	0.040125698
52	0x3e995c13	0.2995306
53	0x3d8c2ec4	0.06844857
54	0x3d9ee82b	0.07759126
55	0x3e02cb6b	0.1277291
56	0x3cee9d8b	0.029127857
57	0xbe0ea83d	-0.13931365
58	0x3e1a2ddf	0.15056561
59	0xbd9b0b20	-0.07570481
60	0xbcc9f585	-0.024653206
61	0xbdb9cea3	-0.09072616
62	0x3eae86a4	0.34087098
63	0xbe198f37	-0.14996038
64	0x3cca279b	0.024677088
65	0xbd26b487	-0.040699508
66	0xbe06f330	-0.13178706
67	0x3dab1100	0.08352852
68	0xbdc9e6bf	-0.098584644
69	0x3e06ae1a	0.13152352
70	0x3e53210e	0.20618078
71	0x3d83e06b	0.06439289
72	0xbdfc529a	-0.123204425
73	0xbe757328	-0.2396971
74	0x3e6d33ce	0.23164293
75	0xbd7db66c	-0.06194155
76	0x3d6eb222	0.05827535
77	0x3daa206d	0.08306966
78	0x3dd7a355	0.105292
79	0x3cf97e3f	0.030455707
80	0xbc8ca172	-0.017166827
81	0x3d031ec1	0.03201175
82	0xbc17fba5	-0.009276305
83	0xbda6e925	-0.081499375
84	0xb9bd2816	-0.00036078756
85	0xbdda2664	-0.10651854
86	0xbd65a23c	-0.056062922
87	0x3dbdbd17	0.09264582
88	0xbdadc29e	-0.08484386
89	0x3e0b801b	0.13623087
90	0xbd9c1458	-0.07621068
91	0x3e6669d1	0.22501303
92	0x3e1916d4	0.14950114
93	0xbc625ff9	-0.013816827
94	0xbdc5941e	-0.09647392
95	0xbe86dfcd	-0.2634262
96	0xbd5a2435	-0.053257186
97	0xbe329f57	-0.17443596
98	0xbd41a385	-0.047275085
99	0x3df9b647	0.1219297
100	0xbd648ace	-0.055796437
101	0x3ddd6b56	0.10811488
102	0x3d20f82e	0.039299183
103	0x3caea702	0.02131987
104	0x3dc203f5	0.09473411
105	0x3d04f141	0.03245664
106	0x3b94cfe7	0.0045413855
107	0xbd2c3a27	-0.042047646
108	0x3e5561e6	0.20838127
109	0xbe44820d	-0.19190235
110	0xbd7a9711	-0.061179224
111	0xbd91d07d	-0.07119844
112	0x3dc2bcdf	0.095086806
113	0x3c0d473d	0.008622942
114	0x3e112af7	0.14176546
115	0x3d4e7a22	0.050409444
116	0xbcdf30ea	-0.027245004
117	0x3e1bb8fd	0.15207286
118	0x3e528155	0.20557149
119	0x3dc14fc6	0.09439044
120	0x3e1db4f1	0.15401055
121	0xbc4548c4	-0.012041274
122	0x3e4375b3	0.19087867
123	0x3d44c1a4	0.048036233
124	0x3dd4a801	0.10383607
125	0xbd165756	-0.036704384
126	0x3d42bbb1	0.047542278
127	0x3d0f3837	0.03496572
128	0x3e21b781	0.15792657
129	0xbe374c87	-0.17900287
130	0x3dc4da4c	0.09611949
131	0xbe168255	-0.14698155
132	0x3ac4492e	0.0014975423
133	0x3d764d09	0.06013206
134	0x3e329a91	0.17441775
135	0x3ddace97	0.10683935
136	0xbd16fda0	-0.03686297
137	0x3de23c74	0.11046687
138	0xbe254174	-0.1613825
139	0xbe68cdf6	-0.22734818
140	0xbb8c02e5	-0.004272806
141	0x3dfe1126	0.124056146
142	0xbe37833f	-0.1792116
143	0x3cd56e38	0.026053533
144	0x3e562931	0.20914151
145	0x3e5757cb	0.21029584
146	0x3c3e713b	0.011623676
147	0xbd3eb295	-0.046557028
148	0x3ce8bf9a	0.028411675
149	0xbe2d2978	-0.1691035
150	0x3e26bfcd	0.16284104
151	0xbe02a8ec	-0.12759751
152	0x3bfa7e4f	0.0076444517
153	0xbde53162	-0.1119106
154	0xbd9d3057	-0.07675236
155	0x3ddb8690	0.10719025
156	0x3e26bad7	0.16282211
157	0x3db63d19	0.08898372
158	0x3e33b806	0.17550668
159	0xbd4c0e96	-0.049818598
160	0x3ceaa405	0.028642664
161	0xbe2638a9	-0.16232552
162	0xbe0b7e00	-0.13622284
163	0x3ddbdcd5	0.1073548
164	0x3c7f0b4d	0.015566659
165	0xbe34234a	-0.17591587
166	0x3d0bdfbf	0.034148928
167	0x3daf0fd0	0.08547938
168	0x3d84ae53	0.06478562
169	0xbdec533b	-0.115393125
170	0x3d9b58ca	0.075852945
171	0xbd13657f	-0.035985466
172	0x3c84c933	0.01620922
173	0x3e06caa8	0.13163245
174	0xbdcb4aa7	-0.09926348
175	0xbe31047a	-0.17286864
176	0x3de41839	0.111374326
177	0x3dcf96e4	0.10136202
178	0x3e499252	0.19684723
179	0xbd533ea3	-0.051573407
180	0xbbc75f3f	-0.0060843523
181	0x3e7573ba	0.23969927
182	0x3e3789e8	0.17923701
183	0xbd5b3e13	-0.053525995
184	0x3c79c7fe	0.015245436
185	0xbe3737a5	-0.1789232
186	0xbdd927b0	-0.10603273
187	0xbc08ea5d	-0.008356658
188	0x3c92d53b	0.017923942
189	0xbc12565a	-0.008931721
190	0xbd5b2ffc	-0.05351256
191	0x3e703942	0.23459342
192	0xbd84e8e2	-0.06489731
193	0xbd8d00e9	-0.06884939
194	0x3d63cbfa	0.05561445
195	0xbc0648c0	-0.008196056
196	0x3c879a5f	0.016553102
197	0xbe24404f	-0.16040157
198	0xbc011a34	-0.0078797825
199	0xbe5db86d	-0.21652384
200	0x3d9b5d78	0.07586187
201	0x3df2d527	0.11857062
202	0x3e27cd01	0.16386797
203	0x3d2c289b	0.042030912
204	0x3dd4ea48	0.10396248
205	0x3e4283ed	0.18995638
206	0xbdd0c5dc	-0.10193989
207	0x3e2ab1fe	0.16669461
208	0x3d1bf2c5	0.03807332
209	0x3c6cf26e	0.014462097
210	0xbc874377	-0.016511662
211	0xbd94c40f	-0.07263958
212	0x3d16cee8	0.036818415
213	0xbe532bc0	-0.20622158
214	0xbb95fc8b	-0.0045772246
215	0x3dfb6f97	0.122771434
216	0x3d46f409	0.048572574
217	0xbcb4c1e2	-0.022065107
218	0x3dda205a	0.10650702
219	0xbc81bad6	-0.01583616
220	0xbdb68d90	-0.0891372
221	0xbbb32af1	-0.0054677655
222	0xbdc888fa	-0.09791751
223	0x3bb9845e	0.0056615314
224	0x3c90c0c6	0.017670047
225	0xbe02e70f	-0.12783454
226	0xbe7ac7d5	-0.24490292
227	0xbcd82597	-0.026385112
228	0xbe291f44	-0.16515833
229	0x3e16d7fb	0.14730828
230	0x3d3e34e7	0.04643717
231	0x3d3a077a	0.045417286
232	0xbe07e8ce	-0.13272402
233	0x3dbf73a5	0.09348229
234	0xbe2fff23	-0.1718717
235	0x3c824318	0.015901133
236	0xbe174a93	-0.14774542
237	0x3ba15ed9	0.004924637
238	0xbd0cf508	-0.034413368
239	0xbceeb626	-0.02913959
240	0x3dd85d86	0.10564713
241	0xbe23ec8d	-0.16008206
242	0x3e1ea521	0.15492679
243	0x3c797e97	0.015227935
244	0xbeb62ced	-0.3558115
245	0x3e1dd715	0.15414079
246	0xbd5191cb	-0.05116443
247	0x3e575d19	0.21031608
248	0x3e356551	0.1771443
249	0x3c8f1c9f	0.017469702
250	0x3ec29a2d	0.38008252
251	0xbe5a7f70	-0.21337676
252	0xbdff48e1	-0.124650724
253	0x3d60e794	0.05490835
254	0x3d69398a	0.05693964
255	0xbd90afd5	-0.07064787

fc2.bias f4 [128]
0	0x3cf1a23d	0.029496307
1	0x3e404602	0.18776706
2	0xbd0a179c	-0.033713922
3	0xbd8bea03	-0.068317436
4	0x3e4b1882	0.19833568
5	0x3d55a2a7	0.05215707
6	0x3d290778	0.04126689
7	0xbdb21efa	-0.086973146
8	0xbdbf3e26	-0.09338026
9	0x3c8b8f21	0.017036023
10	0xbd971a14	-0.07378021
11	0x3d3224e9	0.04349223
12	0xbc9ef8c4	-0.01940573
13	0xbd0e379d	-0.034721006
14	0xbda6e364	-0.0814884
15	0xbd3b1204	-0.045671478
16	0x3d8d8c10	0.069114804
17	0x3d789e34	0.06069775
18	0xbd6611aa	-0.05616919
19	0xbc83edc3	-0.016104585
20	0x3d100255	0.035158474
21	0x3e01314b	0.1261646
22	0xbd861c35	-0.06548349
23	0x3daa635e	0.08319734
24	0xbd73bd0e	-0.05950647
25	0xbd9061a8	-0.070498765
26	0xbdf46b87	-0.11934572
27	0x3d26eb33	0.040751647
28	0xbdbcb0b9	-0.09213395
29	0x3dd1626a	0.10223849
30	0x3de601fc	0.11230847
31	0xbd4fd3f8	-0.05073926
32	0x3d9380e6	0.0720232
33	0x3cb194ca	0.021677393
34	0x3e101f44	0.14074427
35	0x3cacb452	0.021082077
36	0x3d223f9c	0.039611444
37	0x3e10f761	0.14156868
38	0xbd0a8fe7	-0.033828642
39	0x3ce80c01	0.028326036
40	0x3dab361f	0.08359932
41	0x3cbbbead	0.02291807
42	0x3dbece4a	0.0931669
43	0x3df93e6f	0.121701114
44	0xbbd392e3	-0.0064567192
45	0xbda3f4e9	-0.08005697
46	0xbd1340e2	-0.03595055
47	0xbd7bfc56	-0.061519943
48	0xbce32e2f	-0.027731983
49	0x3d87836c	0.066168636
50	0xbd540700	-0.05176449
51	0x3d7e6770	0.062110364
52	0xbd863fbc	-0.06555125
53	0xbc746c23	-0.01491836
54	0x3c6da0dc	0.014503684
55	0xbd328a48	-0.043588907
56	0x3dab38d0	0.083604455
57	0x3bcd2fbb	0.0062617934
58	0xbdc0be17	-0.09411257
59	0x3d23ae92	0.039961405
60	0xbc8a38a7	-0.016872717
61	0x3df65aa3	0.12029006
62	0xbcf125cb	-0.029436966
63	0xbdd360fe	-0.10321234
64	0xbd3a77df	-0.045524474
65	0x3d62c5f6	0.05536457
66	0xbd4a557d	-0.049397934
67	0xbda249c2	-0.079242244
68	0x3c6d2540	0.014474213
69	0x3dba6bd7	0.091026
70	0x3da20696	0.079114124
71	0x3e66969f	0.22518395
72	0x3d96dc9f	0.07366299
73	0xbdd5dd20	-0.10442567
74	0xbd8a0764	-0.06739691
75	0xbdbf386c	-0.093369335
76	0xbc93a16f	-0.018021313
77	0x3d3e94bf	0.046528574
78	0x3db512fe	0.08841513
79	0xbc4c7a2a	-0.012480298
80	0x3deeb90f	0.11656391
81	0x3afa0aab	0.0019076666
82	0x3d289c10	0.041164458
83	0xbd531b68	-0.05153981
84	0xbbcb9f65	-0.0062140697
85	0xbe0f2a73	-0.13981037
86	0x3cb2d836	0.021831613
87	0x3e1c9aa5	0.15293367
88	0x3d876595	0.06611172
89	0xbd8802ad	-0.06641135
90	0x3df1c168	0.118044674
91	0xbd344ec7	-0.04402044
92	0xbd50ad9e	-0.050946824
93	0x3db5ba05	0.08873371
94	0x3e060d68	0.13091052
95	0x3dc6406f	0.096802585
96	0xbda78b0b	-0.08180817
97	0x3c757c36	0.0149832275
98	0xbd8a0f0c	-0.06741151
99	0x3d7ae751	0.061255757
100	0xbd5aee32	-0.053449817
101	0xbc8b2f78	-0.016990408
102	0x3ae04774	0.0017111138
103	0xbca57e16	-0.020201724
104	0xbd9bb691	-0.07603181
105	0x3cebeb9f	0.028798876
106	0xbd66b0e3	-0.056321036
107	0xbddd3867	-0.108017735
108	0xbbaab730	-0.005209826
109	0x3bdcce69	0.006738473
110	0xbdd25a3e	-0.102711186
111	0xbd6746e4	-0.05646409
112	0xbd56927f	-0.052385803
113	0xbd5789b4	-0.05262156
114	0x3ce98534	0.028505899
115	0xbd074881	-0.03302813
116	0xbd3f0fe3	-0.04664601
117	0x3a29358b	0.0006454817
118	0x3d7fe157	0.06247076
119	0xbd6546ea	-0.055975832
120	0x3cdecabf	0.027196286
121	0x3d9b54b6	0.07584517
122	0xbd5b729e	-0.053576104
123	0x3cd91525	0.02649934
124	0x3d756f28	0.05992046
125	0x3d132776	0.035926305
126	0x3e202a2b	0.15641086
127	0xbca6739f	-0.020318804
